rnn_weights_2/weights_256_random_g0.5_tanh_ready_set_go.pt (torch, 270300 bytes, 5 tensors)

rnn.weight_ih_l0 f4 [256, 2]
0	0x3f37d887	0.7181477
1	0xbe8e5501	-0.27799228
2	0xbe877c0d	-0.2646183
3	0x3e00b63c	0.12569517
4	0x3f119d15	0.56880313
5	0x3eba1ca2	0.3634997
6	0x3ed3a190	0.413342
7	0x3e17b27d	0.14814182
8	0xbd98f489	-0.074685164
9	0xbe8dc11f	-0.27686402
10	0xbdcc6b11	-0.09981359
11	0xbda33b8e	-0.079703435
12	0x3f353c71	0.7079535
13	0x3e686679	0.2269534
14	0x3f137509	0.57600456
15	0xbf35d3e1	-0.71026427
16	0x3eaf1b70	0.3420062
17	0x3e83a13e	0.25708956
18	0x3d179df5	0.037015874
19	0xbecf7a74	-0.40523112
20	0xbe93a91c	-0.28839958
21	0xbe2ef98a	-0.17087379
22	0xbf160f55	-0.58617145
23	0xbdbae0a5	-0.09124879
24	0xbe84ba87	-0.2592356
25	0xbe663ba9	-0.22483696
26	0xbe8ff8c9	-0.28119496
27	0xbe1a8473	-0.15089588
28	0x3f94786d	1.1599251
29	0x3eb4607a	0.35229856
30	0xbf24a6d1	-0.6431704
31	0xbf5ffb46	-0.8749279
32	0x3d274faa	0.040847458
33	0x3e98775b	0.2977856
34	0xbebcf0fb	-0.36902604
35	0xbcaddc84	-0.021223314
36	0x3ef26030	0.4733901
37	0xbba8259c	-0.0051314365
38	0x3d210ed3	0.039320778
39	0x3db76ccf	0.089563005
40	0xbf084dd0	-0.5324373
41	0x3e5264dd	0.20546289
42	0x3e970d9d	0.29502574
43	0xbe613b3d	-0.21995254
44	0xbd3ebf78	-0.046569318
45	0xbe5c5853	-0.21518068
46	0xbf7b8a29	-0.9825769
47	0x3d8ec712	0.069715634
48	0xbe077c7f	-0.13231085
49	0x3d5bc0f7	0.053650822
50	0xbed858a1	-0.42255118
51	0x3de4397f	0.11143779
52	0xbf349d15	-0.7055219
53	0x3da23fd8	0.079223335
54	0xbe9760a5	-0.2956592
55	0x3dc640f6	0.09680359
56	0x3dc3a282	0.0955248
57	0xbda29e3e	-0.079403386
58	0xbf1ea5d0	-0.6197176
59	0xbd18c2ec	-0.037295267
60	0xbd7bb769	-0.06145421
61	0xbe8e6167	-0.27808687
62	0x3f89915f	1.0747489
63	0xbf39ce9d	-0.7258089
64	0x3fc01d60	1.5008965
65	0xbe092b12	-0.13395336
66	0x3da45fe6	0.08026104
67	0xbdfe4fc8	-0.12417561
68	0x3e49d4a2	0.19710019
69	0xbecd03ed	-0.40042058
70	0xbf3de429	-0.7417627
71	0x3d967450	0.073464036
72	0x3e4a0282	0.19727519
73	0x3f18280a	0.59436095
74	0xbe6b1253	-0.22956209
75	0x3eb88745	0.36040702
76	0x3f013be0	0.50481987
77	0xbe1ea2f4	-0.15491849
78	0xbe5a0e1f	-0.2129445
79	0x3c80e8d5	0.015736023
80	0x3cfbb07c	0.030723803
81	0x3f10763c	0.5643041
82	0x3ef54cbc	0.47910106
83	0x3da9a5d9	0.08283586
84	0x3ec3d7f2	0.3825069
85	0xbecc28fe	-0.39875025
86	0xbfa20aee	-1.2659585
87	0xbfd2fba2	-1.6483042
88	0xbdfa2096	-0.122132465
89	0x3dde11d3	0.108432434
90	0x3e3158d8	0.17319047
91	0xbf16f77b	-0.58971375
92	0x3dda8df1	0.106716044
93	0xbeecb14a	-0.4622901
94	0x3e414b1d	0.1887631
95	0xbe422b88	-0.18961918
96	0xbbc01e40	-0.005862981
97	0xbe0797df	-0.13241528
98	0xbdd2c1c1	-0.10290862
99	0xbf0985c5	-0.5371974
100	0xbf23ccac	-0.6398418
101	0xbee0203d	-0.43774596
102	0xbe9efef4	-0.3105389
103	0xbcf15349	-0.029458659
104	0xbec813c5	-0.39077583
105	0x3e2bd395	0.16779931
106	0xbf01dcc8	-0.5072751
107	0xbeb1c5fe	-0.3472137
108	0xbf4d04dc	-0.8008554
109	0x3ccc6366	0.02494974
110	0xbda8992f	-0.082323425
111	0x3ec21ed0	0.37914133
112	0xbe5e2cd8	-0.21696794
113	0xbd11cbd7	-0.035594787
114	0x3ee76864	0.4519683
115	0xbe00624d	-0.12537499
116	0x3e97894b	0.29596934
117	0x3e1f5a50	0.15561795
118	0xbf67834a	-0.90434706
119	0xbf9775ed	-1.1832863
120	0x3e025287	0.12726794
121	0x3e4aa459	0.19789256
122	0xbe2604eb	-0.16212814
123	0xbf184f29	-0.5949579
124	0xbf40f301	-0.75370795
125	0x3e06ad0d	0.13151951
126	0x3e96e050	0.29468012
127	0xbe184dbc	-0.14873403
128	0xbeb7f9cd	-0.3593277
129	0x3e6be7fb	0.23037712
130	0x3bd6d722	0.0065564075
131	0xbf3f73ce	-0.7478608
132	0x3e75b490	0.2399466
133	0xbe162742	-0.14663413
134	0x3f10c294	0.565469
135	0x3e1d9671	0.1538942
136	0x3d23665c	0.03989254
137	0x3e47a5e9	0.19496883
138	0x3f22600d	0.6342781
139	0x3e0c3e0a	0.13695541
140	0x3d9130ad	0.07089362
141	0xbe952f4a	-0.2913764
142	0xbed3ca94	-0.41365492
143	0x3ea00924	0.31256974
144	0xbe312e77	-0.17302881
145	0xbe23013b	-0.15918438
146	0xbeb27357	-0.34853622
147	0x3eaced61	0.33774856
148	0xbe031020	-0.1279912
149	0xbdd582b4	-0.1042532
150	0xbf1de997	-0.61684555
151	0xbee99113	-0.45618495
152	0x3e8b38bf	0.2719173
153	0x3f95b604	1.1696172
154	0x3e172653	0.14760713
155	0xbe89bfe8	-0.26904225
156	0x3e68f911	0.22751261
157	0xbdd83a0d	-0.10557947
158	0xbce605b1	-0.028078886
159	0xbf427624	-0.7596152
160	0xbdcd9a4b	-0.10039195
161	0x3e91295f	0.28351876
162	0x3f215afb	0.6302945
163	0x3ed5fd49	0.41794804
164	0xbe91e3dc	-0.28494155
165	0x3ec39408	0.38198876
166	0x3d7a2c80	0.061077595
167	0xbcec52cc	-0.028848074
168	0xbebd5dd8	-0.3698566
169	0x3e4fb064	0.20282131
170	0xbe7bc6e0	-0.24587584
171	0xbec04c82	-0.3755837
172	0xbe8e2d05	-0.27768722
173	0xbee302b6	-0.44338006
174	0x3f195f14	0.599107
175	0xbe1a3638	-0.15059745
176	0x3e16bb98	0.14719999
177	0xbe3cfe8b	-0.18456475
178	0x3f334afd	0.700363
179	0x3e982f31	0.29723504
180	0xbf2f0c50	-0.6837816
181	0x3b7865dc	0.003790251
182	0xbec5bace	-0.38619083
183	0x3e98412e	0.29737228
184	0x3e936445	0.28787437
185	0x3e364e97	0.17803417
186	0xbf2a4b1d	-0.66520864
187	0xbf408b97	-0.75213
188	0x3ee5be07	0.44871542
189	0x3ed74190	0.42042208
190	0xbd94786d	-0.07249532
191	0xbc50f508	-0.0127537325
192	0x3f0aa9ce	0.5416535
193	0x3e6f846b	0.23390357
194	0x3f07ee93	0.5309841
195	0x3d0c051c	0.03418456
196	0x3fa298d2	1.2702887
197	0x3e1db5a5	0.15401323
198	0xbf520d69	-0.8205171
199	0xbf732adb	-0.9498727
200	0xbd85bbd3	-0.06529965
201	0xbe372ad2	-0.17887428
202	0x3e15fdc6	0.14647588
203	0x3df3bd77	0.11901372
204	0x3e448857	0.19192635
205	0xbd3413b1	-0.04396409
206	0xbe8a0112	-0.26953942
207	0xbd1cf57f	-0.03832006
208	0xbebb3c0b	-0.36569247
209	0x3da5d1a3	0.08096626
210	0xbeb9d5f6	-0.36296052
211	0x3cd58e1a	0.026068736
212	0xbefb3ca1	-0.49069694
213	0xbf1c9b28	-0.6117425
214	0xbe256a2d	-0.16153784
215	0xbf930bbf	-1.148796
216	0x3ecb84aa	0.39749652
217	0xbf00a5bc	-0.5025289
218	0x3f54df5c	0.8315332
219	0x3eeb7487	0.4598734
220	0x3e5c81eb	0.21533935
221	0xbe2c3de1	-0.1682048
222	0xbe5d8bda	-0.2163538
223	0xbeb8796b	-0.36030135
224	0xbef33022	-0.4749766
225	0x3dcb25f1	0.09919346
226	0xbebd288c	-0.36944997
227	0xbd2ec5da	-0.042669155
228	0x3e77616a	0.24158254
229	0x3ea5d1aa	0.32386523
230	0xbe766797	-0.24062954
231	0x3ec97669	0.39348152
232	0x3e8121ae	0.25221008
233	0xbdc29282	-0.095006004
234	0xbcebc300	-0.028779507
235	0x3d0e2c85	0.034710426
236	0xbde9d2e1	-0.11417175
237	0xbe1bbead	-0.15209456
238	0xbe9d6460	-0.30740643
239	0x3eadd6b8	0.3395288
240	0x3f219fdc	0.6313455
241	0xbea3a75a	-0.31963617
242	0xbcfc0db2	-0.03076825
243	0x3f089419	0.5335098
244	0x3f3765c7	0.71639675
245	0x3f264fc5	0.6496547
246	0xbeba9c5d	-0.3644742
247	0x3dcc117a	0.09964271
248	0xbebb39e4	-0.36567605
249	0x3e0c585d	0.13705583
250	0xbe5e6335	-0.21717532
251	0xbe78b5be	-0.24288079
252	0xbf40f0a0	-0.75367165
253	0xbe778a8d	-0.24173947
254	0xbe9f5bb7	-0.3112466
255	0xbe849ff6	-0.2590329

rnn.weight_hh_l0 f4 [256, 256]
0	0x3c7a462f	0.015275522
1	0x3d65222b	0.05594079
2	0x3d1f1a9d	0.03884374
3	0xbd320cec	-0.043469355
4	0xbd467811	-0.048454348
5	0xbbd23682	-0.0064151892
6	0xbc9d3d56	-0.019194286
7	0xbd1ea6a9	-0.03873316
8	0x3c4a7012	0.012355821
9	0xbd982d2e	-0.07430492
10	0x3c5c7eee	0.013457997
11	0xbbcec4b0	-0.006310068
12	0x3c6f936e	0.014622552
13	0xbdd2b42c	-0.10288271
14	0xbdc3ca74	-0.09560099
15	0xbc349def	-0.011023982
16	0x3c8ec7c7	0.017429246
17	0x3bbe6a90	0.005811043
18	0x3d47af55	0.048751194
19	0x3ca8763e	0.020564195
20	0xbe0dc41b	-0.1384434
21	0x3cdf5a28	0.02726467
22	0xbd5a68c6	-0.053322576
23	0x3d68eb5f	0.056865092
24	0x3d766ff9	0.06016538
25	0xbd542008	-0.05178836
26	0xbd363b6d	-0.044490267
27	0xbd1c6f6a	-0.03819219
28	0xbd2b6d22	-0.041852124
29	0xbd52a5cb	-0.051427644
30	0x3d0f7b81	0.035029892
31	0xbd07f6a1	-0.033194188
32	0x3d3af06f	0.04563945
33	0x3d1df7c9	0.038566384
34	0x3e34ae94	0.17644721
35	0xbd8476fb	-0.06468006
36	0xbb2871f5	-0.002570269
37	0xbc6015ee	-0.013677103
38	0x3bfdf2f3	0.007749909
39	0xbded8be1	-0.115989454
40	0xbda4dc21	-0.08049799
41	0x3bfb1ec4	0.0076635797
42	0x3d0fc124	0.035096303
43	0xbbd9f84f	-0.006651915
44	0x3d0dcf2c	0.034621403
45	0x3d4ad3bc	0.049518332
46	0xbd4a1436	-0.04933568
47	0xbd000ea7	-0.031263974
48	0xbd985079	-0.07437224
49	0xbcd420f9	-0.025894629
50	0x3c657f0b	0.01400734
51	0x3da4925f	0.080357306
52	0x3d859d2e	0.0652412
53	0xbda9d963	-0.08293416
54	0xbbea26c7	-0.007145736
55	0x3d2bb1ab	0.041917484
56	0xbc83a73c	-0.016070955
57	0x3d16742b	0.03673188
58	0x3c24776e	0.01003824
59	0xbcfa4ec3	-0.030555135
60	0x3daf9938	0.08574146
61	0x3d1d25cd	0.038366128
62	0xbd4f8bbd	-0.050670374
63	0xbd3d4977	-0.04621264
64	0xbcc3adc1	-0.023886563
65	0xbb973470	-0.0046144053
66	0x3a9abefd	0.0011806187
67	0xbbf33454	-0.0074220095
68	0xbc969cbc	-0.018385284
69	0xbced2973	-0.028950429
70	0xbd178133	-0.03698845
71	0x3d19ff4f	0.037596997
72	0x3caa0020	0.020752013
73	0xbd600024	-0.054687634
74	0x3e207d2e	0.15672752
75	0x3c4116ec	0.01178525
76	0x3d6c74ea	0.057728685
77	0x3c052bff	0.008128165
78	0x3d1bb1cd	0.03801136
79	0xbccbd3e7	-0.024881316
80	0xbba754fa	-0.0051065655
81	0x3d4ab3a3	0.04948772
82	0xbd640e1f	-0.05567753
83	0xbd8f1d6e	-0.06988035
84	0x3c7bf96d	0.015379292
85	0xbd129ace	-0.035792165
86	0x3d3c684c	0.045997903
87	0x3c277dc1	0.010222853
88	0x3d2d6623	0.042333733
89	0xbc58aea0	-0.013225228
90	0xbc2ddf77	-0.01061236
91	0xbb1f7e92	-0.0024336916
92	0xbd441f2e	-0.047881298
93	0xbd727edd	-0.059203018
94	0x3cfd4fa3	0.030921763
95	0x3d774f79	0.060378525
96	0x3d16aa16	0.0367833
97	0xbd0486d6	-0.032355152
98	0xbd7c3861	-0.061577205
99	0xbcc498e6	-0.023998689
100	0xbb186f78	-0.00232598
101	0x3d9f74f0	0.07785976
102	0xbcb1702b	-0.021659931
103	0xbdac9593	-0.084269665
104	0xbdc43154	-0.09579721
105	0xbe0a85ac	-0.13527554
106	0xbd3d6364	-0.046237364
107	0x3d81150a	0.06302841
108	0x3d4f73ca	0.050647534
109	0xbe4c8a70	-0.19974685
110	0x3daa3661	0.08311153
111	0x3da534a6	0.080666825
112	0x3bb0921b	0.005388511
113	0xbd8fa9f1	-0.070148356
114	0xbd72524e	-0.059160523
115	0x3c37ed7d	0.011226055
116	0x3d51bd68	0.051206023
117	0x3cef762d	0.029231155
118	0x3da18256	0.07886188
119	0x3d1bf658	0.03807673
120	0x3e14f2a3	0.14545684
121	0x3d945782	0.07243253
122	0xbc47930f	-0.012181058
123	0x3d79234d	0.06082468
124	0x3b7de8a8	0.003874341
125	0x3d933e53	0.07189622
126	0x3d2ee40e	0.04269796
127	0x3d8756d2	0.066083565
128	0x3d291c66	0.04128685
129	0x3d8b1af4	0.0679225
130	0x3d968805	0.073501624
131	0xbc135380	-0.008992076
132	0x3dc14c45	0.094383754
133	0x3d88e1fd	0.06683729
134	0x3ccfe540	0.02537787
135	0xbd8e5b1a	-0.0695097
136	0x3cf04641	0.029330375
137	0x3c02f04a	0.00799186
138	0x3d9a01b0	0.07519853
139	0xbd5396e2	-0.051657565
140	0x3c4bf683	0.01244891
141	0xbd30187c	-0.0429921
142	0x3c1934ee	0.009350998
143	0xbd5c6b31	-0.053813163
144	0xbaa56561	-0.0012618714
145	0x3cfd4b97	0.030919833
146	0xbde53297	-0.1119129
147	0x3de3722a	0.111057594
148	0x3d337923	0.043816697
149	0x3d352dda	0.04423318
150	0xbb85cf74	-0.004083568
151	0xbda311a9	-0.07962353
152	0xbd1e0abe	-0.038584463
153	0x3c40b025	0.011760746
154	0x3d97e5be	0.07416867
155	0xbda34bdb	-0.07973453
156	0x3d05e4a6	0.03268876
157	0xbc1cf238	-0.009579234
158	0x3bce964b	0.0063045374
159	0xbdaffcb3	-0.085931204
160	0xbd1323f5	-0.035922963
161	0x3d5baf34	0.053633884
162	0xbd6bb583	-0.05754615
163	0xbd91dad1	-0.07121814
164	0xbd1a682e	-0.03769701
165	0xbccd5b49	-0.025067942
166	0xbc1f3429	-0.009717026
167	0x3d4ce6ac	0.050024673
168	0x3d3560e9	0.044281874
169	0xbd9a8881	-0.07545567
170	0x3d380786	0.04492905
171	0x3db805c9	0.089854784
172	0x3b3c24e6	0.0028708517
173	0xbd940870	-0.07228172
174	0xbd072b93	-0.03300054
175	0xbce3d714	-0.027812518
176	0xbdc2b52a	-0.095072106
177	0x3d6bce77	0.057569947
178	0xbd640775	-0.055671174
179	0x3d30b46a	0.043140806
180	0x3dd2ed52	0.102991715
181	0x3ce056f9	0.027385222
182	0x3d22e505	0.03976919
183	0xbd83697b	-0.06416603
184	0xbcf40af2	-0.029790375
185	0xbdba4b7e	-0.0909643
186	0xbda8bbbe	-0.08238934
187	0xbd45e9b8	-0.048318595
188	0xbdbae585	-0.091258086
189	0xbd651f4a	-0.055938043
190	0xbce67145	-0.028130183
191	0x3d472999	0.048623655
192	0xbbf35942	-0.007426412
193	0x3d6d28df	0.057900306
194	0xbdc780a8	-0.09741336
195	0xbda6f6e5	-0.0815256
196	0xbb9ef0d7	-0.0048504877
197	0xbc5754ef	-0.013142808
198	0xbb99ed78	-0.004697498
199	0xbdab80fb	-0.083742104
200	0xbc5fb64d	-0.013654304
201	0xbd7e1be6	-0.062038325
202	0x3c5f1b68	0.013617374
203	0x3e0ac14b	0.13550298
204	0xbc9c64d8	-0.019091055
205	0x3d2e7598	0.042592615
206	0x3d4bc2c6	0.049746297
207	0x3d30b6d6	0.043143116
208	0x3cb3f36d	0.02196666
209	0x3d25f6ac	0.040518448
210	0x3b466715	0.0030273844
211	0xbb813d1b	-0.003944052
212	0xbc442bbd	-0.011973319
213	0x3c89eb68	0.016835883
214	0x3d1f3b29	0.03887478
215	0xbd83cd26	-0.06435613
216	0x3c5a1c2a	0.013312379
217	0x3d0cf50e	0.03441339
218	0xbd9cf98b	-0.07664784
219	0xbd2f8a0f	-0.042856272
220	0xbd8055dd	-0.06266377
221	0xbb2fdb41	-0.0026833566
222	0x3d951910	0.07280171
223	0x3d51f893	0.05126245
224	0x3cd37293	0.02581147
225	0x3d1b057e	0.037847035
226	0xbc27eaa1	-0.010248811
227	0x3d43c0ec	0.047791407
228	0xbdd6112f	-0.10452496
229	0x3ae8ac5a	0.001775156
230	0xbb00bc9c	-0.001964367
231	0x3defa174	0.117007166
232	0x3d9af699	0.07566566
233	0xbd3968e0	-0.045266032
234	0x3d1eb38a	0.03874544
235	0x3d1915a5	0.037374157
236	0xbd6490d1	-0.05580217
237	0x3b59434e	0.003315169
238	0xbdbe0c4c	-0.09279689
239	0xbcf230c3	-0.029564267
240	0xbd1e2911	-0.038613383
241	0x3c8e96bf	0.017405866
242	0xbd8d5f08	-0.069028914
243	0x3c3c897b	0.011507387
244	0x3ca279a4	0.019833393
245	0x3cb71217	0.022347493
246	0x3ce68ca9	0.028143244
247	0x3cabdb13	0.020978486
248	0x3d2d0f84	0.042251125
249	0x3d3cff01	0.04614163
250	0xbd964370	-0.073370814
251	0xbcd037c5	-0.025417218
252	0xbd87d5d0	-0.066325784
253	0xbdd59ff1	-0.10430897
254	0x3dd18e1d	0.10232184
255	0x3d25c6ac	0.04047267

rnn.bias_ih_l0 f4 [256]
0	0xbc48cec0	-0.012256324
1	0xbd305c67	-0.04305687
2	0xbd70597d	-0.058679093
3	0xbbbb5b7f	-0.0057176943
4	0x3d864145	0.06555418
5	0x3dbb5da5	0.09148721
6	0x3de95fb5	0.11395208
7	0xbcbf75b0	-0.023371547
8	0xbd25c18b	-0.04046778
9	0xbdb128a6	-0.08650331
10	0x3c662bee	0.01404856
11	0x3d7d37a4	0.06182064
12	0xbd2fb5ea	-0.042898096
13	0xbdfadc8c	-0.12249097
14	0xbd2acfe3	-0.041702162
15	0xbcf6ed85	-0.030142555
16	0xbb448afc	-0.0029990068
17	0xbcb6698b	-0.022267124
18	0x3d900613	0.070324086
19	0x3d8e1df4	0.06939307
20	0x3ce67be8	0.028135255
21	0xbd99babc	-0.0750632
22	0xbd9f7761	-0.077864416
23	0xbcff22ef	-0.031144587
24	0xbd029642	-0.03188158
25	0x3d8e424f	0.06946241
26	0xbcd7da08	-0.026349083
27	0xbd59ffed	-0.053222585
28	0xbc914eb3	-0.017737722
29	0x3e10507a	0.140932
30	0xb8e13380	-0.00010738429
31	0xbc87721b	-0.016533902
32	0x3d855e5f	0.065121405
33	0x3d97f162	0.07419087
34	0x3d0b5ff6	0.034027062
35	0x3e03f0cf	0.1288483
36	0x3d367115	0.044541437
37	0xbdfef898	-0.12449759
38	0x3bf166c8	0.007366989
39	0xbdfa1f8f	-0.122130506
40	0xbd9687c9	-0.07350118
41	0x3dde288d	0.10847578
42	0xbce405c6	-0.027834784
43	0x3d6422f6	0.055697404
44	0x3d30647b	0.043064576
45	0x3d64808d	0.055786658
46	0xbd104fa3	-0.035232197
47	0x3d533572	0.05156464
48	0x3cf5d510	0.030008823
49	0x3c528721	0.0128496
50	0xbd29116e	-0.041276388
51	0x3914e23e	0.00014198662
52	0x3e4f1014	0.20220977
53	0x3d294a1f	0.041330453
54	0x3d51daed	0.051234175
55	0x3d5069b8	0.05088207
56	0x3cc25fd7	0.02372734
57	0xbd0e674c	-0.03476648
58	0x3da45f08	0.08025938
59	0xbc6f36e3	-0.014600488
60	0x3e07817d	0.1323299
61	0x3c0efc01	0.008727075
62	0x3a9962a0	0.0011702366
63	0x3c924b83	0.017858272
64	0xbcc29e40	-0.0237571
65	0x3c656049	0.014000007
66	0xba2fec54	-0.0006710936
67	0xbd19ded8	-0.037566036
68	0x3db8f31a	0.09030743
69	0x3de115ed	0.1099051
70	0xbdb127c0	-0.0865016
71	0x3da569fe	0.08076857
72	0x3d3fb6ae	0.046805076
73	0x3dc08b28	0.09401542
74	0x3e20e21c	0.15711254
75	0x3b102a5f	0.0021997911
76	0x3da6e658	0.08149403
77	0x3d2b8cda	0.041882373
78	0x3c9c21fb	0.019059172
79	0x3dc1c8a1	0.09462095
80	0x3d73e980	0.059548855
81	0x3e3ed100	0.18634415
82	0xbc733dce	-0.014846278
83	0xbd4200c2	-0.047364004
84	0x3cc6687a	0.02421974
85	0xbb8264a3	-0.003979282
86	0xbc652ba3	-0.013987455
87	0x3cfdfb48	0.03100361
88	0x3d0a5f21	0.03378213
89	0x3cf3a8aa	0.029743511
90	0xbc62dc11	-0.013846413
91	0xbd99df69	-0.07513315
92	0xbdec1656	-0.11527698
93	0x3d0b6197	0.034028616
94	0x3ceb5490	0.028726846
95	0xbd42fda3	-0.047605168
96	0x3d966433	0.0734333
97	0x3d2ecfe1	0.042678718
98	0xbd123e91	-0.0357042
99	0x3d2c877c	0.042121395
100	0xbc706a98	-0.014673851
101	0x3dc6f569	0.09714777
102	0xbd616ded	-0.055036474
103	0xbd3b06d5	-0.045660812
104	0xbd6317c9	-0.055442605
105	0xbc8d003d	-0.017212028
106	0x3cc7fa0e	0.024411228
107	0x3d4dd011	0.050247256
108	0xbca55890	-0.020183831
109	0xbdc7e5d4	-0.09760633
110	0x3cc89977	0.02448724
111	0x3c48592d	0.012228292
112	0x3a43ca54	0.0007468809
113	0xbc47f873	-0.012205231
114	0xbcdce142	-0.02696288
115	0xbd26132d	-0.04054563
116	0x3d4c39d1	0.049859826
117	0xbd14dbd8	-0.03634247
118	0x3d9f96a5	0.07792405
119	0x3dab6ae9	0.08370001
120	0x3d658245	0.056032438
121	0x3e12a86b	0.14322059
122	0xbd6482da	-0.055788852
123	0x3bc9d52a	0.0061594443
124	0x3d31273d	0.04325031
125	0x3c9e1a32	0.0192996
126	0x3dfa7205	0.12228779
127	0x3d4878cf	0.048943337
128	0xbdaa47bb	-0.08314463
129	0x3d44e6c1	0.048071627
130	0xbe06a4e4	-0.13148838
131	0xbddcea1f	-0.107868426
132	0x3c13b861	0.009016127
133	0xbd0263d9	-0.031833503
134	0xbad0f99d	-0.0015943531
135	0x3d86c81b	0.06581136
136	0x3de20f24	0.11038044
137	0xbcf5c52f	-0.030001251
138	0xbcf61953	-0.030041372
139	0xbae439b1	-0.0017412213
140	0xbd006822	-0.03134931
141	0xbd0c024f	-0.03418189
142	0xbcb59b4e	-0.022168782
143	0x3d0ae4c8	0.03390959
144	0xbca3af16	-0.019980948
145	0x3da98f38	0.0827927
146	0xbdb37ac5	-0.08763651
147	0x3d1759f9	0.03695104
148	0xbb6c50f0	-0.0036058985
149	0x3d5c7cac	0.053829834
150	0x3d38cb68	0.04511586
151	0x3bbe3c07	0.0058054957
152	0x3c58483e	0.013200818
153	0x3d5e39ec	0.054254457
154	0x3d20c096	0.039246164
155	0xbd36a140	-0.044587374
156	0xbc4763a6	-0.012169754
157	0x3a954af2	0.0011390133
158	0xbd436ae2	-0.047709353
159	0xbb17260b	-0.0023063447
160	0xbd8a0fed	-0.06741319
161	0xbda1a2ed	-0.07892404
162	0xbb94f202	-0.004545451
163	0xbc8e77e3	-0.01739115
164	0x3c922d2c	0.017843805
165	0x3d95a192	0.07306208
166	0x3df6ddce	0.12054025
167	0x3cf36b99	0.029714392
168	0x3da113f3	0.07865133
169	0xbd860458	-0.06543797
170	0x3dae1b3f	0.085012905
171	0xbce503fd	-0.027956003
172	0x3dd613b4	0.10452977
173	0xbd3dd62a	-0.04634682
174	0x3c8227e3	0.01588816
175	0x3d3bb761	0.04582918
176	0xbd9efa16	-0.07762544
177	0x3da5493a	0.080706075
178	0xbe0f71c4	-0.14008242
179	0xbd8a6bec	-0.06758866
180	0xbd078215	-0.03308304
181	0x3cb77e36	0.02239905
182	0x3e087276	0.13324913
183	0xbc4f4412	-0.012650507
184	0x3de6609d	0.11248896
185	0xbce0bc11	-0.027433427
186	0xbd6a940f	-0.057270106
187	0x3d7b205c	0.061310157
188	0xbd9d4a8b	-0.076802336
189	0x3d31a70d	0.043372203
190	0x3ce0d577	0.027445538
191	0x3d832cc7	0.06405025
192	0xbde02c2e	-0.109459266
193	0xbe7add3c	-0.24498457
194	0xbe2b4256	-0.16724524
195	0x3d83092f	0.06398236
196	0x3d8df568	0.06931573
197	0xbdb3083c	-0.08741805
198	0xbbe1504d	-0.0068760277
199	0xbbceb99f	-0.006308749
200	0xbd2eb8cf	-0.042656716
201	0x3aaefe72	0.0013350977
202	0xbc9a06c4	-0.018802054
203	0x3df5e053	0.12005677
204	0x3d8c76cd	0.06858597
205	0xbda0b663	-0.078472875
206	0xbdd5d94b	-0.10441836
207	0xbd50d532	-0.05098457
208	0xbc8e3fc9	-0.0173644
209	0xbcacc7cf	-0.02109137
210	0xbd36508b	-0.044510406
211	0xbd2de4c2	-0.04245449
212	0x3cab8e74	0.02094195
213	0xbe04fde4	-0.12987477
214	0xbd9f8b66	-0.0779026
215	0xbd234944	-0.039864793
216	0xbd788c12	-0.060680456
217	0xbd85b945	-0.06529478
218	0xbc8af205	-0.016961107
219	0xbce09c60	-0.027418315
220	0x3d57f486	0.05272343
221	0x3d7b3d20	0.06133759
222	0x3dc522cb	0.09625777
223	0xbd0f6756	-0.03501066
224	0xbca10787	-0.01965691
225	0x3bb83628	0.0056216903
226	0x3d2ff923	0.042962205
227	0xbd31b923	-0.04338945
228	0x3d5a4715	0.053290445
229	0xbd6974cd	-0.056996156
230	0xbd90a6c4	-0.07063058
231	0x3e27630a	0.16346374
232	0x3dc6324a	0.096775606
233	0xbd28c037	-0.041198935
234	0x3bc5f354	0.00604097
235	0x3bdc31f1	0.0067198207
236	0xbdf45e27	-0.11932021
237	0x3c47a246	0.012184685
238	0xbc9744fb	-0.01846551
239	0x3bd05ab4	0.006358469
240	0xbdd7aa0f	-0.10530483
241	0xbd374d7b	-0.044751626
242	0x3c60c55f	0.013718932
243	0x3c0a0110	0.008423105
244	0xbe3ccdbb	-0.18437855
245	0xbde16ab6	-0.110066816
246	0x3b86ea7d	0.0041173087
247	0xbd119be3	-0.035549056
248	0xbe06738a	-0.13130012
249	0x3cee6f76	0.029105883
250	0xbd97649f	-0.07392239
251	0xbd002a6e	-0.031290464
252	0x3cacd289	0.021096485
253	0x3e2969e0	0.16544294
254	0x3e1036a8	0.1408335
255	0x3bd832de	0.0065978607

rnn.bias_hh_l0 f4 [256]
0	0xbc85cd7b	-0.016333332
1	0x3d3953e8	0.045246035
2	0xbda786ff	-0.08180045
3	0x3ce699fe	0.028149601
4	0x3d13630d	0.035983134
5	0x3c89e735	0.01683388
6	0x3d3f3451	0.046680752
7	0xbd90e55d	-0.070749976
8	0xbd69e502	-0.057103164
9	0xbd9f352b	-0.07773813
10	0x3dd2dab0	0.102956176
11	0x3d4cad21	0.049969796
12	0xbc817ed9	-0.015807556
13	0xbd69a627	-0.05704322
14	0xbdd0a4a9	-0.101876564
15	0xbd0a2635	-0.033727843
16	0x3cbcb119	0.023033665
17	0xbd2504e9	-0.040287886
18	0x3ce8226e	0.02833673
19	0x3cf5b2eb	0.029992541
20	0xbd09d0ca	-0.033646382
21	0xbe117c0a	-0.14207473
22	0xbd695bb8	-0.056972235
23	0xbd166d93	-0.036725592
24	0x3c230b40	0.009951413
25	0x3d32609d	0.04354917
26	0xbd9b2eae	-0.07577263
27	0xbdac3ed4	-0.08410421
28	0xbd714772	-0.058906026
29	0x3e0256f0	0.12728477
30	0xbbb659fa	-0.0055649253
31	0x3c0eb142	0.008709254
32	0x3d553a1b	0.052057367
33	0x3e136ab5	0.14396174
34	0x3ca85ce4	0.020552106
35	0x3d8ecb86	0.06972413
36	0x3d71cfcb	0.059036057
37	0xbdbdf9c4	-0.09276155
38	0x3d006c14	0.03135307
39	0xbd9b653b	-0.075876676
40	0xbcada15f	-0.021195112
41	0x3d807d93	0.062739514
42	0xbdcbc6af	-0.09950005
43	0x3dff9c9a	0.12481041
44	0x3d9ccc7b	0.07656189
45	0x3dcedd6c	0.101008266
46	0x3c21a3c0	0.009865701
47	0xbc8ec80b	-0.017429372
48	0xbc7a5d6f	-0.015281065
49	0x3df1afc5	0.118011035
50	0x3cca0552	0.02466074
51	0xbc556ac8	-0.013025947
52	0x3e67a905	0.2262307
53	0xbd140f28	-0.036147267
54	0x3b5fad44	0.0034130374
55	0x3b8e4224	0.0043413807
56	0x3c58d9b8	0.013235502
57	0x3cee43ec	0.029085122
58	0x3d86b135	0.06576768
59	0x3c645d82	0.01393831
60	0x3e23b599	0.15987243
61	0x3c1fec7b	0.009760971
62	0xbd5892b7	-0.052874293
63	0x3db9c6a2	0.09071089
64	0xbdaa92ec	-0.083288044
65	0x3cf6bc2b	0.030119022
66	0x3ca8a46e	0.020586219
67	0xbd6e2bdc	-0.058147296
68	0x3b8abe95	0.004234145
69	0x3d39056f	0.045171198
70	0xbdc48a83	-0.095967315
71	0x3d9324ac	0.07184729
72	0x3d3d1bf9	0.046169255
73	0x3d4a1e38	0.049345225
74	0x3e0d234c	0.13782996
75	0xbd7fbfad	-0.062438656
76	0x3cf2ab08	0.02962257
77	0x3d6d1813	0.057884287
78	0x3c5c87b5	0.013460089
79	0x3c0d6886	0.008630877
80	0x3d90fccc	0.07079467
81	0x3e054101	0.13013078
82	0x3d860d0f	0.065454595
83	0xbbee6ed4	-0.0072763953
84	0xbd6ea190	-0.058259547
85	0x3d2f694d	0.042825032
86	0xbd425b06	-0.047450088
87	0x3d2a6b59	0.04160628
88	0x3ce27b83	0.027646786
89	0x3d64a3fc	0.05582045
90	0xbd51dc36	-0.0512354
91	0xbd70edcd	-0.058820534
92	0xbe28b234	-0.16474229
93	0x3b4e9050	0.0031519122
94	0x3d256912	0.040383406
95	0x3c321d3d	0.010871229
96	0x3dc1c5b2	0.094615355
97	0xbc3fd752	-0.011709051
98	0x3d80bd55	0.06286112
99	0x3d89d298	0.06729621
100	0xbe04971d	-0.1294827
101	0x3d8ab363	0.067724966
102	0xbd0160d3	-0.03158648
103	0xbd342c4c	-0.043987557
104	0xbdf7dbd5	-0.121024765
105	0xbd5783c7	-0.052615907
106	0x3d90df47	0.07073837
107	0x3ddd3e0e	0.108028516
108	0x3d206535	0.03915902
109	0xbbcf06b5	-0.006317938
110	0xbc98c84c	-0.018650196
111	0x3be98555	0.00712649
112	0xbd04a42f	-0.03238314
113	0xbd30d2f5	-0.043169934
114	0x3ca266b2	0.01982436
115	0xbd90f5bf	-0.07078122
116	0x3d3736a0	0.04472983
117	0x3d5527a2	0.05203975
118	0x3d8d69da	0.06904955
119	0x3de15ed8	0.11004418
120	0x3d568e6c	0.052381918
121	0x3da4e1c2	0.080508724
122	0x3bc16452	0.0059018517
123	0x3ca071fe	0.019585606
124	0x3d1e021f	0.03857624
125	0xbcafefab	-0.021476587
126	0x3dad982b	0.08476289
127	0x3a478975	0.000761173
128	0xbd2013c0	-0.039081335
129	0x3dbdeb32	0.092733756
130	0xbdcf2ad0	-0.10115588
131	0xbd85a8b6	-0.0652632
132	0x3d5ae9ca	0.053445615
133	0x3cd00fb1	0.025398107
134	0x3d9a8839	0.07545514
135	0x3d7f8972	0.062386937
136	0x3d2a4da6	0.041577958
137	0x3d63d3f1	0.055622045
138	0x3c26f641	0.010190547
139	0x3d010ecd	0.031508256
140	0xbd6f04e3	-0.05835427
141	0x3d734c4d	0.059398938
142	0xbd1bc202	-0.038026817
143	0x3d070b36	0.032969676
144	0x3c024882	0.0079518575
145	0x3e0f3aa8	0.1398722
146	0xbe16fed4	-0.14745647
147	0x3dae025d	0.084965445
148	0x3dbf3dc9	0.093379565
149	0x3d908ff0	0.07058704
150	0xbc50251a	-0.012704158
151	0xbd97d26e	-0.07413183
152	0xbd28877b	-0.04114483
153	0xbc3f4a2a	-0.011675397
154	0xba2f7644	-0.0006693343
155	0xbe067621	-0.13131
156	0xbd788d8e	-0.060681872
157	0xbd86d8ea	-0.06584342
158	0xbcb2a99c	-0.021809392
159	0xbd2aeb89	-0.04172853
160	0xbd919517	-0.07108515
161	0xbcc0ddc2	-0.023543242
162	0xb8d69974	-0.00010232898
163	0x3d5bdf58	0.053679794
164	0xbd79ecc2	-0.061016805
165	0x3d9a9192	0.075472966
166	0x3d0f300c	0.03495793
167	0xbcdb45d1	-0.02676669
168	0x3d13b88c	0.03606467
169	0xbd85cafe	-0.06532858
170	0x3da33f92	0.079711094
171	0xbd1a8922	-0.037728436
172	0x3cfa729d	0.03057223
173	0xbdc8a464	-0.0979698
174	0xbb07af94	-0.0020704018
175	0xbd6303fc	-0.05542372
176	0xbe317924	-0.17331368
177	0x3dac668c	0.08417997
178	0xbe053578	-0.13008678
179	0xbc3f6973	-0.011682856
180	0x3c5a51f8	0.013325207
181	0x3db4d013	0.088287495
182	0x3e2fe024	0.17175347
183	0xbd9bc2d7	-0.07605522
184	0x3e2b5bc7	0.16734229
185	0x3a3f6591	0.00073012064
186	0x3cca4ade	0.024693903
187	0x3da8a9a0	0.082354784
188	0xbe178fa7	-0.14800893
189	0xbd5fcea8	-0.054640442
190	0xbda8f157	-0.08249157
191	0xbc4e76a0	-0.012601525
192	0xbd6ed0c6	-0.05830457
193	0xbea5476e	-0.3228106
194	0xbddbfa6b	-0.10741123
195	0x3d377b0b	0.044795077
196	0xbc0d9ea6	-0.008643782
197	0xbe1d52a6	-0.15363559
198	0x3c283c9d	0.010268358
199	0xbb1305f7	-0.0022433975
200	0xbdb0fb46	-0.086416766
201	0xbcee4eeb	-0.029090365
202	0x3d8eb32a	0.069677666
203	0x3d9a88f8	0.07545656
204	0x3d7b34a5	0.061329503
205	0xbb0188ab	-0.0019765298
206	0xbe123597	-0.14278255
207	0x3c1551be	0.009113727
208	0xbd0e9155	-0.03480657
209	0x3d6e4fb5	0.058181483
210	0xbd84f332	-0.06491698
211	0xbda973fe	-0.08274077
212	0x3ccdef67	0.02513857
213	0xbd0f6e50	-0.03501731
214	0xbc51d0d0	-0.012806132
215	0xbd5d5b1a	-0.05404196
216	0xbceaea3d	-0.028676147
217	0xbdabeca2	-0.083947435
218	0x3d334d1d	0.043774713
219	0xbcbc4740	-0.022983193
220	0xbcfb0345	-0.030641207
221	0x3d8b05d9	0.06788225
222	0x3dc47052	0.09591736
223	0xbd850732	-0.06495513
224	0x3b93818f	0.0045015286
225	0x3cc81940	0.024426103
226	0x3d1c4fbd	0.03816198
227	0xbde2a193	-0.11065974
228	0x3d1451ed	0.036210943
229	0xbcc97dd5	-0.024596134
230	0x3d1b460b	0.037908595
231	0x3db5ee53	0.08883347
232	0x3d27a36f	0.040927347
233	0xbd04c7e2	-0.032417186
234	0x3cb931e2	0.022606794
235	0xbdcae246	-0.099064395
236	0xbe1797d4	-0.14804012
237	0xbca4fb8b	-0.020139476
238	0x3ca65262	0.020302955
239	0xbc9aa4e9	-0.018877463
240	0xbd868358	-0.065680206
241	0x3bb15947	0.005412254
242	0x3d969b95	0.07353894
243	0x3bb25b02	0.005442978
244	0xbe24a6af	-0.1607921
245	0xbcc7b650	-0.024378926
246	0xbcecb7ba	-0.028896201
247	0xbd4067e7	-0.04697409
248	0xbe1a6c23	-0.15080313
249	0xbb171381	-0.0023052397
250	0xbd5f5d10	-0.05453211
251	0x3a9a9835	0.0011794629
252	0xbd821abf	-0.06352758
253	0x3d9c0ffa	0.07620235
254	0x3dcb38f1	0.0992297
255	0xbbdef77f	-0.006804406

out.weight f4 [1, 256]
0	0xbc4d37b5	-0.012525489
1	0xbd181069	-0.037125025
2	0x3d09c115	0.033631403
3	0x3d454f61	0.048171405
4	0x3cb8a5df	0.022540031
5	0x3d14ff38	0.036376208
6	0x3c320cf3	0.010867345
7	0x3ba14026	0.004920977
8	0xbd28736c	-0.0411257
9	0x3d1a1ff1	0.037628118
10	0xbd968727	-0.07349997
11	0x3bbdc322	0.005791084
12	0x3d25a2db	0.040438514
13	0x3d5decbd	0.05418085
14	0x3d352ff3	0.04423518
15	0xbd6f815b	-0.058472972
16	0x3cc443f1	0.023958178
17	0xbd32f6a9	-0.043692265
18	0xbb81843f	-0.0039525325
19	0xbd197d6d	-0.03747313
20	0xbb1e2a8e	-0.0024134251
21	0x3d4a301d	0.04936229
22	0x3dace5f3	0.08442297
23	0x3d29873f	0.041388746
24	0x3d09f316	0.03367909
25	0xbd0d1dee	-0.03445237
26	0x3ae9061b	0.0017778309
27	0xbc911aec	-0.017713033
28	0xbcd4b99d	-0.025967414
29	0xbd051881	-0.032494072
30	0x3c978d08	0.018499866
31	0xbc426dfe	-0.0118670445
32	0xbb3771ed	-0.002799149
33	0xbce64273	-0.028107857
34	0xbb0970f8	-0.0020971876
35	0xbb9cb35a	-0.0047821226
36	0xbdcace03	-0.09902575
37	0x3d7502ef	0.05981725
38	0xbc77b71a	-0.015119338
39	0xbbaaa492	-0.0052076066
40	0xbcfe2cd3	-0.031027233
41	0x3c8e4085	0.01736475
42	0xbb23c44e	-0.0024988833
43	0x3eb9e709	0.36309078
44	0xbcfabd3d	-0.030607814
45	0xbb07746e	-0.0020668763
46	0xbd286e14	-0.041120604
47	0x3d1c2215	0.03811844
48	0xbd146ad2	-0.036234684
49	0xbd8f6be8	-0.07003003
50	0x3cd64f46	0.026160847
51	0x3d6a15ba	0.057149626
52	0xbc1e1724	-0.009649072
53	0x3c921857	0.017833872
54	0xbc9a23d3	-0.01881591
55	0x3d77a263	0.0604576
56	0x3ab7458e	0.0013982521
57	0x3c35e34b	0.011101554
58	0xbcaa0977	-0.020756466
59	0x3d41f20b	0.04734997
60	0xbd84e7c4	-0.06489518
61	0x3d92b995	0.07164303
62	0x3ce938bc	0.028469436
63	0xbd811013	-0.06301894
64	0xbcd4a3b3	-0.025956964
65	0xbc9f2ec8	-0.019431487
66	0x3ce00a28	0.027348593
67	0xbcf50996	-0.029911797
68	0xbc1ffb12	-0.00976445
69	0xbd41ce3c	-0.04731582
70	0xbc8b3fb2	-0.016998146
71	0xbd69d79f	-0.057090398
72	0x3cb367ea	0.021900136
73	0xbd756ad0	-0.059916317
74	0xbd31027e	-0.043215267
75	0x3c5baab6	0.0134074
76	0xbd846d92	-0.064662114
77	0xbc853046	-0.01625837
78	0x3cbef4d0	0.023310095
79	0xbc7225f2	-0.014779555
80	0xbc790778	-0.015199535
81	0xbd9188ef	-0.07106196
82	0x3d167211	0.036729876
83	0x3ae16755	0.0017196933
84	0x3b8adfb6	0.004238094
85	0x3cb7b7f5	0.022426585
86	0x3d23d4f5	0.039998014
87	0x3c838a38	0.016057119
88	0xbc95f087	-0.018303169
89	0xbcbfc012	-0.023407016
90	0x3c7b6c6d	0.015345675
91	0x3c973616	0.018458407
92	0x3d88b203	0.06674578
93	0x3b50da29	0.0031868315
94	0xbe726db1	-0.23674656
95	0x3bd8b2b4	0.0066131
96	0xbcd90d6c	-0.026495658
97	0xbc31f91a	-0.010862613
98	0x3c6f8c4a	0.01462085
99	0xbd61b78e	-0.055106692
100	0x3d18bdba	0.037290312
101	0x3bdd601c	0.006755842
102	0x3c9a32a4	0.018822975
103	0x3bc71587	0.0060755643
104	0x3d74f3ea	0.059802927
105	0x3be44501	0.0069662337
106	0xbd6b1870	-0.057396352
107	0xbd2f71a9	-0.042833004
108	0x3c87ff93	0.01660136
109	0xbd40460d	-0.046941806
110	0x3cf3884e	0.029728081
111	0x3b357b02	0.0027691727
112	0x3c90e7a6	0.017688584
113	0x3c8ea1cb	0.017411133
114	0xbc48f51e	-0.012265472
115	0x3cdb217d	0.026749367
116	0x3cb95fe5	0.022628734
117	0xbd4ca134	-0.049958423
118	0xbdaa1101	-0.083040245
119	0xbc8dfd0d	-0.017332578
120	0xbc12ad46	-0.008952444
121	0xbd456dc7	-0.048200395
122	0xbd476d7f	-0.048688408
123	0xbc5f2282	-0.013619067
124	0x3ba6e05b	0.005092663
125	0x3cb94ae3	0.022618717
126	0x3d2e2b39	0.04252169
127	0x3ca384f9	0.019960867
128	0x3d284047	0.041076925
129	0xbd745b77	-0.05965754
130	0x3bd13067	0.006383944
131	0x3d4cb79e	0.0499798
132	0xbc35d16f	-0.011097296
133	0xbb182e39	-0.002322091
134	0xbc7617d8	-0.015020333
135	0x3c3ee585	0.011651401
136	0xbcc4cb18	-0.024022624
137	0x3c89ecb2	0.016836498
138	0x3daefc6a	0.08544238
139	0xbbeac7bd	-0.007164924
140	0xbe8c091a	-0.27350694
141	0x3c88a2f0	0.016679257
142	0xbbb74f67	-0.0055941823
143	0xbc4d8196	-0.012543103
144	0x3ba07761	0.0048970436
145	0xbda661b3	-0.081241034
146	0x3d274816	0.04084023
147	0xbc1d0bd9	-0.009585344
148	0x3cd7ffa6	0.02636702
149	0xbc828e2b	-0.015936932
150	0xbca9f961	-0.020748796
151	0xbc0c58f9	-0.008566135
152	0x3c115195	0.008869548
153	0xbd536790	-0.051612437
154	0x3d03a007	0.032135036
155	0x3d8f95c3	0.07010987
156	0xbbd70e9e	-0.006563022
157	0xbc305c1a	-0.010764146
158	0xbc2bf0da	-0.010494435
159	0xbc4b270b	-0.012399445
160	0xbbdcb497	-0.006735395
161	0xbd1cb5d7	-0.038259353
162	0xbcda3277	-0.026635392
163	0x3c8dc0f3	0.01730392
164	0xbd348722	-0.044074185
165	0x3aeb987b	0.001797452
166	0xbca3734e	-0.019952442
167	0x3d54968b	0.05190138
168	0xbc8add33	-0.01695118
169	0xbcfbb85e	-0.030727562
170	0xbd0f4a2a	-0.034982838
171	0xba7afc9b	-0.00095743843
172	0xbcd340ed	-0.025787795
173	0x3c93cf72	0.018043254
174	0xbcb9281a	-0.02260213
175	0xbb97210f	-0.004612095
176	0x3de76770	0.11299026
177	0x3bded5c8	0.006800387
178	0xbc8f856f	-0.01751968
179	0x3c0df129	0.008663454
180	0x3aecf6e8	0.0018078955
181	0xbd11c16b	-0.03558485
182	0xbd8437de	-0.06455968
183	0x3cf85b80	0.030317068
184	0xbc5e3557	-0.013562522
185	0xbc1048e0	-0.008806437
186	0x3cf10464	0.029421039
187	0xbd372655	-0.04471429
188	0x3d0bafb6	0.034103118
189	0x3d71c262	0.05902327
190	0x3cf88234	0.030335523
191	0x3d7e5bed	0.062099386
192	0x3e2e3562	0.17012551
193	0x3da06334	0.078314215
194	0x3b1b6e44	0.0023716846
195	0xbc3c6759	-0.011499249
196	0x3d240a09	0.040048633
197	0x3d11224d	0.035433102
198	0xbc2eaefd	-0.010661838
199	0x3c9b7494	0.018976487
200	0x3d02120e	0.0317555
201	0x3dca97ad	0.09892211
202	0xbb1e0cef	-0.0024116596
203	0x3cdef9ea	0.027218778
204	0xbd43ef6f	-0.047835764
205	0xbd187716	-0.037222944
206	0x3cb2d949	0.021832125
207	0xbc124e78	-0.008929841
208	0x3a71dae6	0.0009226039
209	0xbd2ddf38	-0.042449206
210	0x3d4f46de	0.050604694
211	0x3d99b4a5	0.07505158
212	0x3c3775c3	0.01119751
213	0x3d95d409	0.07315833
214	0xbb9dc4f4	-0.0048147384
215	0xbdb102a9	-0.086430855
216	0xba972537	-0.0011531477
217	0x3d88fccf	0.066888444
218	0xbd1dda5a	-0.038538314
219	0x3cf1df14	0.029525317
220	0x3c207778	0.009794109
221	0xbd5cc236	-0.05389615
222	0xbd65bdc2	-0.05608917
223	0xbb73ec35	-0.0037219648
224	0x3d8dfbeb	0.06932815
225	0x3c2f3995	0.010694881
226	0x3c89e4e9	0.016832786
227	0x3c9f8161	0.019470872
228	0x3d4df013	0.05027778
229	0x3a49438d	0.00076776074
230	0x3bc7e7f3	0.0061006485
231	0xbe1a1aa2	-0.15049222
232	0xbc3b7ee3	-0.011443826
233	0x3a161124	0.00057246
234	0xbc58a3f7	-0.013222686
235	0xbcfa08db	-0.0305218
236	0x3d1ccc75	0.038280923
237	0xbc576e9b	-0.013148929
238	0x3b43d15c	0.0029879427
239	0x3c6506f0	0.013978705
240	0x3c6f112c	0.014591496
241	0x3ecebcd5	0.40378442
242	0xbcf549f4	-0.02994249
243	0x3d1ebee1	0.038756255
244	0x3e231a81	0.15928079
245	0x3c9be0b5	0.019028047
246	0x3c91c461	0.017793836
247	0xbb62506f	-0.0034532805
248	0xbd0c8b19	-0.03431234
249	0xbda9185d	-0.082566
250	0xbe511275	-0.20417197
251	0xbc069c2d	-0.008215946
252	0x3d21c4a7	0.039494183
253	0xbd70db8c	-0.058803126
254	0xbc206682	-0.009790065
255	0x3cfa3045	0.030540595
