rnn_weights_2/weights_256_random_g0.9_relu_delay_discrimination.pt (torch, 269356 bytes, 5 tensors)

rnn.weight_ih_l0 f4 [256, 1]
0	0x3c9e560c	0.01932814
1	0xbdb53ea8	-0.08849841
2	0x3d468e11	0.04847533
3	0xbda9449a	-0.08265038
4	0xbe1d235c	-0.1534552
5	0xbe58d9f7	-0.21176897
6	0xbd7f7453	-0.062366795
7	0xbe8f9344	-0.28042042
8	0xbd765318	-0.060137838
9	0xbd921b2e	-0.0713409
10	0xbdef5ac3	-0.11687233
11	0x3dabbe43	0.08385899
12	0xbd2e835f	-0.042605754
13	0x3d19e6b5	0.037573535
14	0xbe488a23	-0.19583945
15	0xbccd09d4	-0.0250291
16	0x3da990fc	0.08279607
17	0xbd7f197e	-0.06228017
18	0x3d5d5ba2	0.054042466
19	0x3d7ffa0c	0.062494323
20	0x3d864c1f	0.06557488
21	0x3c3a52a1	0.011372239
22	0x3aa0eb00	0.0012277067
23	0x3d92e589	0.071726866
24	0x3c990c45	0.018682608
25	0xbcde4705	-0.027133474
26	0xbe281af3	-0.1641653
27	0xbe01c1a6	-0.12671527
28	0xbce927d4	-0.028461374
29	0xbe02f522	-0.12788823
30	0x3d117f14	0.03552158
31	0x3d2459d6	0.040124737
32	0xbdc88ccb	-0.09792479
33	0x3bfd442e	0.007729075
34	0xbd346470	-0.044041097
35	0x3aa0cdee	0.0012268403
36	0x3e2d33f1	0.16914345
37	0x3d12dd2b	0.035855453
38	0xbdde8fab	-0.10867246
39	0xbe3ce75d	-0.18447633
40	0xbeb7d2f6	-0.35903138
41	0xbc635b06	-0.013876682
42	0xbdf22ef3	-0.11825361
43	0x3ca5d472	0.020242903
44	0x3c2c25e0	0.010507077
45	0x3d339de7	0.04385176
46	0xbe8b738f	-0.27236602
47	0x3d92f278	0.071751535
48	0xbd8dac3e	-0.06917618
49	0xbb8f1e1f	-0.0043676044
50	0x3c9b221d	0.018937165
51	0xbc826cba	-0.015920985
52	0x3deb4aea	0.11488898
53	0xbcd8f4e4	-0.02648396
54	0xbc4fc4a0	-0.012681156
55	0xbdda5c68	-0.10662156
56	0xbcab29ff	-0.020894049
57	0xbe8f3662	-0.27971178
58	0x3c86acdb	0.016439846
59	0x3d4cf467	0.050037768
60	0xbe24183c	-0.1602487
61	0x3d2234bc	0.039601073
62	0x3c899f78	0.016799673
63	0x3c901876	0.017589789
64	0xbe7c7cb5	-0.24656947
65	0x3d46d0a0	0.048538804
66	0x3d304d22	0.04304231
67	0xbe5ba726	-0.21450481
68	0xbc8dd9b8	-0.01731573
69	0xbdefd038	-0.117096364
70	0xbe8daff6	-0.2767331
71	0xbd93bb88	-0.07213503
72	0xbd6cb1c2	-0.05778671
73	0x3c52ab30	0.012858197
74	0xbc28adab	-0.010295312
75	0xbbe73d02	-0.0070568332
76	0xbda7a78c	-0.08186254
77	0x3d50f190	0.051011622
78	0x3dcac048	0.09899956
79	0xbe111599	-0.14168395
80	0xbc906bfb	-0.017629614
81	0x3aedf678	0.0018155118
82	0xbe257fa5	-0.16161974
83	0xbdb43950	-0.08799994
84	0x3decda2e	0.11565052
85	0x3c9e0b09	0.019292371
86	0xbdf8d1a6	-0.12149362
87	0x3c57da7d	0.01317465
88	0xbd078200	-0.033082962
89	0x3d386b2d	0.045024086
90	0xbd2e2490	-0.042515337
91	0xbdb3b418	-0.087745845
92	0xbdc583a9	-0.09644253
93	0xbdd725cc	-0.10505256
94	0xbd5213e8	-0.051288515
95	0x3d3ff4bf	0.046864267
96	0x3c878b81	0.016546013
97	0xbc6a458e	-0.01429881
98	0xbe337911	-0.17526652
99	0xbdad7a1d	-0.08470557
100	0xbc509019	-0.012729668
101	0xbecee9b1	-0.40412667
102	0x3bb42f2a	0.0054987865
103	0xbe3330dc	-0.17499107
104	0xbd3132cf	-0.043261345
105	0xbd4fb6b6	-0.050711356
106	0xbde9424f	-0.113896005
107	0xbad3b968	-0.0016153278
108	0xbd1e9d1f	-0.03872406
109	0x3c0b7228	0.008511104
110	0x3d6fe29c	0.05856572
111	0x3da50950	0.08058417
112	0xbbf51d05	-0.007480266
113	0xbc000fe8	-0.007816292
114	0x3d6e6fd1	0.058212105
115	0xbd785eb5	-0.060637195
116	0x3d28d5bb	0.041219454
117	0x3d96296b	0.073321186
118	0x3cbacb15	0.022801915
119	0x3d3619e4	0.044458285
120	0xbdf06230	-0.11737478
121	0xbc53a0c3	-0.012916747
122	0x3db3140d	0.08744059
123	0x3c887f69	0.016662316
124	0x3d1a0d99	0.037610624
125	0xbd412a3e	-0.047159426
126	0x3cb7b227	0.022423817
127	0x3b357f32	0.0027694223
128	0xbd422f5d	-0.04740845
129	0xbda70ce1	-0.08156753
130	0x3c58d155	0.013233502
131	0x3cbe1621	0.023203911
132	0xbe37f1de	-0.17963359
133	0xbd8137e1	-0.06309486
134	0xbcdcfd9e	-0.026976403
135	0xbd770e54	-0.0603164
136	0x3da56666	0.080761716
137	0xbdc8173d	-0.09770057
138	0xbe614d30	-0.22002101
139	0xbc6f56c6	-0.014608091
140	0xbe0173ea	-0.12641874
141	0xbda9faa4	-0.08299759
142	0x3d97b8f7	0.07408326
143	0x3bb0b8c3	0.005393119
144	0xbe0f61c7	-0.14002143
145	0xbc33d055	-0.010974963
146	0xbbe40f80	-0.0069598556
147	0x3d6e229c	0.058138475
148	0xbdce4c0e	-0.100731
149	0xbbd73810	-0.0065679625
150	0x3d8286e0	0.063733816
151	0xbd4ee58e	-0.05051189
152	0xbd5daa19	-0.054117296
153	0x3d361542	0.044453867
154	0xbd30287c	-0.04300736
155	0xbc1d4ac8	-0.009600349
156	0x3d440542	0.047856577
157	0xbd782055	-0.06057771
158	0x3d5326a0	0.051550508
159	0xbcbc6bb9	-0.023000585
160	0xbc3eb0dc	-0.011638846
161	0xbcbbed74	-0.022940375
162	0x3dada52b	0.08478769
163	0xbe981035	-0.29699865
164	0xbd62195a	-0.05519996
165	0x3ad10c01	0.0015949012
166	0x3a64af79	0.0008723657
167	0x3d602336	0.05472108
168	0xbc2e6b90	-0.010645762
169	0xbe8b35b4	-0.2718941
170	0x3dc82678	0.09772962
171	0xbd6a0989	-0.057138
172	0xbdc4ac70	-0.09603202
173	0x3da5feed	0.08105264
174	0xbe13eec0	-0.14446545
175	0x3c9d2f53	0.019187605
176	0xbd93853b	-0.07203146
177	0xbd31a7b1	-0.043372814
178	0xbc8f317c	-0.01747965
179	0x3c5a77f6	0.013334265
180	0x3dbda0cc	0.09259185
181	0xbe2d2a5b	-0.16910689
182	0x3d88d3f3	0.06681051
183	0xbd594efc	-0.05305384
184	0xbd0934bf	-0.03349757
185	0x3cedc4e7	0.029024554
186	0xbd1202c6	-0.035647176
187	0xbe467e0f	-0.19384025
188	0xbd2fc4f0	-0.042912424
189	0x3d577d8c	0.052609965
190	0x3d593d6e	0.0530371
191	0xbe02166c	-0.12703866
192	0xbe1ee0dc	-0.15515465
193	0x3ccfa4ad	0.025347078
194	0x3cfbdcc6	0.030744921
195	0xbddcfafd	-0.1079006
196	0x3d7f8e98	0.062391847
197	0x3dba46e0	0.090955496
198	0x3d2b764f	0.041860875
199	0x3d5dfc90	0.05419594
200	0x3b93bf52	0.004508891
201	0x3aa69727	0.0012709842
202	0xbcb18c50	-0.021673352
203	0x3d15e595	0.0365959
204	0xbca229dd	-0.019795353
205	0x3da60fac	0.08108458
206	0xbd45e54e	-0.048314385
207	0x3db1b54f	0.0867716
208	0x3dab359d	0.08359835
209	0xbcc43fe2	-0.023956243
210	0x3bd8cde1	0.0066163396
211	0x3dcf30f8	0.10116762
212	0x3d4a2627	0.04935279
213	0x3c166c21	0.009181053
214	0xbdf10ef4	-0.1177043
215	0xbd3107ae	-0.043220215
216	0x3c458a92	0.0120569635
217	0x3e00a59d	0.12563176
218	0x3c300c99	0.010745191
219	0xbd9ce5ac	-0.07660994
220	0x3b94f0d9	0.004545313
221	0xbd0a832b	-0.033816498
222	0xbd0461e9	-0.032319937
223	0xbd9d8fee	-0.07693468
224	0x3d5dad1a	0.05412016
225	0x3dadb127	0.08481055
226	0x3d8a0c27	0.06740599
227	0xbd70f68e	-0.058828883
228	0x3baa8c5f	0.005204722
229	0x3c721997	0.014776609
230	0xbd8b2fbc	-0.06796214
231	0xbde8a834	-0.11360207
232	0x3baa2015	0.0051918128
233	0xbccec80b	-0.025241872
234	0xbd48d6be	-0.04903292
235	0xbe45e8fb	-0.19327156
236	0xbd384694	-0.044989184
237	0x3d84e34a	0.064886644
238	0x3d1420cf	0.0361641
239	0xbdfb62d2	-0.12274708
240	0xbd0e425c	-0.034731254
241	0x3cbcceb5	0.023047784
242	0xbdcd7e26	-0.100338265
243	0x3d21da2f	0.039514717
244	0x3d14f872	0.03636975
245	0xbd066b52	-0.032817192
246	0xbd1bdf54	-0.03805478
247	0xbd94ede8	-0.072719395
248	0x3d12dbae	0.035854034
249	0xbd295987	-0.041345146
250	0xbd2f9bbe	-0.042873137
251	0xbe41b3c4	-0.18916231
252	0xbb5966a4	-0.003317275
253	0x3d5dbed2	0.05413706
254	0xbea6a88c	-0.32550466
255	0xbcd5f8b2	-0.026119564

rnn.weight_hh_l0 f4 [256, 256]
0	0xbcac3bd5	-0.021024624
1	0xbdf67356	-0.12033717
2	0x3c627ce7	0.013823724
3	0xbcf095d3	-0.029368317
4	0x3d42a135	0.04751702
5	0xbddce720	-0.10786271
6	0xb9b92379	-0.0003531238
7	0xbd804bac	-0.06264433
8	0x3d33e059	0.043915126
9	0xbdb07508	-0.08616072
10	0x3e106686	0.1410161
11	0xbd32a256	-0.043611847
12	0xbce92318	-0.028459117
13	0x3d213469	0.039356623
14	0xbd97478d	-0.07386694
15	0x3da7a1b7	0.081851415
16	0x3d527f47	0.051390912
17	0x3d3a7253	0.045519184
18	0x3cd87ce8	0.026426747
19	0xbcd1318f	-0.025536327
20	0x3d0cb5ad	0.034352947
21	0xbcd9380b	-0.026515981
22	0x3aa4ada5	0.0012563957
23	0x3d98f08b	0.07467755
24	0xbbe353e6	-0.0069374917
25	0x3d97e5dc	0.07416889
26	0xbdabb9bf	-0.08385038
27	0xbdaa1240	-0.08304262
28	0xbdc69d6b	-0.09697994
29	0xbbff64f3	-0.0077940165
30	0xbc1a83e4	-0.009430859
31	0xbd272f61	-0.04081667
32	0xbd309c65	-0.0431179
33	0x3c4741d7	0.012161694
34	0x3c045021	0.008075745
35	0x3b463cd9	0.003024867
36	0xbdac79df	-0.084216826
37	0x3d4b2b47	0.04960182
38	0xbcb7460c	-0.022372268
39	0xbd323356	-0.04350599
40	0x3d8e888a	0.069596365
41	0xba279b23	-0.00063936616
42	0xbd5c222d	-0.05374353
43	0xbcf28de1	-0.029608669
44	0xbd97003c	-0.073730916
45	0x3c07e6d0	0.008294776
46	0xbc385dfe	-0.011252878
47	0xbc30aa8d	-0.01078285
48	0x3c6afd20	0.014342576
49	0xbd925397	-0.0714485
50	0xbd2b4710	-0.041815817
51	0x3d2b0041	0.04174829
52	0xbd74fe7b	-0.059813004
53	0xbcd8830d	-0.026429677
54	0xbd09fdbb	-0.03368924
55	0x3c2f77cc	0.010709714
56	0xbd0c2e14	-0.03422363
57	0xbce0378d	-0.027370239
58	0xbd02d7e9	-0.03194419
59	0xba21dc7f	-0.0006174519
60	0xbba05bb0	-0.0048937425
61	0x3d6d72dd	0.05797087
62	0x3c72671f	0.014795094
63	0xbd8773ac	-0.066138595
64	0x3b5ac980	0.0033384264
65	0x3b873efe	0.0041273823
66	0xbcf9f593	-0.030512607
67	0xbd8bce08	-0.06826407
68	0xbd31d23f	-0.043413397
69	0x3d81aab3	0.063313864
70	0x3d745a3d	0.05965637
71	0x3c813117	0.015770478
72	0x3d90a474	0.07062617
73	0xbb968523	-0.004593508
74	0xbd9a3b62	-0.075308576
75	0x3cef286a	0.029194076
76	0xbde46a2d	-0.11153064
77	0x3bba26fc	0.005680917
78	0xbd242ea2	-0.040083535
79	0xbca8cf2e	-0.020606603
80	0xbd25d80a	-0.040489234
81	0x3d9a21f7	0.075260095
82	0xbbf44e9c	-0.00745566
83	0xbdc44e14	-0.09585205
84	0x3d240d93	0.040052008
85	0x3c9f6c09	0.019460695
86	0xbd8a76d4	-0.06760946
87	0x3da969d4	0.08272138
88	0x3d103f68	0.03521672
89	0xbdc4b313	-0.09604468
90	0xbe0ec1b6	-0.13941082
91	0x3d304722	0.043036588
92	0xbadc1808	-0.001679183
93	0xbd1bc31a	-0.03802786
94	0x3da3ca02	0.07997514
95	0x3d3038d0	0.04302293
96	0xbd751f08	-0.059844047
97	0x3c9a6af5	0.01884983
98	0xbd0cb4e8	-0.034352213
99	0xbd5e5f5e	-0.054290168
100	0xbaee8c56	-0.0018199782
101	0xbdd8a259	-0.1057784
102	0x3d1feacc	0.03904228
103	0xbd13aa3d	-0.036051024
104	0x3c8ad23d	0.016945953
105	0x3cef2b0a	0.029195327
106	0xbd083e13	-0.033262324
107	0x3d32823e	0.04358124
108	0xbd8ee72b	-0.069776855
109	0x3cb493cc	0.022043131
110	0x3d260cfa	0.04053972
111	0xbb963d24	-0.0045849252
112	0xb8ab5f2d	-8.171643e-05
113	0x3d310c1b	0.043224435
114	0x3c1b2bbe	0.009470878
115	0x3d7d33f9	0.061817143
116	0x3d2fc220	0.04290974
117	0x3d4b1633	0.049581718
118	0xbde89bb9	-0.11357827
119	0xbd127fa7	-0.03576627
120	0x3cc38937	0.02386914
121	0xbd1a7ee0	-0.037718654
122	0x3dab6db7	0.08370536
123	0xbc510adf	-0.0127589395
124	0x3a80d849	0.0009830083
125	0xbd1e4418	-0.038639158
126	0xbdb8bce6	-0.090204045
127	0xbc1234a6	-0.008923685
128	0x3d89cf31	0.06728972
129	0xbcbd8686	-0.023135435
130	0xbd8e83fb	-0.06958767
131	0x3ce4c1f4	0.027924515
132	0xbc1586e1	-0.009126396
133	0xbcfabe9b	-0.030608466
134	0xbd586f7b	-0.05284069
135	0x3d431e0e	0.047636084
136	0xbda78577	-0.08179753
137	0xbd9e1d5f	-0.07720446
138	0xbcc3c194	-0.023896016
139	0x3c7ce8c1	0.015436352
140	0x3c7a1f80	0.015266299
141	0x3d25eea8	0.040510803
142	0xbd490182	-0.049073704
143	0xbbc7fd0b	-0.006103163
144	0xbc2d9dca	-0.010596702
145	0xbdcd11d5	-0.10013167
146	0x3d0a3c6a	0.03374902
147	0xbc8c8753	-0.017154371
148	0x3b9f58c7	0.004862878
149	0xbbd31904	-0.006442191
150	0x3bbe0f7b	0.0058001853
151	0x3cfed039	0.031105148
152	0xbc78bb34	-0.015181351
153	0xbe005875	-0.12533744
154	0xbda3d02d	-0.07998691
155	0xbd4878e4	-0.048943415
156	0x3d483e8c	0.048887774
157	0xbcc71e45	-0.024306426
158	0xbd0ff43e	-0.035145037
159	0xbdee6ea8	-0.116422
160	0xbda1ec40	-0.07906389
161	0xbd9eb385	-0.077490844
162	0xbdba961c	-0.09110662
163	0xbbb6e5c3	-0.005581589
164	0x3c85e91a	0.016346503
165	0x3cec7b8b	0.028867504
166	0xbdb29fbf	-0.087218754
167	0xbb0da140	-0.0021611005
168	0xbe3a8cc6	-0.18217763
169	0x3c3b2150	0.011421517
170	0x3da94235	0.08264581
171	0xbd80f693	-0.0629703
172	0x3b821586	0.003969851
173	0xbc7726fe	-0.01508498
174	0x3cb39cc1	0.021925332
175	0xbd3c3e55	-0.045957882
176	0xbdb3af95	-0.08773724
177	0xbd441415	-0.047870714
178	0xbdb12592	-0.08649744
179	0xbd7e6ff0	-0.06211847
180	0xbb99f6a0	-0.0046985894
181	0xbd95fc2c	-0.073234886
182	0x3d40bfe3	0.047057997
183	0xbd229a31	-0.03969783
184	0xbc99c9aa	-0.018772919
185	0x3d287629	0.04112831
186	0xbd5129f3	-0.051065397
187	0x3c7453ae	0.014912529
188	0x3b891fbd	0.0041846917
189	0x3b2d3c4f	0.0026433652
190	0x3d388a2e	0.045053653
191	0x3d222cf6	0.03959366
192	0xbdb7c02c	-0.08972201
193	0xbb87e0d9	-0.004146677
194	0x3c38084d	0.011232448
195	0xbb259328	-0.0025264714
196	0xbd026db1	-0.03184289
197	0xbc5da1e4	-0.013527367
198	0x3d33e8c9	0.043923173
199	0xbd2bf119	-0.041977976
200	0x3ba3f083	0.0050030365
201	0xbccd7bc5	-0.025083432
202	0xbd22e17e	-0.039765827
203	0x3d2a1dbf	0.041532274
204	0x3c25ae16	0.010112306
205	0xbc6a3f58	-0.014297329
206	0x3dc38e46	0.09548621
207	0x3c504957	0.012712798
208	0xbdb39f88	-0.087706625
209	0xbd419867	-0.047264483
210	0xbd93c0c5	-0.07214502
211	0xbcbbb69c	-0.022914223
212	0xbd3ac22e	-0.04559534
213	0x3c42a25d	0.011879531
214	0xbd6e3933	-0.05816002
215	0x3da28cc3	0.079370044
216	0xbc0f39e3	-0.008741829
217	0x3c430f9e	0.011905579
218	0xbdbee085	-0.093201675
219	0x3d669c7f	0.05630159
220	0xbd39b5c6	-0.04533937
221	0x3ca74408	0.020418182
222	0xbddc4ffa	-0.10757442
223	0xbc19fe76	-0.009399047
224	0xbc795eba	-0.0152203385
225	0xbd338294	-0.0438257
226	0xbcb84405	-0.022493372
227	0x3d0aeafe	0.033915512
228	0xbd2061e9	-0.039155874
229	0xbc4a19b8	-0.012335233
230	0xbdbc6a7f	-0.092
231	0xbc45e6ad	-0.012078923
232	0xbd760d70	-0.06007141
233	0xbd0545cc	-0.032537267
234	0x3df1f20f	0.11813747
235	0x3ca50110	0.020142108
236	0x3d8ad6dd	0.06779263
237	0xbdbe19ce	-0.092822656
238	0xbdd34ccb	-0.103173815
239	0xbc12fba3	-0.008971128
240	0xbdbf7324	-0.09348133
241	0xbcd21f08	-0.025649562
242	0xbda52044	-0.08062795
243	0x3d74be34	0.059751704
244	0xbdf89a12	-0.121387616
245	0x3db06c8d	0.086144544
246	0xbcb98b17	-0.022649331
247	0xbd7a0fe8	-0.061050326
248	0xbc89efe0	-0.016838014
249	0xbbc5a16a	-0.006031205
250	0xbcf1ee54	-0.029532589
251	0x3c63dfe8	0.013908364
252	0x3cc71fd4	0.024307169
253	0x3dcb7152	0.099337235
254	0xbd907716	-0.07053964
255	0xbd8810d6	-0.06643836

rnn.bias_ih_l0 f4 [256]
0	0xbd93eb04	-0.0722256
1	0x3ce25d12	0.02763227
2	0xbd4c6a3d	-0.049906004
3	0x3b5dc2df	0.0033838076
4	0x3cd8b995	0.02645568
5	0x3ba93061	0.005163238
6	0x3aab8c36	0.0013088051
7	0x3bb3b902	0.005484701
8	0xbc1dda50	-0.009634569
9	0x3cf66985	0.030079613
10	0xbd3d7406	-0.046253227
11	0x3d124771	0.035712663
12	0xbd5762a7	-0.052584317
13	0x3d4e64a7	0.05038896
14	0x3c692f27	0.014232433
15	0xbd9e18be	-0.07719563
16	0xbd2277b3	-0.039664935
17	0xbd4b4296	-0.04962405
18	0xbe0b7a3f	-0.13620852
19	0x39b6afc4	0.000348447
20	0x3cc89b7b	0.024488201
21	0xbc511103	-0.012760404
22	0x3d16c1b5	0.036805827
23	0xbd197420	-0.03746426
24	0xbcf024ad	-0.029314363
25	0xbd467967	-0.048455622
26	0xbdb1e6e2	-0.086866155
27	0xbd82af32	-0.06381072
28	0xbd7408ab	-0.05957858
29	0x3d5396a6	0.05165734
30	0xbd18f741	-0.037345175
31	0x3d80c1c7	0.0628696
32	0x3ce68f98	0.028144643
33	0x3ccff45a	0.02538507
34	0x3cfd70fa	0.03093766
35	0xbd03e1fd	-0.03219794
36	0xbd555875	-0.052086312
37	0xbc475b8a	-0.012167821
38	0x3d0bb598	0.03410873
39	0x39257312	0.00015778493
40	0xbd6d298c	-0.05790095
41	0x3c83fe49	0.016112464
42	0xbce98594	-0.028506078
43	0x3bbcad86	0.0057579903
44	0x3cfa0c87	0.030523552
45	0x3d755476	0.059895
46	0xbd8c0cf9	-0.06838412
47	0x3c235eba	0.009971315
48	0x3c857f76	0.01629613
49	0x3d4058dd	0.046959747
50	0xbccc18dd	-0.0249142
51	0x3b483ba8	0.0030553136
52	0xbcb5b9f8	-0.022183403
53	0xbd005062	-0.03132666
54	0xbd361f48	-0.044463426
55	0x3cc6526d	0.024209226
56	0xbc627d42	-0.013823809
57	0x3d384be6	0.044994257
58	0x3d128a52	0.035776444
59	0xbdb8495b	-0.089983664
60	0x3c7cca76	0.01542913
61	0xbd7390a0	-0.059464097
62	0xbd998045	-0.074951686
63	0x3ce43fe8	0.027862504
64	0x3d06cbd1	0.03290922
65	0xbd594f93	-0.053054404
66	0x3c7346a1	0.014848382
67	0xbc233ce8	-0.009963252
68	0xbd8b277c	-0.067946404
69	0x3c95bd2f	0.018278686
70	0xbd8f2620	-0.06989694
71	0xbd36f413	-0.04466636
72	0xbc5ae1de	-0.013359515
73	0x3a598b80	0.000829868
74	0xbd7d3ed8	-0.06182751
75	0xbb4d637e	-0.003133982
76	0x3d142ac7	0.03617361
77	0xbd3fd4f3	-0.046833944
78	0xbd34e70b	-0.044165652
79	0xbccbca37	-0.024876697
80	0x3cc58b45	0.02411426
81	0xbd5cdfce	-0.053924374
82	0x3b9e5223	0.004831569
83	0x3d37d9bb	0.04488538
84	0x3db3d21f	0.08780312
85	0x3d7c4b83	0.06159545
86	0xbca7905d	-0.02045458
87	0xbd6422cd	-0.05569725
88	0xbd8263fd	-0.063667275
89	0x3cb6c1e6	0.022309255
90	0x3b7e5e20	0.0038813427
91	0xbc16b14d	-0.009197545
92	0x3ca5006a	0.020141799
93	0x3d218b72	0.039439626
94	0x3d60a1f1	0.05484194
95	0xbdd41892	-0.10356249
96	0xbcc3d5ae	-0.023905601
97	0xbbc7d606	-0.0060985116
98	0xbd72580b	-0.059165996
99	0xbd4933dd	-0.049121726
100	0x3b79fe7a	0.0038146065
101	0xbd182dbc	-0.03715299
102	0x3d5d19c8	0.053979665
103	0xbc1bb795	-0.009504219
104	0x3d41511c	0.047196493
105	0xbbb1a723	-0.0054215356
106	0xbc5079c1	-0.012724341
107	0xbd7d820c	-0.0618916
108	0x3d700ea6	0.05860772
109	0xbac5c893	-0.0015089683
110	0x3c9fff28	0.019530848
111	0xbd7e582c	-0.062095806
112	0xbc9dab9b	-0.019246867
113	0x3cda23fd	0.026628489
114	0xbc96d6c8	-0.018412963
115	0xbd45e4d6	-0.048313938
116	0xbc8b12dd	-0.016976768
117	0xbc8df8e0	-0.017330587
118	0x3c502004	0.012702946
119	0xbca2cda6	-0.019873451
120	0x3cb56c3b	0.022146335
121	0xbc3d51ee	-0.011555178
122	0xbdf225fa	-0.1182365
123	0xbc89132e	-0.016732778
124	0xbd855543	-0.06510403
125	0xbd165313	-0.03670032
126	0x3d4ce543	0.05002333
127	0x3cd0c367	0.0254838
128	0xbced3591	-0.028956207
129	0xbd74dd9a	-0.05978165
130	0xbd413c29	-0.047176514
131	0xbd24ee2e	-0.04026621
132	0xbb1c5827	-0.0023856254
133	0xbdd67191	-0.1047088
134	0x3b898cfe	0.004197716
135	0xbd2332ab	-0.039843243
136	0xbd02acf6	-0.03190323
137	0x3ce2df67	0.027694417
138	0x3d4e2416	0.050327383
139	0xbd2878fd	-0.04113101
140	0xbcd0d16d	-0.025490487
141	0x3c76ce1b	0.015063788
142	0xbd5058e4	-0.050866023
143	0xbc853780	-0.016261816
144	0xbcf21674	-0.029551722
145	0x3bd3e89c	0.006466938
146	0xbd8fe9df	-0.07027029
147	0xbd525b7e	-0.051356785
148	0x3cd2a87f	0.02571511
149	0xbd0a7cf2	-0.033810563
150	0xbd57d059	-0.05268893
151	0x3d72308c	0.05912833
152	0x3d52eeb9	0.051497195
153	0x3ca8d7d8	0.020610735
154	0xbc0158b7	-0.007894686
155	0xbd0daf38	-0.03459093
156	0xbd0558b6	-0.032555304
157	0x3c2aac9a	0.010417128
158	0x3d1dcd27	0.038525727
159	0x3d1b91c0	0.037980795
160	0xbd6cfe49	-0.057859693
161	0xbd9fdf04	-0.07806209
162	0x3c1407ed	0.009035093
163	0x3c146167	0.009056426
164	0x3ce41769	0.027843194
165	0xbd7dc13a	-0.061951853
166	0x3d0aa92f	0.033852752
167	0xbd034208	-0.032045394
168	0xbd4b96da	-0.04970441
169	0x3ca8492f	0.02054271
170	0xbd0318bb	-0.032006007
171	0x3a3e3258	0.00072554266
172	0x3d018e12	0.03162963
173	0x3c6bd0a3	0.014393005
174	0x3c5da4af	0.013528033
175	0xbd2272ce	-0.039660268
176	0x3c76e0dd	0.01506826
177	0x3d33226c	0.043734
178	0xbd8b8600	-0.06812668
179	0x3d044ed0	0.032301724
180	0xbc99fbe0	-0.018796861
181	0x3d23dea3	0.040007245
182	0xbd49c181	-0.049256805
183	0xbdb1eae4	-0.0868738
184	0xbc8fcad4	-0.01755277
185	0xbc9803b8	-0.01855646
186	0xbc87c1d3	-0.016571915
187	0xbc88a041	-0.016677978
188	0xbdad5f94	-0.08465496
189	0xbd3467a0	-0.044044137
190	0xbd06ddde	-0.032926433
191	0xbcbe99e6	-0.023266744
192	0xbd35ec64	-0.044414893
193	0x3d1f9334	0.038958743
194	0x3d8d63bf	0.06903791
195	0xbd1a8f2a	-0.03773419
196	0xbd5014f0	-0.050801218
197	0xbc4884f5	-0.012238731
198	0x3bb423c4	0.0054974277
199	0xbb88b85e	-0.004172369
200	0xbcd9c746	-0.026584279
201	0x3d61e494	0.05514963
202	0x3d845561	0.06461597
203	0xbdaa665a	-0.08320303
204	0xbc9e0d66	-0.019293498
205	0x3c9c970c	0.019114994
206	0xbc1131dc	-0.008861985
207	0xbdb47767	-0.08811837
208	0xbb07ac33	-0.0020702004
209	0xbcfb392b	-0.030666908
210	0xbd580df3	-0.052747678
211	0xbd925d50	-0.07146704
212	0xbd743a0a	-0.059625663
213	0xbd0c7ef1	-0.03430075
214	0xbbf1a5ce	-0.007374502
215	0xba2e2586	-0.00066431647
216	0x3d7a5d43	0.061124098
217	0xbd2a7d3e	-0.041623347
218	0xbd42ce51	-0.04756004
219	0xbcbefd63	-0.023314184
220	0xbc19ef28	-0.009395398
221	0xbbe404df	-0.0069585885
222	0x3ad90a5e	0.0016558876
223	0xbd80c242	-0.06287052
224	0xbb71a4ca	-0.0036871904
225	0x3d80e181	0.062930115
226	0x3c82bd38	0.015959367
227	0xbd0199ce	-0.03164082
228	0x3a52f31e	0.00080470915
229	0x3d002b6a	0.031291403
230	0xbc8c567e	-0.017131086
231	0x3c8776da	0.016536165
232	0xbd2bbc16	-0.04192742
233	0x3d0ec7e0	0.034858584
234	0xbccd3739	-0.025050746
235	0x3cab7d42	0.020933751
236	0xbca38657	-0.01996152
237	0xbd092c2c	-0.03348939
238	0xbcbf96af	-0.023387281
239	0xbbe20778	-0.006897863
240	0xbdaecfa1	-0.08535696
241	0x3d43b9cb	0.047784608
242	0xbc5ca173	-0.013466227
243	0xbdb2ae04	-0.08724597
244	0x3c26a563	0.010171267
245	0xbc9e559d	-0.019327933
246	0xbd9eda8b	-0.077565275
247	0x3d8d3b3c	0.06896064
248	0xbb7af911	-0.0038295428
249	0xbe5c3804	-0.21505743
250	0xbd4630d2	-0.048386402
251	0x3d07f14c	0.033189103
252	0x383e8aee	4.542892e-05
253	0xbd84d46f	-0.06485831
254	0xbc20ab1a	-0.009806419
255	0xbd6251ae	-0.055253677

rnn.bias_hh_l0 f4 [256]
0	0xbdaf82c2	-0.08569862
1	0x3b038a6b	0.0020071517
2	0x3d8065cd	0.06269417
3	0x3c45edc6	0.012080615
4	0xbb88e56c	-0.00417774
5	0x3d4708da	0.048592426
6	0x3d694e01	0.056959156
7	0xbba2e983	-0.0049716844
8	0x3bad4d1c	0.005288733
9	0x3cb8b5b3	0.022547578
10	0x3cbc7689	0.02300574
11	0xbcb63f5c	-0.022247009
12	0xbc881427	-0.016611172
13	0xbcb9e2f9	-0.022691237
14	0xbc95aad5	-0.018269936
15	0xbd3bfb69	-0.04589406
16	0xbda57c9b	-0.08080407
17	0x38ad3000	8.2582235e-05
18	0xbd15ab33	-0.03654022
19	0x3cf10ac4	0.029424079
20	0xbd3a7d4f	-0.04552966
21	0x3b15c7fc	0.0022854796
22	0xbd0a1e25	-0.033720154
23	0x3d15596f	0.036462244
24	0xbcd073fd	-0.025445933
25	0xbc755f19	-0.014976286
26	0xbd3887e3	-0.045051467
27	0xbd7d92b6	-0.061907493
28	0xbdb2bcc1	-0.08727408
29	0xbd2d3edb	-0.04229627
30	0xbd899f5f	-0.06719851
31	0x3c88f0fa	0.01671647
32	0x3d1cda11	0.0382939
33	0x3d5c2ad2	0.053751774
34	0xbd6a2852	-0.05716736
35	0xbabe7843	-0.001453169
36	0xbd8ea80c	-0.06965646
37	0xbce6d833	-0.028179264
38	0xbd42cbc0	-0.047557592
39	0xbd0e0d3c	-0.03468059
40	0xbb100732	-0.0021976945
41	0x3cafd4db	0.021463802
42	0x3d154fe8	0.036453158
43	0xbcf7b167	-0.03023596
44	0x3c656f4d	0.014003587
45	0x3c8d329c	0.017236046
46	0xbc7dbaa7	-0.015486396
47	0xbd061106	-0.03273108
48	0x3cfe7acc	0.031064413
49	0xbcaa8d94	-0.020819463
50	0xbd804b53	-0.06264367
51	0xbd322538	-0.043492526
52	0xbd800e98	-0.062527835
53	0xbbb50b82	-0.0055250535
54	0xbbb2aefd	-0.005452989
55	0xbaa2c96e	-0.001241965
56	0xbc6bbbef	-0.014388069
57	0xbd5ddae1	-0.054163817
58	0x3d544af5	0.051829297
59	0xbdc6afcf	-0.097015016
60	0x3daeae29	0.08529312
61	0xbd5186a6	-0.0511538
62	0x3c32bb92	0.010908978
63	0xbd4c275c	-0.049842224
64	0x3c9d9ee3	0.019240802
65	0x3d3f221b	0.046663385
66	0x3c8e4ca5	0.017370531
67	0x3d2b8515	0.041874964
68	0x3d25aa95	0.040445883
69	0xbd0ef74c	-0.03490381
70	0x3cadff55	0.021239916
71	0x3d300876	0.04297682
72	0x3c67e61a	0.014153982
73	0xbd50fb4a	-0.051020898
74	0x3b624a65	0.0034529206
75	0xbd034044	-0.03204371
76	0x3d62b430	0.05534762
77	0xbc9eff35	-0.019408802
78	0x3d095222	0.033525594
79	0xb823116b	-3.887845e-05
80	0xbca3e2e8	-0.020005658
81	0xbce256d2	-0.02762929
82	0xbcb3a854	-0.021930851
83	0xbd81dc1d	-0.063408114
84	0x3cd63a4a	0.026150841
85	0xbd3be9fd	-0.045877445
86	0x3c326cac	0.010890167
87	0xbd04e0ae	-0.032440834
88	0xbd7e5c2a	-0.062099613
89	0xbc4c2d35	-0.01246195
90	0xbd9c1dc5	-0.076228656
91	0xbc3eb306	-0.011639362
92	0x3cb30464	0.02185268
93	0xbb20e1b7	-0.00245486
94	0x3d4893b4	0.048968986
95	0xbde45ca5	-0.11150483
96	0xbcb580ab	-0.02215608
97	0xbd66d5f5	-0.05635639
98	0x3d043cdb	0.0322846
99	0xbc8763db	-0.016527107
100	0x3a752117	0.0009350939
101	0xbc4613ac	-0.012089651
102	0x3d41e5e3	0.047338378
103	0xbd65e247	-0.056123998
104	0x3d497abc	0.049189314
105	0x3d82b9a9	0.06383068
106	0x3d4051d0	0.046953022
107	0xbd2a1da1	-0.041532163
108	0xbcdb3d9f	-0.026762782
109	0xbd54f615	-0.051992495
110	0xbc9a247f	-0.01881623
111	0x3b863e6f	0.004096798
112	0xbd919ec8	-0.07110363
113	0x3b968681	0.004593671
114	0x3d0fae74	0.03507848
115	0xbcdd8472	-0.027040694
116	0xbc8d56fa	-0.017253388
117	0xbd82e6b0	-0.063916564
118	0x3d10623e	0.03524994
119	0x3d2b3642	0.04179979
120	0xbbb8a19d	-0.0056345
121	0xbd9b3429	-0.07578308
122	0xbde020db	-0.10943767
123	0x3c696cf2	0.014247166
124	0xbbb4ab00	-0.005513549
125	0xbd805cd4	-0.062677056
126	0x3cd0d85b	0.025493791
127	0x3b48a92d	0.0030618415
128	0x3b9fb180	0.0048734546
129	0xbcf4106b	-0.029792985
130	0x3cbadfa1	0.022811713
131	0xbda6b54c	-0.081400484
132	0x3ccc5093	0.024940765
133	0xbdd50777	-0.104018144
134	0x3c555b21	0.013022215
135	0xbd33d2ed	-0.043902326
136	0xbcd2ca74	-0.025731303
137	0x3d165c0e	0.036708884
138	0xbd82fb4a	-0.06395586
139	0x3b1b73d5	0.0023720164
140	0x3ca8ec36	0.020620447
141	0x3d218dae	0.039441757
142	0xbd669b38	-0.056300372
143	0x3d87e603	0.06635668
144	0x3c6ff925	0.014646803
145	0xbc4d8453	-0.012543756
146	0xbd99f371	-0.07517136
147	0xbd291185	-0.041276474
148	0x3b727679	0.0036996885
149	0x3d5e1f31	0.054228965
150	0xbd11cecf	-0.03559762
151	0xbd11056b	-0.035405558
152	0xbd720c5d	-0.05909382
153	0xbd89b22a	-0.06723435
154	0xba98d0c8	-0.0011658901
155	0xbc551650	-0.013005808
156	0x3c38155f	0.011235564
157	0x3d784ee7	0.060622122
158	0xbd69a854	-0.057045296
159	0x3d32322a	0.04350487
160	0x3cbf9e52	0.023390923
161	0xb9c144c6	-0.0003686307
162	0xbd91aff4	-0.071136385
163	0x3daee858	0.0854041
164	0xbd9e75ec	-0.077373356
165	0xbd8a7e3c	-0.067623585
166	0xbd939598	-0.07206267
167	0xbc300203	-0.010742667
168	0xbda90c7c	-0.08254334
169	0x3c14ac80	0.00907433
170	0xbd89394f	-0.06700384
171	0xba6b2388	-0.0008969833
172	0x3cf37033	0.029716587
173	0xb91e3625	-0.00015088225
174	0xbd6d6ace	-0.057963185
175	0x3d34a8f6	0.044106446
176	0xbd602e38	-0.054731578
177	0x3d2c5ba4	0.042079583
178	0xbd97f620	-0.074199915
179	0x3dd16f52	0.10226311
180	0x3c4bb38f	0.012432947
181	0x3d0d1152	0.034440346
182	0x3d2c2e23	0.042036187
183	0xbdb0eff5	-0.08639518
184	0xbd07d2b2	-0.03315992
185	0xbd2c31fe	-0.042039864
186	0x3d971ae3	0.07378175
187	0x3d0620fc	0.0327463
188	0xbad6443d	-0.0016347241
189	0xbd3bb1cc	-0.045823857
190	0xbd39be5c	-0.045347556
191	0xbcb3e629	-0.021960335
192	0x3d6551ba	0.055986144
193	0xbd75f004	-0.06004335
194	0x3d5e2330	0.054232776
195	0x3d4c7901	0.049920086
196	0xbd2f581c	-0.042808637
197	0xbd92d032	-0.07168616
198	0xbd48b26c	-0.04899828
199	0xbd6c4037	-0.057678428
200	0xbd76627d	-0.06015252
201	0x3d54d5ea	0.051961817
202	0x3d09b150	0.033616364
203	0xbd9ea7e5	-0.07746867
204	0xbce10700	-0.027469158
205	0xbc949c5c	-0.018140964
206	0x3cc5494f	0.024082808
207	0xbd7678b0	-0.06017369
208	0x3cbd647f	0.02311921
209	0xbd91b4b1	-0.07114542
210	0x3d268ec7	0.040663507
211	0x3c9751f7	0.018471701
212	0xbd583ee2	-0.052794345
213	0xbcc488cd	-0.023991013
214	0x3c9c9fa6	0.019119095
215	0xbda82521	-0.08210207
216	0x3bbf68ad	0.0058413357
217	0xbcfd0040	-0.030883908
218	0x3d83073c	0.06397864
219	0x3c16b97b	0.009199495
220	0x3d24dc3b	0.04024909
221	0xbdc56814	-0.09638992
222	0x3d32b4f5	0.043629605
223	0xbd7ca547	-0.06168106
224	0xbb7bd2f2	-0.0038425294
225	0x3c1099fa	0.008825773
226	0xbd830e1a	-0.06399174
227	0xbcf8f05c	-0.03038805
228	0xbd781bd2	-0.060573407
229	0xbd9e0408	-0.07715613
230	0x3d802080	0.06256199
231	0x3da3e565	0.08002738
232	0xbd44c18d	-0.048036147
233	0x3d535a0c	0.051599547
234	0xbd2dc044	-0.042419687
235	0xbc714268	-0.014725305
236	0x3ca24670	0.019808978
237	0x3d2bc3bf	0.041934725
238	0xbd986154	-0.07440439
239	0xbd0164b2	-0.03159017
240	0xbd770b61	-0.060313586
241	0xbbd47f1e	-0.00648488
242	0x3cff10e6	0.031135987
243	0xbd7589be	-0.059945814
244	0xbc10346d	-0.008801562
245	0xbd6789a7	-0.05652776
246	0xbd30c006	-0.043151878
247	0xbc5e8dd6	-0.013583621
248	0x3d896804	0.067092925
249	0xbe3ba4f1	-0.18324639
250	0xbcfbd836	-0.030742746
251	0x3c3e481b	0.011613871
252	0x3cb2e222	0.021836344
253	0x3adb0f4f	0.0016712936
254	0x3c92fa99	0.01794176
255	0xbcf50f3d	-0.029914493

out.weight f4 [1, 256]
0	0x3d0cce80	0.03437662
1	0x3b836917	0.0040103304
2	0xbd4c58be	-0.04988932
3	0xbd8e59a5	-0.06950692
4	0xbd16d7fa	-0.036827065
5	0x3c3cfe1a	0.011535192
6	0xbc8b343e	-0.016992684
7	0x3d026e64	0.031843558
8	0x3c2ebb88	0.010664828
9	0xbabe32fe	-0.0014511046
10	0xbde17263	-0.11008146
11	0x3c963737	0.018336875
12	0x3c8fd72e	0.01755866
13	0xbd0c112d	-0.034196068
14	0xbc86701e	-0.016410884
15	0x3d1a0e1b	0.03761111
16	0xbc947345	-0.018121371
17	0xbcafddc0	-0.021468043
18	0x3db5cc7f	0.08876895
19	0x3ce91846	0.028453957
20	0x3c42326a	0.01185284
21	0x3c9e964c	0.019358777
22	0x3d186893	0.037209105
23	0x3cf3cd06	0.029760849
24	0x3c1bf5bb	0.009519036
25	0xbd1e6473	-0.038670015
26	0x3d90d604	0.0707207
27	0xbd885d47	-0.06658416
28	0xbce2f9de	-0.027707037
29	0x3efcc1c6	0.49366587
30	0x3b1ee335	0.0024244313
31	0xbd4f0fe2	-0.050552256
32	0x3ce7ee9b	0.028312018
33	0x3d0f19a3	0.03493656
34	0xbdc6951a	-0.096964076
35	0x3d5b4e99	0.053541753
36	0x3d85e828	0.06538421
37	0xbbd708ca	-0.006562327
38	0xbd845ae4	-0.064626485
39	0xbddc692d	-0.10762248
40	0x3e1cea60	0.15323782
41	0x3de5bea1	0.11218
42	0xbe035e41	-0.12828924
43	0xbdcef183	-0.101046585
44	0xbda20a1c	-0.079120845
45	0xba86ef75	-0.0010294752
46	0x3cf78f06	0.030219566
47	0xbbfe8c19	-0.007768166
48	0x3c79cfdb	0.0152473105
49	0x3d6b3be6	0.05743017
50	0xbdd200e9	-0.1025408
51	0x3c3d7729	0.0115640545
52	0x3df54cea	0.11977561
53	0x3d09c595	0.033635695
54	0xbc41d58a	-0.011830697
55	0xbd9d0468	-0.07666856
56	0x3bd48d8f	0.0064866017
57	0x3d28c03e	0.04119896
58	0xbc9c2ebe	-0.019065257
59	0x3cb2c70b	0.021823427
60	0x3e43508e	0.19073698
61	0xbc7e6b00	-0.0155284405
62	0xbd40e5dd	-0.047094215
63	0x3cabfbcb	0.020994088
64	0xbd25311f	-0.04033005
65	0xbd307155	-0.04307683
66	0xbd078b6c	-0.033091947
67	0x3d14b925	0.03630938
68	0xbbde19af	-0.006777964
69	0xbde501a2	-0.11181952
70	0x3dcca4a3	0.099923395
71	0xbd93b6a4	-0.0721257
72	0xbd0d7c71	-0.034542505
73	0xbbb439c0	-0.0055000484
74	0xbd853b9d	-0.06505511
75	0xbd00df2e	-0.03146284
76	0xbe074347	-0.13209258
77	0xbcf14b98	-0.029454991
78	0x3e0a9dce	0.1353676
79	0xbd99a3a9	-0.07501919
80	0xbd1de876	-0.03855177
81	0xbd8e6f53	-0.06954827
82	0xbd096220	-0.033540845
83	0x3d8e9be6	0.06963329
84	0x3d03d699	0.03218708
85	0x3d497629	0.049184952
86	0xbda2b883	-0.07945349
87	0xbccb7742	-0.02483714
88	0xbc596e27	-0.013270891
89	0x3d9a83f6	0.07544701
90	0x3c48a8f4	0.012247313
91	0x3da8769b	0.08225747
92	0x3cb0eb08	0.021596447
93	0xbda55502	-0.080728546
94	0xbd09de9d	-0.033659566
95	0x3d8b4dbe	0.068019375
96	0xbdc593fa	-0.09647365
97	0xbc5ba32f	-0.013405605
98	0x3cc38752	0.023868237
99	0x3cf408be	0.029789325
100	0xbd282bae	-0.04105728
101	0x3dd03243	0.10165837
102	0xbc9ab081	-0.018882992
103	0xbdc88692	-0.09791292
104	0x3d4c7973	0.04992051
105	0x3cf031a6	0.02932055
106	0xbd896a2f	-0.06709706
107	0xbc9ef6bb	-0.01940476
108	0xbd5603b3	-0.05224962
109	0xbd34f6b5	-0.04418059
110	0xbcf661f1	-0.030075999
111	0xbd8d74e3	-0.0690706
112	0xbd4adc9a	-0.04952679
113	0xb9e32cf6	-0.00043330312
114	0x3a62f976	0.00086583884
115	0xb8375ef0	-4.3719017e-05
116	0x3d38eb1b	0.04514609
117	0xbcfa23be	-0.030534621
118	0xbd4f71b4	-0.050645545
119	0xbcee4d4a	-0.029089589
120	0x3d0bf0ff	0.03416538
121	0x3d9c8b67	0.076437764
122	0xbdf34cae	-0.1187986
123	0xba0cad65	-0.0005366414
124	0x3d3cb015	0.046066362
125	0x3d590c7f	0.052990433
126	0x3d0e9d1e	0.034817807
127	0xbdae9321	-0.08524156
128	0x3d0c25ae	0.03421562
129	0xbd50ce85	-0.050978202
130	0xbd1606d4	-0.036627606
131	0x3b3b4e13	0.0028580471
132	0x3cfc7e51	0.030821951
133	0x3e03a68b	0.128565
134	0xbd9fc1a3	-0.07800605
135	0x3d514364	0.05108966
136	0xbd7f5d86	-0.06234505
137	0x3cded1d5	0.027199665
138	0xbc874d3b	-0.016516319
139	0x3c9b24ff	0.01893854
140	0x3dc72ac0	0.09724951
141	0xbd9de015	-0.07708756
142	0x3df6b460	0.120461226
143	0xbb3c4fed	-0.0028734163
144	0x3d9195e1	0.07108665
145	0x3cd7ffa5	0.026367018
146	0x3d4999b6	0.049218856
147	0x3d81be86	0.063351676
148	0x3cd971f8	0.026543602
149	0xbb8d9101	-0.0043202643
150	0x3d72e950	0.059304535
151	0x3e4425af	0.19155
152	0x3d6218a1	0.05519927
153	0xbdacfdda	-0.08446856
154	0xba7fd100	-0.00097586215
155	0x3d361be3	0.04446019
156	0x3e0995c4	0.13436037
157	0x3d16629f	0.036715146
158	0xbd6bfe37	-0.057615485
159	0xbc910c44	-0.017706044
160	0x3c4e7e0f	0.012603297
161	0x3d8ea8f5	0.0696582
162	0x3e4b45ba	0.19850817
163	0x3b2aa369	0.0026037341
164	0x3d1c4ec1	0.038161043
165	0x3ceb30bf	0.028709767
166	0x3d5c1fa6	0.05374112
167	0x3bbc3b03	0.0057443394
168	0xbd17bb70	-0.03704399
169	0xbd4c56e7	-0.049887564
170	0xbd34b8fd	-0.04412173
171	0x3d1802b5	0.037111957
172	0x3d01e9dc	0.031717166
173	0x3e2d259c	0.16908878
174	0xbdbc19b8	-0.09184593
175	0x3c97e269	0.018540578
176	0x3d01ab1c	0.031657323
177	0x3c364f11	0.011127249
178	0xbc0b2401	-0.008492471
179	0x3e3683a5	0.17823656
180	0xbd7ff124	-0.06248583
181	0x3bbe5fe0	0.005809769
182	0xbdbb002b	-0.091308914
183	0x3d5b666c	0.053564474
184	0x3d7de830	0.06198901
185	0xbcc11cde	-0.023573335
186	0xbd84e3e1	-0.06488777
187	0xbce6d734	-0.028178789
188	0xbd0afa38	-0.033930033
189	0xbcf10e31	-0.029425712
190	0xbd995196	-0.074862644
191	0xbd9365f5	-0.07197181
192	0xbd2a21d4	-0.041536167
193	0xbd701323	-0.058612
194	0x3c95495b	0.018223455
195	0xbc560de1	-0.013064832
196	0xbca80f62	-0.020515148
197	0xbdac18a4	-0.08403137
198	0xbc3dc910	-0.011583582
199	0xbd604bec	-0.054759905
200	0xbd9d76db	-0.076886855
201	0x3b036d58	0.0020054188
202	0x3affcf96	0.0019516821
203	0xbd2aa8d1	-0.041664902
204	0xbd33d402	-0.04390336
205	0x3e36497b	0.17801468
206	0xbd87c962	-0.066302076
207	0x3c97900d	0.018501306
208	0xbcbc9c71	-0.023023816
209	0xbb6ea05b	-0.0036411497
210	0x3c7f02dc	0.015564647
211	0xbd6da2cc	-0.058016583
212	0xbba6b065	-0.005086946
213	0xbae6d4c3	-0.0017611015
214	0xbc139eee	-0.00901006
215	0x3c406bf8	0.011744492
216	0xbd0a3fcd	-0.03375225
217	0xbc8b0fc5	-0.016975293
218	0xbd64207b	-0.05569504
219	0xbc3e1ee7	-0.011604047
220	0x3cc27a00	0.023739815
221	0xbc9984da	-0.018740106
222	0x3b8ab68e	0.004233188
223	0xbaec3dec	-0.0018023825
224	0x3ea9d472	0.33169895
225	0x3d8b42b2	0.067998305
226	0xbb74625a	-0.0037290067
227	0x3aae7741	0.0013310687
228	0xbcbdd7f7	-0.02317427
229	0xbc6174bd	-0.013760743
230	0x3aec441f	0.0018025673
231	0xbe2a5bdd	-0.16636606
232	0xbbc93824	-0.0061407257
233	0x3d9040ce	0.070436105
234	0xbd3df9e2	-0.046380885
235	0x3cbc4883	0.022983795
236	0x3d048f32	0.032363124
237	0xbd5eb867	-0.05437508
238	0xbd41346d	-0.047169138
239	0x3cd98f84	0.026557691
240	0xbb70c0bb	-0.003673597
241	0xbb7eb970	-0.0038867854
242	0xbd25f3db	-0.04051576
243	0xbd652ff6	-0.055953942
244	0x3d4b726d	0.04966967
245	0xbcf5c32d	-0.030000294
246	0xbcca4e31	-0.024695488
247	0xbe63210e	-0.22180578
248	0x3b9450a4	0.0045262147
249	0x3e5b09ba	0.21390429
250	0x3d759102	0.059952743
251	0x3dd59e95	0.10430638
252	0xbd5feff4	-0.054672197
253	0x3d6012fc	0.054705605
254	0x3d321428	0.043476254
255	0x3c22babd	0.009932217
