rnn_weights_2/weights_32_random_g0.5_relu_delay_discrimination.pt (torch, 7714 bytes, 5 tensors)

rnn.weight_ih_l0 f4 [32, 1]
000000 b5 9d 8e bf b0 b4 3c bd 03 f9 12 bf f4 df cf 3e
       -1.1141878 -0.046070755 -0.5741121 0.4060055
000010 71 01 34 3d 38 e3 e4 3d 64 b3 a3 be b8 83 e0 bd
       0.043946687 0.11176151 -0.31972802 -0.10962623
000020 70 22 25 3e d9 7d 43 bf f2 a1 2b bf b8 74 3a 3e
       0.16126418 -0.76363903 -0.67043984 0.18208587
000030 d8 38 18 3e f9 5b 09 bf 51 a5 d7 bd d1 ae 4a 3e
       0.14865434 -0.53655964 -0.105295785 0.1979325
000040 5d b7 4a 3c 8c cb a1 be 56 e8 e7 3d 54 d4 c8 be
       0.012372819 -0.31600606 0.113236114 -0.39224494
000050 c0 9a d1 bc b2 e5 2c bf 1d 11 13 3e 8f 13 26 be
       -0.025586486 -0.6753799 0.14361997 -0.16218399
000060 04 a0 6e bd b2 c7 a1 be 84 f2 15 3e 16 81 b4 be
       -0.05825807 -0.31597668 0.14643294 -0.35254735
000070 e7 a2 cb 3e de 4b 29 bd 78 52 66 3e d0 56 a7 3e
       0.39772722 -0.04133212 0.22492397 0.3268342

rnn.weight_hh_l0 f4 [32, 32]
000000 4a 63 3f 3d 60 8b 2b 3d 50 b3 6d be 9b ff 33 3e
       0.04672555 0.041880965 -0.23212934 0.17577974
000010 4d 6b 94 bd 14 35 e9 3e 3b dd 2d 3e 70 1f da be
       -0.072470285 0.45548308 0.16978924 -0.4260211
000020 15 f8 76 3d b5 5b ee bc aa f4 05 be dc 7f db bd
       0.060295183 -0.029096464 -0.13081613 -0.107177466
000030 64 35 9f be e8 b2 91 bd 8d 9f dd 3e 73 81 9f 3e
       -0.3109542 -0.07114202 0.4328579 0.3115345
000040 dd e5 c0 3c da e0 97 be d8 12 cb 3d dd ee b9 bd
       0.023547107 -0.29663736 0.099157035 -0.09078763
000050 58 7e d8 bc a6 9b f2 bd 56 3f 83 bd 9d 89 f4 be
       -0.026427433 -0.11846094 -0.06408565 -0.4776124
000060 7e 0b 31 3e b2 8e a9 be d1 68 12 3e 2f b4 13 bd
       0.1728954 -0.3311668 0.14297797 -0.03606051
000070 a6 64 35 3d 71 d8 75 be eb b8 e2 3d 19 2a 39 3f
       0.04428544 -0.24008347 0.110704266 0.7232986
000080 52 2f a6 3d e5 5e 6e 3d e5 9f f8 bd 7a 6b 1a 3e
       0.081144944 0.058195967 -0.121398725 0.15080062
000090 1a c9 aa bd cd 0c ee bd 8e 6a e9 bb 7c f9 15 3d
       -0.08339138 -0.11623535 -0.007123298 0.03661488
0000a0 ad 4a 14 be 40 57 9e 3b c2 4f 41 be 1e 3a a7 bc
       -0.14481612 0.0048321784 -0.18878081 -0.020413455
0000b0 56 69 5c 3d ed b3 96 3d 31 27 3e bd 2a 19 3c 3d
       0.053811394 0.07358537 -0.046424095 0.045922436
0000c0 79 84 02 bd 8c 2e 14 3d 18 b0 9c bd a9 f4 52 3d
       -0.031864617 0.036177203 -0.07650775 0.051502857
0000d0 55 ba 9e 3d 95 15 dc bd 22 41 43 be bf 26 cf bc
       0.07750384 -0.10746304 -0.19067815 -0.02528703
0000e0 c1 47 55 3d 35 02 ce bc 37 6c ed 3b e3 52 e7 3d
       0.052070383 -0.025147537 0.007245566 0.11295106
0000f0 ac 12 68 3d f2 fb 73 3d 76 a0 04 be e7 d3 89 3c
       0.056658432 0.059566446 -0.12951836 0.016824676
000100 58 22 39 3e ba a9 7c bd 80 d3 15 be 05 8f 96 3d
       0.18079507 -0.0616853 -0.14631462 0.073514976
000110 79 24 67 bd 31 43 bc 3c f8 c8 dd 3d 62 6a 21 3d
       -0.056431267 0.022981258 0.10829347 0.039408095
000120 6f 48 68 3d 63 41 10 be 52 46 89 3e 13 fc 65 be
       0.056709703 -0.14087443 0.26811463 -0.2245944
000130 59 a7 04 bb 13 b0 48 3d 11 f2 94 3d 93 32 83 3e
       -0.0020241349 0.048996042 0.07272733 0.25624523
000140 41 28 b0 3c 90 43 c7 3c 17 00 ca be ce ec a2 be
       0.02150357 0.024324208 -0.39453194 -0.31821293
000150 12 6e b9 bd 65 0b 1f 3e 7e 95 04 be eb ef 16 be
       -0.09054197 0.1553169 -0.12947652 -0.14739959
000160 31 f3 76 bd ed ae 3b bd 68 f0 4d 3e f4 36 81 bd
       -0.06029052 -0.04582112 0.20111239 -0.063093096
000170 4a 67 55 3f 84 a7 e4 3d 9b ac 63 3f 73 88 a9 3f
       0.8336073 0.111647636 0.8893525 1.3244766
000180 61 39 d5 bd b4 30 04 be f1 a3 93 be 26 67 20 be
       -0.10411335 -0.12909204 -0.28836015 -0.15664348
000190 79 2f 1b 3e a8 11 dc 3d fe f6 8e bc c6 5a 89 3d
       0.15154828 0.10745555 -0.01745176 0.06706767
0001a0 39 fb 99 3e 6d 42 6b bd 7d b7 ca 3e f9 8e c9 bd
       0.3007448 -0.057436395 0.39593115 -0.09841723
0001b0 b6 e8 82 bd 9b 25 fc bc 7b 29 e3 3e 1f 04 7f bd
       -0.06392042 -0.03077965 0.44367585 -0.06225979
0001c0 f6 ce c6 3e fe d6 17 3d fc 39 c1 bd 4f 4d a4 be
       0.38829774 0.037070267 -0.09434888 -0.32090232
0001d0 b1 8c c3 3d 32 50 b7 be d4 00 27 3e 6e 66 2e be
       0.09548319 -0.35803372 0.1630891 -0.17031261
0001e0 c5 b4 3c 3e ca 97 a3 3e 1b 5a fb 3d 93 e2 ce bc
       0.18428333 0.31951743 0.12273046 -0.025254523
0001f0 8d 46 bb 3e 51 c5 78 3d 20 a4 0c 3f 53 e4 da 3e
       0.36577263 0.06073505 0.54937935 0.42752323
000200 9b 77 f6 3d c7 68 00 be 72 40 2a 3d 6f c9 ab 3e
       0.12034532 -0.1253997 0.041565366 0.3355212
000210 ae ab 91 3d c9 a6 01 3d 11 d2 8c be 95 30 44 3e
       0.071128234 0.0316532 -0.27504018 0.19159158
000220 b1 29 46 3e c8 ca 9d 3d b8 e1 e2 3d f1 94 2b bd
       0.19351842 0.07704693 0.11078209 -0.04189009
000230 4f 28 30 3d 15 f1 e3 be 04 71 3f be 27 66 ed be
       0.04300719 -0.44519868 -0.18695456 -0.46367
000240 0c 82 0f 3e a4 96 2b 3d 84 b7 db bd de a9 90 bb
       0.14014453 0.04189171 -0.10728362 -0.004414781
000250 69 0d 0a be b4 6e 5b bd 88 55 d0 3d 3b b1 01 be
       -0.13481678 -0.05357237 0.10172564 -0.12665264
000260 04 9d 85 3d 56 1a f4 bd 83 db db 3d 74 ac 5e be
       0.06524089 -0.11919086 0.10735228 -0.21745473
000270 bf d0 23 be 62 3d 7d bd 58 26 02 be 7c 81 36 bd
       -0.15997599 -0.061826117 -0.1270994 -0.04455708
000280 84 92 4e be f4 fb 6a bd 9e 06 e3 bc b5 7d 48 bc
       -0.20173079 -0.057369187 -0.027713116 -0.012237002
000290 b5 91 dd 3d 2f 26 37 3e 58 20 04 bf 1d f3 5f bd
       0.10818807 0.1788566 -0.5161185 -0.05467521
0002a0 de 50 2c bd 56 37 c5 be 26 2a 18 bd d6 90 ee bd
       -0.04206931 -0.3851878 -0.03714957 -0.11648719
0002b0 fb b9 39 3c ff 2d 95 3e fb e5 c6 3e 80 c4 6e be
       0.011335845 0.29136655 0.38847336 -0.23317146
0002c0 00 be 21 3e a3 90 2e 3c ee db 8e 3d af e5 aa bd
       0.15795135 0.010654601 0.06975542 -0.0834459
0002d0 62 d9 5a bd 8a 43 bb 3c 96 a0 d3 bd 13 c2 f1 bd
       -0.05342997 0.022859354 -0.10333364 -0.11804595
0002e0 b8 57 df bc b4 7a 90 bc 9a bb 9c 3d 9f 44 be 3d
       -0.027263507 -0.017636634 0.0765297 0.09290432
0002f0 f4 95 18 be 6f 66 ab 3c fd d5 20 3d e7 d4 9d bc
       -0.14900953 0.020922868 0.039266575 -0.019266559
000300 29 90 81 be cb 9e e2 3d 44 f0 8f be f3 e0 55 be
       -0.25305298 0.110654436 -0.28112996 -0.20886593
000310 da e0 14 be ad a4 c0 3c 22 5d a3 3e a9 6a de 3c
       -0.14538899 0.023516024 0.31906992 0.027150469
000320 30 0e 97 be df 22 0e 3e 04 29 c0 3d 21 98 aa bd
       -0.29503012 0.1388049 0.09382823 -0.083297975
000330 34 41 53 3d 3f 9b 1e be 90 28 30 3e d8 b3 05 3f
       0.051575854 -0.15488909 0.17202973 0.52227545
000340 17 48 b4 3c 25 c4 1f be cd 6b 0d 3e f4 35 4a be
       0.022007031 -0.15602167 0.13810654 -0.19747144
000350 a1 92 25 3d 12 b8 02 3e 40 84 ad be 08 e1 26 3e
       0.04042304 0.1276553 -0.3388996 0.1629678
000360 2f 0f b8 bc 6f de ae 3d c8 07 1c be 3a 1d 54 3e
       -0.022468178 0.085385196 -0.15237343 0.20714274
000370 79 9f 09 bd 1f 1a 7e 3d 86 9d 93 be 4f 39 01 be
       -0.03359935 0.06203663 -0.28831118 -0.12619518
000380 5a 39 32 3d 28 a1 06 3d f0 fe 88 be f8 e8 d9 bd
       0.043511726 0.032868534 -0.26757002 -0.106401384
000390 b3 08 53 bd aa b4 d3 bc d2 bf 93 be 5f 6d d7 3d
       -0.051521968 -0.025842983 -0.28857285 0.10518908
0003a0 ce 03 69 bd d1 fe 8d 3e f7 c0 ba 3d ab db 39 3e
       -0.056888394 0.27733472 0.091188364 0.18150203
0003b0 ed e5 37 3e d3 cc 41 be bc af 17 be e3 60 96 be
       0.17958803 -0.1892579 -0.14813131 -0.29370794
0003c0 f9 a5 2b 3d 96 30 52 3e 4a d2 bd be fb 49 5e 3e
       0.04190633 0.20526347 -0.370745 0.21707909
0003d0 6c a6 03 3e 52 d6 af bc 39 c9 2a 3e f6 e8 db bc
       0.12856454 -0.0214645 0.16678323 -0.026844483
0003e0 d4 98 20 3e 33 cc 94 3e 9b d8 26 3e 94 c2 bf be
       0.156833 0.29062042 0.16293566 -0.3745314
0003f0 e9 57 5f be dc 24 12 3d b2 d5 63 3d 79 c4 95 3c
       -0.21810879 0.035679683 0.055623718 0.018282162

rnn.bias_ih_l0 f4 [32]
000000 33 f7 14 3e 34 a2 b8 bd 2a 57 12 be af 69 95 3d
       0.14547424 -0.09015313 -0.14291063 0.07295548
000010 1d e3 04 3e a3 d0 6e bd da 56 0a 3e f5 41 29 3d
       0.12977262 -0.05830444 0.13509694 0.041322667
000020 65 3d eb bd e6 a6 12 3e 73 7c bc 3d 3a d4 70 be
       -0.114863195 0.14321479 0.09203424 -0.23518458
000030 0b 87 1e 3e 38 14 de 3c 63 92 36 3e 55 dc 72 3d
       0.15481202 0.02710925 0.1782928 0.059292156
000040 8f 20 dc bd 5e 18 9e 3d 1f e0 3a 3c 3a ad 49 bd
       -0.107483976 0.077194914 0.011405974 -0.049237467
000050 5c 9c 15 bd 1a c7 83 3d 3b ee 59 3d 4f d3 29 3e
       -0.03652607 0.0643446 0.05320571 0.16584514
000060 fc c4 c1 3d ff aa 2f 3e 85 a4 e1 bc 7a 20 b5 3c
       0.094614 0.17155074 -0.02754427 0.022110213
000070 5a 38 03 3e b0 55 80 3d 37 23 f0 bc 75 f1 8c 3c
       0.12814465 0.062663436 -0.029313667 0.01720498

rnn.bias_hh_l0 f4 [32]
000000 c3 c9 d2 bc 12 99 41 be 8b 08 01 3e 61 4e 53 be
       -0.025730973 -0.18906048 0.12600915 -0.20635368
000010 37 cf e2 3d 19 4f 5d 3d f2 40 b0 3d 04 d9 02 3e
       0.11074679 0.05403051 0.08606137 0.12778097
000020 77 c7 9e 3d cd 42 31 3b 1b c5 9a 3d ac a4 bb bd
       0.07752889 0.0027047873 0.07557126 -0.09162268
000030 83 bc 13 3e 2c a2 40 be 73 aa b9 3c 6a 28 40 bd
       0.1442738 -0.18811864 0.022664284 -0.04691354
000040 43 10 23 3e 0f aa 3d bd ae 67 c1 3d ac ef 18 3c
       0.15924172 -0.04630476 0.094436035 0.009334486
000050 cd ff c8 3c c0 03 3b 3d 18 8b f4 bd 73 92 28 3d
       0.024536038 0.045657873 -0.119405925 0.04115529
000060 74 49 b7 3c 31 dd a8 bd b1 2f 22 3d 65 d9 b9 3d
       0.022373892 -0.08245314 0.039596263 0.09074668
000070 e9 ef e1 bd 69 16 14 3e c1 17 d8 3c d5 2c cd 3b
       -0.11032087 0.14461674 0.026378514 0.006261448

out.weight f4 [1, 32]
000000 15 41 2c 3d be 31 bb bd 59 c6 cf bd 28 17 d2 3d
       0.042054255 -0.09140347 -0.10145254 0.10258323
000010 63 84 66 be 0c d1 58 be a3 8d 3f 3e a8 fd 8d be
       -0.22511439 -0.21173495 0.18706374 -0.27732587
000020 60 26 51 3e c0 01 27 be ed d5 69 3e 1d 46 c6 be
       0.20424795 -0.16309261 0.22835512 -0.38725367
000030 de 26 83 be a6 cd 12 3e 2c bb 77 3e 6f 02 b3 3d
       -0.2561559 0.14336261 0.24192494 0.087406985
000040 16 b7 46 3e 57 5a ea be f1 01 24 be c0 88 65 3e
       0.19405779 -0.4577205 -0.16016366 0.22415447
000050 26 89 82 bd 18 44 7c 3b 12 78 7e 3e 65 67 38 3e
       -0.06373815 0.0038492735 0.2485049 0.18008192
000060 66 34 12 3d 96 da 73 bc 46 64 62 3e 9c 86 f8 bd
       0.035694502 -0.014883658 0.22108564 -0.1213505
000070 48 28 4a 3e 84 aa a1 be f9 0c 40 bf 4a d1 35 3e
       0.19741929 -0.31575406 -0.75019795 0.17755619
