rnn_weights_2/weights_16_random_g0.9_tanh_flip_flop.pt (torch, 4404 bytes, 6 tensors)

rnn.weight_ih_l0 f4 [16, 2]
0	0x3f09ec51	0.53876215
1	0x3d94d664	0.07267454
2	0xbd4a99bd	-0.049463023
3	0x3ee82ee9	0.4534829
4	0xbcfb8032	-0.030700777
5	0x3e8a2453	0.26980838
6	0x3ebead6e	0.3724169
7	0xbcec74ba	-0.028864253
8	0xbd42fd32	-0.047604747
9	0x3ec7b67a	0.39006406
10	0xbf16266f	-0.58652395
11	0xbd58354f	-0.052785214
12	0x3e4a1681	0.19735147
13	0xbbdd5397	-0.0067543495
14	0x3ccb4821	0.024814667
15	0x3f62847b	0.884834
16	0x3eab38df	0.33441827
17	0x3e67ba34	0.22629625
18	0xbfd1bd74	-1.6385942
19	0xbdc197d6	-0.094527885
20	0xbe22962e	-0.15877602
21	0xbefec81a	-0.4976204
22	0xbcd4db5c	-0.025983505
23	0xc0149834	-2.3217897
24	0x40008250	2.0079536
25	0xbb86571a	-0.004099739
26	0x3ded240e	0.115791425
27	0xbf0fc3e1	-0.5615826
28	0x3f1d182d	0.61365014
29	0x3d513472	0.051075406
30	0x3dacc036	0.08435099
31	0x3db5f99a	0.08885498

rnn.weight_hh_l0 f4 [16, 16]
0	0xbea28a47	-0.31746122
1	0xbe7929a3	-0.2433229
2	0x3e3447f3	0.17605571
3	0xbdd66112	-0.104677334
4	0x3e26a510	0.16273904
5	0xbee43cf1	-0.44577745
6	0xbe2cfae5	-0.16892584
7	0x3e6427b6	0.22280774
8	0xbe2b695b	-0.16739409
9	0xbee51146	-0.4473974
10	0xbe9c7208	-0.3055575
11	0xbce8d1cc	-0.028420351
12	0xbe224a86	-0.15848741
13	0x3e963c0a	0.2934268
14	0xbcceaac7	-0.025227917
15	0x3e495443	0.1966105
16	0xbd5e07cf	-0.054206666
17	0x3e874c1f	0.26425263
18	0x3e3cc5f8	0.18434894
19	0xbdca7bdc	-0.098869056
20	0x3dbed75c	0.0931842
21	0xbe32c8fc	-0.17459482
22	0xbd9184da	-0.071054175
23	0x3ebd05ac	0.3691839
24	0x3db6c8be	0.08925007
25	0xbe7380bd	-0.23779579
26	0xbef96445	-0.48709312
27	0xbed6849d	-0.4189805
28	0xbe417565	-0.18892439
29	0xbc37c8ce	-0.011217309
30	0x3d7c8dd7	0.061658707
31	0xbd809cb4	-0.06279889
32	0xbd90d71d	-0.070722796
33	0xbed16117	-0.40894386
34	0x3e176389	0.14784063
35	0x3e376313	0.17908888
36	0x3e42850d	0.18996067
37	0xbde40ec4	-0.11135629
38	0xbe312c32	-0.17302015
39	0x3ea188de	0.31549734
40	0xbe1cc3f5	-0.15309127
41	0xbe1fdf88	-0.15612614
42	0x3e473255	0.19452794
43	0xbd87805e	-0.06616281
44	0xbe657f45	-0.2241183
45	0xbdaee12c	-0.08539042
46	0xbe963fff	-0.293457
47	0xbd648733	-0.055793
48	0x3ea0e71b	0.3142632
49	0x3dd33e67	0.10314637
50	0xbec42467	-0.38309023
51	0xbccd03c0	-0.025026202
52	0xbd4fcb13	-0.050730776
53	0xbe978fcb	-0.29601893
54	0x3c321254	0.010868628
55	0x3c0d2d6d	0.008616787
56	0x3e933164	0.2874862
57	0xbded757f	-0.11594676
58	0xbe03e2bc	-0.12879461
59	0x3e66bf25	0.22533853
60	0xbd049648	-0.032369882
61	0x3d2d7162	0.04234446
62	0x3dc9202d	0.0982059
63	0x3e9f181c	0.31073081
64	0x3e39771a	0.1811184
65	0x3e89797e	0.26850504
66	0x3e34560a	0.17610946
67	0xbc80ee8a	-0.015738744
68	0x3e54ad26	0.20769176
69	0xbe563358	-0.20918024
70	0xbdcf26cd	-0.101148225
71	0x3e7f5f7c	0.24938768
72	0xbd4c4ee3	-0.04987992
73	0x3e8cd7e6	0.27508467
74	0xbf02c2bc	-0.5107839
75	0xbde98761	-0.114027746
76	0x3df97c80	0.121819496
77	0x3d74bd02	0.059750564
78	0xbd85bda2	-0.0653031
79	0xbde74af7	-0.11293595
80	0xbe90b4e8	-0.2826302
81	0x3d2be015	0.04196175
82	0x3e0313e1	0.12800552
83	0xbeb7acd4	-0.35874045
84	0x3da9aee6	0.08285312
85	0x3ea3298f	0.31867644
86	0xbd0ce729	-0.03440014
87	0xbdd4628d	-0.103703596
88	0xbd1af273	-0.037828874
89	0x3f1c6adc	0.61100554
90	0x3cd21abb	0.025647512
91	0xbbb3a600	-0.005482435
92	0xbed54aea	-0.41658717
93	0xbe38ae59	-0.18035258
94	0xbd38efbb	-0.0451505
95	0xbea60015	-0.32421938
96	0xbe6fbba4	-0.23411423
97	0x3e2a0be6	0.16606101
98	0x3e69bc5f	0.22825764
99	0x3cfcccee	0.030859437
100	0xbe390b6a	-0.1807076
101	0xbbcc830a	-0.006241207
102	0xbea5ffdc	-0.32421768
103	0xbd8c3484	-0.06845954
104	0xbe67d392	-0.22639301
105	0x3e1f350d	0.15547581
106	0x3e2f1c64	0.17100674
107	0x3d9c155e	0.07621263
108	0x3dd46154	0.10370126
109	0xbdcafb63	-0.099112295
110	0x3de84f70	0.113432765
111	0x3db4fb96	0.08837049
112	0x3ebb73a3	0.3661166
113	0x3d676fb6	0.05650302
114	0x3ead526c	0.33851945
115	0x3e8c232f	0.27370593
116	0x3e5ab2a9	0.21357216
117	0x3e888903	0.26667032
118	0xbd53429c	-0.051577196
119	0x3de243fb	0.110481225
120	0x3e17b65f	0.14815663
121	0xbde575c3	-0.11204102
122	0xbe89427b	-0.26808533
123	0xbf708da5	-0.9396613
124	0xbeb6e4a8	-0.35721326
125	0xbda3f602	-0.08005907
126	0x3e5d96ba	0.21639529
127	0xbd492d74	-0.049115613
128	0x3ecf670c	0.40508306
129	0xbdff8b57	-0.12477749
130	0xbb902f23	-0.0044001504
131	0xbe3b6394	-0.18299705
132	0x3e70c8b8	0.23514068
133	0x3caec97d	0.021336311
134	0x3d2d5e15	0.04232605
135	0x3eeaf77f	0.4589195
136	0xbe31e2d1	-0.1737168
137	0x3d5fbf45	0.05462577
138	0x3c835784	0.016032942
139	0x3bd1b7f7	0.006400104
140	0x3e611fa2	0.21984723
141	0xbe1e8fa0	-0.15484476
142	0x3d8b0069	0.067871876
143	0xbe65ecc8	-0.22453606
144	0xbe773b42	-0.24143699
145	0x3d0d2d68	0.03446713
146	0xbdc139ae	-0.0943483
147	0x3ddd1e3b	0.10796782
148	0xbeca2675	-0.39482465
149	0x3e505f2d	0.20348807
150	0xbedd584e	-0.43231434
151	0x3de67072	0.11251916
152	0xbc2c59dd	-0.010519472
153	0x3f2ab3a4	0.6668036
154	0x3e491da4	0.19640213
155	0xbe4e3f6b	-0.2014138
156	0xbe79fd40	-0.24413013
157	0xbe87c6c9	-0.2651885
158	0x3ddf443f	0.10901689
159	0xbe284eda	-0.1643633
160	0x3ebea4c9	0.37235096
161	0xbe8a23f7	-0.26980564
162	0xbce96ddc	-0.028494768
163	0xbc780560	-0.015138
164	0xbf02c95e	-0.5108851
165	0xbd952730	-0.07282865
166	0xbdb28780	-0.08717251
167	0xbe3cc530	-0.18434596
168	0xbd1065a3	-0.03525318
169	0xbe98c1e4	-0.29835427
170	0x3ebdfcd2	0.3710695
171	0x3ecf7d06	0.40525073
172	0xbe7f4b99	-0.24931182
173	0xbe89bbd3	-0.2690111
174	0x3e5d0d86	0.2158719
175	0xbe98538a	-0.29751235
176	0xbdd46e9f	-0.10372662
177	0xbee4d39b	-0.44692692
178	0x3c86aa96	0.016438764
179	0xbeaa30f5	-0.33240476
180	0xbea5ef95	-0.3240935
181	0x3e97b742	0.29632002
182	0xbdc9224f	-0.09820997
183	0xbead7d40	-0.3388462
184	0xbd49941b	-0.04921351
185	0xbeb60b86	-0.35555667
186	0xbd114160	-0.035462737
187	0xbcc186db	-0.023623874
188	0xbe031d15	-0.12804063
189	0x3f11c015	0.5693372
190	0x3def2578	0.116770685
191	0x3ef7b8fe	0.48383325
192	0x3e15f5e2	0.14644578
193	0x3e919898	0.28436732
194	0x3e7d376c	0.24728173
195	0x3e325c4d	0.17418022
196	0xbeb5cf7e	-0.35509866
197	0xbf14331f	-0.57890505
198	0xbee4cf04	-0.4468919
199	0xbd90b007	-0.070648246
200	0x3cdfc914	0.027317561
201	0xbf1ac71d	-0.6046007
202	0x3d82b9fa	0.063831285
203	0x3dcd828f	0.10034668
204	0xbe235e7c	-0.15954012
205	0x3dc18375	0.094489016
206	0xbea91b52	-0.33028656
207	0x3c2959a0	0.01033631
208	0xbe8e632f	-0.27810046
209	0xbeaaab78	-0.33333945
210	0xbd07f305	-0.033190746
211	0x3d21fdfc	0.03954886
212	0x3e8611d6	0.26185483
213	0xbdf7f400	-0.12107086
214	0x3e7daf6b	0.24773948
215	0xbdd09029	-0.10183746
216	0xbe68f8e0	-0.22751188
217	0xbdad9b6c	-0.0847691
218	0x3e9d1dcf	0.30686805
219	0xbd50af44	-0.050948396
220	0x3cd085d7	0.025454445
221	0x3e8bd771	0.27312806
222	0xbde65219	-0.11246128
223	0x3cb62fe8	0.02223964
224	0x3e11f9f7	0.1425551
225	0x3e3d4fa7	0.18487416
226	0xbce941ef	-0.028473822
227	0xbdd69219	-0.10477085
228	0xbda8699d	-0.08223269
229	0xbc7a2e4c	-0.015269827
230	0x3e371cce	0.17882082
231	0xbeb0fd18	-0.34568095
232	0x3eb0bcce	0.34519047
233	0xbee4e64d	-0.44706956
234	0x3e235ff0	0.15954566
235	0x3e0659b6	0.1312016
236	0x3d1b3884	0.037895694
237	0xbd5d48e8	-0.054024607
238	0xbe84de8f	-0.2595105
239	0xbd9cf62c	-0.07664141
240	0xbe17c80f	-0.1482241
241	0xbdb17edf	-0.08666777
242	0xbca547b5	-0.020175794
243	0x3d9c9701	0.07645989
244	0x3be010ef	0.006837956
245	0xbf0132f3	-0.5046837
246	0xbc9fdd33	-0.019514656
247	0xbe460521	-0.19337894
248	0x3daac51e	0.08338378
249	0xbf018e0c	-0.5060737
250	0x3e6de29c	0.23230976
251	0xbe6ed5e2	-0.23323777
252	0x3df085b1	0.117442496
253	0xbe3e676a	-0.18594137
254	0xbe68ea4b	-0.22745626
255	0xbcaf6c10	-0.021413833

rnn.bias_ih_l0 f4 [16]
0	0xbd46ab12	-0.04850299
1	0x3e06eab5	0.13175471
2	0x3e8e3c12	0.27780205
3	0xbdf1b265	-0.11801604
4	0x3db43ccf	0.08800661
5	0xbdbee2f9	-0.09320635
6	0xbe6bd0c5	-0.23028858
7	0xbe5a1241	-0.21296026
8	0xbd8bfab8	-0.0683493
9	0x3b9abb3d	0.0047220276
10	0xbe1b110b	-0.1514322
11	0x3dfaa596	0.12238614
12	0x3cc8f0ee	0.024528947
13	0x3dd1c7df	0.102432005
14	0xbd9299e4	-0.071582586
15	0x3cf8629f	0.030320464

rnn.bias_hh_l0 f4 [16]
0	0xbc086f2e	-0.008327289
1	0xbe4959e2	-0.19663194
2	0xbe1abdb4	-0.15111428
3	0x3e10534b	0.14094274
4	0xbe1f1a2b	-0.15537326
5	0xbd38537d	-0.045001496
6	0xbe10d71c	-0.14144558
7	0x3e2585c2	0.16164306
8	0x3e0a991e	0.13534972
9	0xbda8d304	-0.08243373
10	0xbd86b965	-0.0657833
11	0xbe477d8e	-0.19481489
12	0xbdf9dfd2	-0.122008935
13	0xbde2dc75	-0.11077205
14	0x3e3fe652	0.18740204
15	0x3e2a18f6	0.16611084

out.weight f4 [2, 16]
0	0x3d7346ed	0.059393812
1	0x3db29528	0.087198555
2	0xbca83a5e	-0.020535644
3	0xbe80982f	-0.25116107
4	0xbdde47bc	-0.10853526
5	0x3dffe65a	0.12495108
6	0xbe904d51	-0.28183988
7	0xbc3675b4	-0.011136461
8	0xbe82ac76	-0.25522202
9	0xbf482ddf	-0.78194994
10	0x3e069ce0	0.1314578
11	0x3a7b80de	0.0009594093
12	0x3f7433e6	0.9539169
13	0xbe38ef1f	-0.18059967
14	0xbf0d59b4	-0.55215
15	0x3dbc15d9	0.091838546
16	0x3dbb2714	0.09138313
17	0xbe5118da	-0.20419636
18	0xbe89cf24	-0.26915848
19	0xbd4b10cf	-0.049576577
20	0x3e309f8f	0.17248367
21	0xbd87c93a	-0.06630178
22	0xbdf437ef	-0.11924731
23	0xbcd1ede1	-0.025626125
24	0xbdd5b8fe	-0.10435675
25	0x3d0e05c5	0.03467347
26	0xbde91660	-0.11381221
27	0xbfafee62	-1.3744624
28	0x3d095ab6	0.033533774
29	0x3eb5c9ea	0.3550561
30	0xbd84c24d	-0.064823724
31	0xbdb7acb2	-0.08968486

out.bias f4 [2]
0	0xbd5aa9d5	-0.05338462
1	0x3d045d03	0.032315265
