rnn_weights_2/weights_32_random_g0.5_relu_integrator.pt (torch, 7614 bytes, 5 tensors)

rnn.weight_ih_l0 f4 [32, 1]
00000000: 8c56 d8bd 95e1 11bc 42ca 84bd 7422 93bc
00000010: ee89 773e ad73 2ebe 0e07 983e 5f49 0c3e
00000020: 1ecd 2c3e 44d2 5a3e e9d7 96be ccf5 8a3c
00000030: 8b4f 02be b8ee ccbd b9e4 a83d 8a79 f1bd
00000040: a143 683e dce0 b2bb a3c3 e13d df89 243e
00000050: e8f6 903e 484b 833c c056 343d 60de 923c
00000060: 529f 163e 1072 55be afba 3fbe 8b44 14be
00000070: d43e 903c 1126 e73d 7de1 cc3d 72a3 113d
-0.105633825 -0.008903881 -0.0648389 -0.017960764 0.2417371 -0.17036314 0.29692882 0.13699864
0.16875121 0.21369272 -0.294616 0.016962908 -0.12725656 -0.100064695 0.082467504 -0.1179076
0.22682048 -0.005458934 0.11023643 0.16068219 0.28313375 0.016027108 0.044028044 0.017928302
0.14709213 -0.20844293 -0.18723558 -0.14479272 0.017608084 0.112865575 0.10003946 0.035556264

rnn.weight_hh_l0 f4 [32, 32]
00000000: 9841 993d 7733 95bd c1f0 8fbd 08c1 b33d
00000010: 2002 8e3d 2ebc a53c 37ea 51bc f14e 47be
00000020: ba29 5fbc 5327 9f3d 9f94 bf3d 7d91 0bbd
00000030: 0197 d33d 51cc ca3d 65d4 2b3d ee5c bd3c
00000040: e3f0 1ebd 615c 743e b5a4 bcbd 69b2 da3c
00000050: 9fd1 a23d e6df 143d e59c 383d 25cc 123d
00000060: 3e7f 823b 7cd2 953c aff0 f23d 73f9 423e
00000070: 559e a53d c83b 2e3a 4a56 c53c 1529 213d
00000080: c882 973d 124c 50bd a826 153d a9a1 67bd
00000090: 554d aebc 8d78 4b3c dbe0 893c 3810 86bc
000000a0: 4ccc ec3d 030d 8e3d f0f5 8ebd 30b3 f33c
000000b0: c794 75bd 0fb5 323d 0850 33be eec4 0d3c
000000c0: 1a5e 37bd ae0c 78be 4877 6abd 57a1 c1bd
000000d0: 1ee5 ab3d b763 e13d 6ec4 a43b 8053 89bc
000000e0: 454f 47be 55ba e1bb f897 80bc 6fa2 df3c
000000f0: 280f 87bc 651b b8bb f638 fd3d 2dde 0fbe
00000100: 0c25 8c3c 9c22 c2bc 962c 8ebd 6c05 67bd
00000110: a364 abbd d129 f23b 0f1f cf3d 5d3a 4dbd
00000120: e488 a1bd 63c1 283e ef47 ecbc 80ed 013d
00000130: 23ad 28be aeaf bb3d 7d02 01bd 11bc 173c
00000140: c2c8 ec3b 2abe dc3b b850 8d3d f7fe 823d
00000150: 356b 2a3d 79da 803d ed51 883c 5590 4ebd
00000160: 4d66 f13c 77eb 413d 88f3 1abd 6098 c5bd
00000170: 8bc2 a0bc 5e26 9bbd 5634 edbd 38a7 9bbd
00000180: 7646 a13d 207b 3a3e d805 f73d 1838 4a3d
00000190: e907 c53d 984f e43d b2e0 143e be71 f23d
000001a0: 09e2 563d 5f0d 3f3e 75be ae3d 0d53 5b3e
000001b0: de3c 06bb add7 e0bd 3d69 ecbd 23bf 52bd
000001c0: 619e 0b3e 8c6d d93e 622b 17be d842 243e
000001d0: fe8b b13d 71eb 8fbc b47f f5bd f5c3 d33d
000001e0: 0e1f 2bbc c63b 3f3f 9f13 b7bc f37f a93d
000001f0: 6bb5 453c bfeb 933d 22e0 1d3e 9bba 9cbd
00000200: 978f 21be 7ee6 d1bc d043 21be dcbd ed3d
00000210: 53b1 8f3e 1e73 28be b855 203d 5033 28bd
00000220: c346 30be 3d6d 143e ce12 6cbe 4349 243e
00000230: 7a7d b73d f4b9 f5bd 9b4a 183b c859 b8bd
00000240: 1117 173e c4ec bf3d 164d 74bc bb9b 5abd
00000250: 7b02 b13c 2e24 e13d f25a 753d e104 de3d
00000260: 6e2f a8bd 99a5 b6bd ab60 fabd a92b 01be
00000270: 7987 13be a791 86bd eff2 633d bb9c 553d
00000280: 2876 2fbd f6dd 75bd d344 253d 9a60 f63d
00000290: 4db8 0e3e c631 b5bd 85dc 873e a035 19bd
000002a0: 12ba 65bd b53e dbbd 745e 19bc a3f4 923d
000002b0: 9673 383e ca79 fd3d ea65 57be 3487 103c
000002c0: 507a b73c 2968 9a3d f9c3 893c 3369 1cbe
000002d0: 8a5d fbbc dd53 223e 9bc4 14bb 438e bcbd
000002e0: 96a5 a0bc 772a ed3c 74a4 0dbe 1660 683e
000002f0: a56b e33d d3d7 bf3c 963b 45be 2e5f eebb
00000300: 83f0 f7bd b802 28be e078 7a3c 492f d2bd
00000310: 12cf 4c3e 114e ccbd 0ff2 30be e955 a83d
00000320: 2848 583d be9d 413e 516e 7dbd 144f 493a
00000330: d30f 6abd 3e44 a3bd 326e 6dbe bd87 483c
00000340: 845b 0a3b d6d4 45bd 9903 66bc 01b0 743d
00000350: 47ac 113d a45c afbd 3fc5 20be 23bb 1d3d
00000360: 4171 273e be26 0cbd 56f7 16be 7fae 94bd
00000370: 6ee6 58be 9952 be3c 38a2 e13d 63f9 bebd
00000380: 91cb 36bd 1511 d43c bf2f 28bd 214c 8d3d
00000390: 619d b9ba 1702 5fbc 5681 623e f2db 1a3e
000003a0: 9c3b fd3c 8717 c93d e7de 893d 86af 023d
000003b0: b310 303d 5f3b abbd 81b0 d4bd 4100 943e
000003c0: ae4e cd3d a89d fd3d 42c1 30be bad6 443e
000003d0: 36f5 be3d 0b1c e7bc 8f7d 0e3e 2f35 a5bb
000003e0: 6e98 353c 18fa 263e e08a 4cbd 1980 30bc
000003f0: b1c9 15be 834e e13c 401b 443e 3fc6 1e3e
0.07483214 -0.07285207 -0.07028342 0.08777052 0.06933999 0.020231333 -0.012812189 -0.19463708
-0.013620788 0.077711724 0.09354519 -0.034074295 0.10331536 0.099022515 0.041950602 0.023115601
-0.038803946 0.23863365 -0.09211103 0.0266964 0.07950138 0.03634634 0.0450715 0.03583922
0.0039824536 0.018288843 0.11862313 0.1904047 0.0808684 0.00066464813 0.024088997 0.03934582
0.073979914 -0.050853796 0.03641382 -0.056550656 -0.02127711 0.012418878 0.016830852 -0.016365156
0.11562404 0.069360755 -0.069805026 0.02974853 -0.05995634 0.043629702 -0.17510998 0.008652909
-0.044767477 -0.24223587 -0.05724266 -0.09454601 0.0839331 0.11005347 0.005028299 -0.016763449
-0.19463833 -0.0068886676 -0.015697464 0.027299134 -0.01648672 -0.0056185 0.1236438 -0.14049597
0.01710751 -0.023698144 -0.06942098 -0.056401655 -0.08368804 0.007390239 0.10113346 -0.050104488
-0.07887438 0.16480021 -0.028842894 0.03172064 -0.16472296 0.091643676 -0.031496514 0.009261147
0.0072260806 0.0067365365 0.069001615 0.06396287 0.041606147 0.0629167 0.016640628 -0.050430615
0.029467726 0.047343697 -0.037829906 -0.09648204 -0.019624015 -0.07575677 -0.11582248 -0.07600254
0.078747675 0.18211031 0.120616615 0.0493699 0.09620649 0.11147994 0.1453884 0.11838101
0.052461658 0.18657444 0.085324205 0.214184 -0.0020483057 -0.10978637 -0.1154351 -0.051451813
0.13634636 0.4246639 -0.14762643 0.16041124 0.086692795 -0.017568322 -0.11987248 0.1034011
-0.010444416 0.7470058 -0.022348223 0.082763575 0.012067179 0.072226994 0.15417531 -0.0765278
-0.15777431 -0.025622603 -0.15748525 0.116084784 0.28064975 -0.16450164 0.039144248 -0.04106456
-0.17214493 0.14494796 -0.23054048 0.16043572 0.0895948 -0.11998358 0.0023237828 -0.090014994
0.14754893 0.09371331 -0.014910957 -0.053371172 0.021607628 0.10993229 0.059901185 0.10840774
-0.082121715 -0.08918304 -0.12225469 -0.12614311 -0.14407147 -0.0657075 0.0556516 0.052151423
-0.042837292 -0.06002613 0.04034884 0.12030144 0.13937493 -0.08847384 0.2653543 -0.037404656
-0.056085654 -0.1070532 -0.009360898 0.07175567 0.18012843 0.12376745 -0.21034971 0.008821297
0.02239719 0.07539398 0.01681708 -0.15274505 -0.030684251 0.15852304 -0.0022700194 -0.09206822
-0.019610208 0.028950913 -0.13832265 0.22692904 0.11104516 0.023418343 -0.19261011 -0.00727453
-0.12106421 -0.16407287 0.015287608 -0.10262925 0.20000866 -0.099758275 -0.17279838 0.08219511
0.05280319 0.1890783 -0.061872784 0.0007679325 -0.057143997 -0.079720005 -0.23186567 0.012239394
0.0021111676 -0.04829868 -0.014038944 0.059738163 0.035564687 -0.08562592 -0.15700243 0.038508546
0.16351797 -0.034216635 -0.14742789 -0.07259845 -0.21181652 0.023232745 0.11017269 -0.093249105
-0.04462773 0.025887052 -0.04106116 0.06899286 -0.0014161282 -0.013611338 0.2211965 0.15122965
0.030912213 0.098189406 0.067319684 0.031905673 0.042984676 -0.083609335 -0.10385228 0.28906444
0.100247726 0.12383586 -0.17261222 0.19222537 0.09324114 -0.028211614 0.13915084 -0.0050417404
0.011083705 0.1630634 -0.04993713 -0.010772728 -0.1462772 0.027503258 0.1915102 0.15505312

rnn.bias_ih_l0 f4 [32]
00000000: f752 e63c 3e1b a93b e201 1abe 8f68 3d3d
00000010: b0f3 cdbd ae8b e9bd ddd1 1ebe 2988 a83d
00000020: 29a9 373d 45e5 f3bd e871 053e ab57 d8bd
00000030: 84b4 f43d 800d 88bd f805 ddbd 14cb 8abd
00000040: a646 c0bd 69ec 98bd 67d1 88bd dc91 b43d
00000050: f246 913d 3fc3 efbd 5260 933c f917 bcbd
00000060: fbcb 9d3d a3a9 c2bd 374f 1f3e c118 2dba
00000070: f3f1 313e 2b7e 3dbe 57a6 743c bbde 243d
0.028115733 0.005160718 -0.1503978 0.046242293 -0.10056245 -0.11403595 -0.15509744 0.082290955
0.044839058 -0.11908964 0.13031733 -0.10563596 0.11948493 -0.066432 -0.10792154 -0.06777015
-0.09388475 -0.07466967 -0.06680565 0.08816883 0.0709361 -0.11707162 0.017990265 -0.0918426
0.07704922 -0.09505012 0.15557562 -0.0006603115 0.17377453 -0.1850516 0.014932237 0.040251475

rnn.bias_hh_l0 f4 [32]
00000000: 6501 4e39 7162 eabd 6bd3 0bbe 6637 193e
00000010: 7223 843c 77c3 e93d cd28 6f3d fc43 093d
00000020: ea07 b33d f9df 62bd f4e9 c43d 2f83 373e
00000030: d469 523c dc24 343e 94fa 43be 5403 34be
00000040: 74f2 4f3e f159 0cbe 6fb7 9c3d ffd8 fd3c
00000050: 698b c9bd b096 b0bd c11b f83d 702b 473c
00000060: fbb1 87bd 064a cbbd 1962 083e 6251 0b3e
00000070: 9dfe 06bd 230b ab3d ec69 363e d60a c83c
0.0001964621 -0.114445575 -0.13654868 0.14962539 0.016130183 0.11414235 0.05838852 0.0335121
0.08741744 -0.05538938 0.096149355 0.17921136 0.012842614 0.17592186 -0.19138557 -0.17579395
0.20307332 -0.13706185 0.07652175 0.03098726 -0.098410435 -0.08622491 0.12114669 0.012156352
-0.06625744 -0.09926228 0.13318671 0.13605264 -0.032957662 0.083517335 0.17813843 0.02441923

out.weight f4 [1, 32]
00000000: 5e80 31be d4be 963c ffbf b6bd ca7f 08bc
00000010: d126 94bd 2f81 8dbb 4e88 b7bc 66a5 273d
00000020: bd9c f83d 13d9 94bd da0a 593d c369 013e
00000030: 26d5 e1bd 9242 80bc 8d86 b13c 2967 6fbd
00000040: 67ef ee3d 90ff 46bd c2a8 123c 8656 b6bd
00000050: aebb 1c3e 5320 a4bd 9dd9 16be 0180 a1bd
00000060: 4fa2 c13d 8c8b 57bd 4009 873c efec 2bbe
00000070: 3352 48bd bbbe 18be 69f2 aa3d e2f4 e2bd
-0.17334124 0.01840154 -0.08923339 -0.008331249 -0.07233966 -0.0043183784 -0.022403862 0.04092922
0.121392705 -0.07267966 0.052988864 0.12638001 -0.11026983 -0.015656743 0.021670604 -0.05844799
0.11666756 -0.048583567 0.008951368 -0.08903222 0.15305969 -0.08013978 -0.1473145 -0.07885743
0.09454786 -0.052623317 0.016483903 -0.16789602 -0.048906516 -0.14916508 0.08347017 -0.11081864
