rnn_weights_2/weights_16_random_g0.9_relu_flip_flop.pt (torch, 4404 bytes, 6 tensors)

rnn.weight_ih_l0 f4 [16, 2]
000000 47 1a 26 bf 72 2c 5b 3b 35 16 73 3f 07 72 ba bc
       -0.64883846 0.003344324 0.9495576 -0.02275945
000010 9e 6f 3b bc e6 ac 73 bd 47 e8 c6 bc 43 4e 8d 3f
       -0.011440186 -0.05949106 -0.02428068 1.1039509
000020 d3 bc a2 bb 10 58 00 3f 0c 35 95 3f 6e 95 8f 3c
       -0.0049663573 0.5013437 1.1656814 0.017527308
000030 a5 79 18 bd da 61 9e be fd 80 0b 3f dd 0e bf 3d
       -0.037225384 -0.3093403 0.54493695 0.09329007
000040 b2 2d 38 bf 82 f1 b5 bc 2a 94 48 bc 77 39 14 bf
       -0.71944726 -0.022209886 -0.012242356 -0.57900184
000050 ed 66 0b bf 83 5a 4e bc fd af 1e 3f f1 9c 88 3d
       -0.5445393 -0.012594822 0.61987287 0.06670559
000060 81 da 81 3c a0 e0 a4 bf b9 04 48 be fb f9 81 bd
       0.015851261 -1.288105 -0.19533052 -0.06346508
000070 e4 74 d9 bc 9e 49 97 bf a6 c7 55 3b b2 52 85 bf
       -0.026544996 -1.1819341 0.003262022 -1.0415862

rnn.weight_hh_l0 f4 [16, 16]
000000 5f 58 c0 be 5e 9f 81 3b 8f f7 9e 3e 50 1d 22 bd
       -0.37567422 0.0039557656 0.31048247 -0.039578736
000010 1f 37 ff bd cd 1c c8 bd a7 a8 da 3d a4 5a 7c 3e
       -0.124616854 -0.09771118 0.10676699 0.24643952
000020 08 a8 80 be 73 6d 07 3e 44 55 e5 3e ff fe 48 bd
       -0.25128198 0.13225345 0.44791615 -0.04907131
000030 de a7 27 ba f3 88 e6 bc 1a 9c fa bd b9 bc 04 3e
       -0.00063955586 -0.028141474 -0.12236805 0.12962617
000040 f9 4a eb 3e b7 74 c3 bd 4d 9c 9f 3e a6 0f 5d 3d
       0.45955637 -0.09543746 0.31173936 0.05397
000050 62 e7 9a bd 44 38 83 3e f8 7d f0 3e fe 58 89 3d
       -0.07563664 0.25628865 0.46971107 0.06706427
000060 c6 f6 e9 be bb 84 91 be 02 61 21 3d 8a ef 69 3d
       -0.45696086 -0.28421578 0.039399154 0.057113208
000070 b2 e5 e3 bd 70 49 a4 bd 91 b3 0a 3e 89 43 f2 3b
       -0.11127795 -0.080218196 0.13545062 0.0073933047
000080 34 59 64 3e ce ca 86 be 39 03 a3 3d 6b 35 89 3d
       0.22299653 -0.26326603 0.07959599 0.06699642
000090 19 86 b4 bd d1 82 e5 3d 09 e3 d7 3b b7 b5 f5 bc
       -0.088146396 0.11206592 0.006588344 -0.029993875
0000a0 ee b2 74 bc da cb 51 3c 16 52 a0 be 80 a9 46 bf
       -0.014935238 0.01280495 -0.31312627 -0.77602386
0000b0 ac 59 ca 3d c1 20 ea bd d1 b9 43 3d 06 78 3b 3e
       0.09880385 -0.114320286 0.04778463 0.18307504
0000c0 26 7c 41 3e 05 45 92 3d 79 74 c4 bd 7e d7 c7 3c
       0.18895015 0.07142071 -0.09592528 0.024394747
0000d0 05 0b 4e 3e d3 1b 43 be 03 a0 8d 3e 32 bc ce 3e
       0.20121391 -0.19053583 0.27661142 0.40377957
0000e0 ec 18 d8 bd 4e c8 93 be 3f 54 43 be d3 b5 a7 3d
       -0.105516285 -0.28863758 -0.19075106 0.08188977
0000f0 08 fa 0f 3e 44 19 26 3f e7 0f f8 be 7c 9e 3e be
       0.14060223 0.648823 -0.48449633 -0.18615144
000100 90 a4 52 bd da 77 95 be d2 35 9f 3e 61 13 68 be
       -0.05142647 -0.29193002 0.3109575 -0.22663642
000110 fa 8c 57 be d7 64 ab 3e 9b 0c 94 3c d3 e0 2e 3e
       -0.21049872 0.33475372 0.018072417 0.17077951
000120 c3 cb 5e be 0a bf 6d 3e fd 30 14 3e 46 de 23 bd
       -0.21757416 0.23217407 0.14471813 -0.0400069
000130 8c dd 44 be 7c 5b 74 3e d5 f6 b5 3d ab b3 26 3e
       -0.19225138 0.23863024 0.0888497 0.16279475
000140 e7 50 aa 3e 88 70 32 3e f8 4b bf 3c 23 59 53 3d
       0.3326485 0.1742574 0.023351654 0.05159868
000150 da 98 14 be c0 23 7a 3d b8 05 22 3e 86 2b a1 3d
       -0.14511433 0.06106925 0.15822494 0.078696296
000160 f3 93 f3 be fd 61 8e bd 8a 16 f5 3d 1a fd 0a be
       -0.47573814 -0.069522835 0.119671896 -0.13573113
000170 23 42 3b bc 27 00 93 be 09 a8 f7 3c 47 da e0 3c
       -0.011429342 -0.28711054 0.030231493 0.027447833
000180 a4 f4 30 3e 02 a8 29 3e 41 da 5a 3d f8 09 e5 3d
       0.17280823 0.16567996 0.0534308 0.11183542
000190 48 79 c0 3d c6 b4 24 3e 39 36 29 3c 19 14 1b 3e
       0.093981326 0.16084585 0.010327869 0.15144385
0001a0 be b8 19 bf 28 68 80 bd 7f 64 56 3e 9a ab 3d be
       -0.6004752 -0.06269866 0.20936774 -0.18522492
0001b0 2d d5 e2 3d e6 35 e2 3e b8 33 3c bd b4 54 f5 bd
       0.11075816 0.44181746 -0.04594776 -0.119790465
0001c0 21 cc 34 bd 27 f1 98 3e 7c 0f 09 3e f6 29 a0 bc
       -0.044139985 0.29871485 0.13384813 -0.019551259
0001d0 29 78 83 bd 3d 81 e4 bd 49 fa a6 bd 89 c2 e4 bc
       -0.06419403 -0.11157463 -0.08153207 -0.027924793
0001e0 a6 49 64 be d9 99 19 3e ef b3 7b 3d fa 5c 7a be
       -0.2229372 0.15000094 0.061450895 -0.2444953
0001f0 93 37 f5 3b c8 e5 58 3d c6 16 b0 bd 94 76 fd 3c
       0.0074834316 0.05295351 -0.08598094 0.030940332
000200 36 8c 20 3e aa 3f d6 be 67 bb 2a 3e 16 3f f5 3b
       0.15678486 -0.41845447 0.16673051 0.007484327
000210 c6 b9 33 3e f5 ba 87 3d 1b 58 03 bd 62 c3 2a 3e
       0.17551336 0.06627456 -0.032066446 0.16676095
000220 ae a2 e7 3d 58 62 2e bc cf c0 63 be 3a b6 cc 3e
       0.113103256 -0.010643564 -0.2224152 0.39982778
000230 23 b9 a6 3c 48 a4 32 3e 00 8a 22 3d 7e 00 2e 3d
       0.020351952 0.17445481 0.03968239 0.042480938
000240 92 a8 28 3d 7b 97 e2 bc b9 15 15 bd a3 ab aa be
       0.041176386 -0.027660122 -0.03639767 -0.33334073
000250 e9 fc 82 bb 57 a7 21 3d b6 5f 1b be 87 78 ab 3d
       -0.0039974344 0.03946623 -0.1517323 0.08372598
000260 c7 2a 39 3c b3 67 07 3e d4 86 81 3e 38 4f 10 3e
       0.011301703 0.13223152 0.25298178 0.1409272
000270 13 c1 90 bc 73 33 a5 bc 98 d4 93 3d 03 11 36 bd
       -0.01767019 -0.020166134 0.072182834 -0.044449817
000280 af 69 8d 3d 7f 64 0d 3f 62 9d 8d bc d5 8f bc bc
       0.06904923 0.5523147 -0.01728696 -0.023017803
000290 ae 81 f1 bd fa 36 24 bf ec 23 97 3d f5 57 02 3f
       -0.117923126 -0.6414639 0.073798984 0.5091546
0002a0 92 55 06 3d 38 0e 02 3e 22 81 df bc 2d 7f 5e 3d
       0.03279645 0.12700737 -0.027283255 0.054320503
0002b0 69 bd 6d be fe bb 24 3e 77 0e 17 3e 42 da ae 3e
       -0.23216785 0.16087338 0.14751612 0.34150892
0002c0 bd d1 f3 3e ff 49 25 3c 49 ba d5 3e 66 36 27 bb
       0.47620955 0.010088443 0.41743687 -0.0025514602
0002d0 b9 c9 05 bc d1 39 8e 3d 6d e0 2c 3e 95 d2 5c be
       -0.00816577 0.06944621 0.16882487 -0.21564706
0002e0 b1 d1 bb 3e ce 64 94 3d be 37 f8 be 37 9e 44 3e
       0.3668342 0.072457895 -0.48480028 0.19200979
0002f0 cb 27 50 be f2 0d 98 3e 72 4a 8d 3d 4b 10 b6 3d
       -0.2032768 0.2969814 0.06898965 0.088898264
000300 cd dc e4 3c 93 4b 8f 3e d0 96 6d be 1f ab 95 3e
       0.027937317 0.27987346 -0.23202062 0.29232118
000310 f2 ba 58 bd 86 00 45 bd e2 cc 49 be 8c 45 8a 3d
       -0.05291266 -0.048096202 -0.19707063 0.06751546
000320 03 1a 57 3e a4 ff ce bc 22 de 9f bc 83 17 98 be
       0.21006016 -0.025268383 -0.0195151 -0.29705438
000330 10 9f 6b 3e f7 47 78 3e 12 9a 29 be 87 48 98 be
       0.23009896 0.24246202 -0.1656268 -0.29742834
000340 88 de a3 3e a5 80 4b bc e6 e2 12 3e ed 16 3d 3d
       0.32005715 -0.012420808 0.14344367 0.04616444
000350 59 fa 23 3e 4e d9 b0 3d c7 52 a6 be c8 fb 49 be
       0.16013469 0.086351976 -0.3248503 -0.19724953
000360 c3 dc 0b 3e f2 2a 3f 3e e6 12 97 be fb a5 59 3e
       0.13658433 0.18668726 -0.29506606 0.21254723
000370 71 5e 59 3d 7b 12 e6 3d e4 e1 43 bc 9e 4a 06 3d
       0.053068582 0.112339936 -0.011955712 0.032786004
000380 d0 0f 04 3e ce 60 67 3e 16 9f ad be 73 8d 8a be
       0.12896657 0.22595522 -0.33910435 -0.27061042
000390 5a 80 e5 be 24 16 98 bd 7f b0 3e be 20 5c b0 3d
       -0.44824487 -0.07426098 -0.18622015 0.086113214
0003a0 a3 02 12 3e d8 6c 18 3f cb d2 0c 3e 97 ea 12 3e
       0.14258818 0.5954108 0.13752286 0.14347301
0003b0 65 dd 0b bf a6 da 07 3e ae b6 96 3e 7d 2d dd 3e
       -0.54634696 0.13267002 0.2943625 0.43198767
0003c0 5b c8 36 bd c6 30 05 3e 7c c5 76 bd 6d 4e a8 3e
       -0.044624668 0.13006887 -0.06024693 0.32872334
0003d0 3e 16 78 3e 8c 59 0a bd 21 13 f4 bc f1 43 43 bc
       0.24227235 -0.033776805 -0.029794278 -0.011918054
0003e0 5c 97 7a 3d 08 bb 91 be 2e 3d 20 be 0e f8 95 be
       0.061179504 -0.28463006 -0.15648338 -0.29290813
0003f0 ea 61 da 3e 39 86 18 3e 1c 3a 95 be 15 58 d5 be
       0.42652828 0.14894952 -0.29145896 -0.41668764

rnn.bias_ih_l0 f4 [16]
000000 bd 68 24 3e 07 ad b5 bc 4c 28 0a be de 3b 38 3e
       0.1605558 -0.022177232 -0.13491935 0.17991588
000010 2e 70 da 3c 52 17 f0 be d7 db 47 bc 5a 53 d0 3d
       0.02666482 -0.46892792 -0.01219841 0.10172148
000020 30 f5 b2 3d 18 31 08 3d 54 ac 13 be dc f3 15 3e
       0.08738172 0.033249944 -0.14421207 0.14643806
000030 2a f1 1c 3c 98 d7 57 3e d7 0c 13 3e 11 e1 2e be
       0.009578982 0.21078336 0.14360367 -0.17078044

rnn.bias_hh_l0 f4 [16]
000000 89 58 a7 3e 15 f8 61 3e 2b ad 79 be 9a 3e a4 ba
       0.32684734 0.22067292 -0.24382465 -0.0012530864
000010 78 c5 8f be ed 82 55 bd 9f f4 65 3e 84 dc 81 3e
       -0.28080344 -0.052126814 0.22456597 0.25363553
000020 cd 0a ce 3d 2d a7 cf 3d 19 64 5b 3d 04 23 08 bd
       0.10060654 0.10139308 0.053562257 -0.03323652
000030 bc 52 8d 3c b7 fb 59 3e 46 4e 68 3c 49 93 31 be
       0.017251365 0.21287428 0.014178818 -0.17341341

out.weight f4 [2, 16]
000000 b0 aa 30 3e b0 6e db 3f f0 09 8d 3e aa 15 97 bc
       0.17252612 1.7143154 0.27546644 -0.018442947
000010 e5 52 b4 bd f1 4a 9e bf 2c 09 e7 be f6 93 39 3f
       -0.088048734 -1.236662 -0.45124185 0.72491395
000020 fa b4 52 bf 23 32 82 3d 4f ff ab 3c a9 88 04 bf
       -0.823074 0.06357219 0.020995764 -0.51771027
000030 af 76 9f 3d da 66 52 3f 0e c3 6e bd 6c 30 8a bc
       0.07786309 0.8218819 -0.058291487 -0.016868792
000040 6b c7 0f ba 0f 13 93 bd 05 cf 99 bd 41 5a ce 3e
       -0.00054847327 -0.071813695 -0.07510189 0.40303233
000050 95 f3 5d 3f ec c6 29 3d 93 09 77 3d f4 e2 ef 3d
       0.866998 0.041449472 0.060311865 0.1171321
000060 cb e2 76 bd 23 64 dd be 9b ab 17 bc 7f d3 49 bd
       -0.06027488 -0.4324046 -0.0092572225 -0.049273964
000070 4b a7 88 3f c2 67 40 3e fc 60 51 bf 22 dd e6 bf
       1.0676054 0.1878958 -0.8178861 -1.8036234

out.bias f4 [2]
000000 e3 3d 20 bf 4f fa 1e 3e
       -0.6259443 0.15525173
