rnn_weights_2/weights_16_random_g0.9_tanh_integrator.pt (torch, 4286 bytes, 5 tensors)

rnn.weight_ih_l0 f4 [16, 1]
000000 e9 bd 18 3c 0c 71 8c bd ef b6 21 bc 2e 6f ff 3c
       0.009322622 -0.068574995 -0.009870275 0.031180944
000010 a8 c8 7f bd b6 ed c8 bc 9b ad f1 bc 1a 27 fc 3d
       -0.06244722 -0.024527412 -0.029501727 0.123121455
000020 7e 9e cd 3d 93 72 b3 bd b3 00 9d bc db dc 10 3b
       0.100399956 -0.08762088 -0.019165372 0.0022104296
000030 a2 a1 37 bd 62 1b ae 3d cf 7f 57 3e 8c d2 8c 3d
       -0.04483188 0.085013166 0.21044849 0.06876096

rnn.weight_hh_l0 f4 [16, 16]
000000 a1 bc a3 3e 93 45 81 be 0b fb 42 3e de 74 dc 3c
       0.3197985 -0.25248393 0.19041078 0.026911195
000010 0c 6a 63 3e 5a c1 88 3e b6 3d 28 be e3 75 71 bd
       0.22208422 0.26710016 -0.16429791 -0.058950316
000020 57 ea c4 3a 65 16 ba 3e 22 f5 ab be b9 b2 0e 3f
       0.0015023452 0.3634521 -0.3358546 0.5574146
000030 67 2e fe bc 1e d8 70 bd 76 e9 d0 bc c4 d3 d4 bd
       -0.031027986 -0.058799855 -0.025501948 -0.103919536
000040 a9 02 e3 be cd 7d f3 3c 73 83 a1 bd 33 c9 51 3d
       -0.44337967 0.029723072 -0.078864 0.05121727
000050 02 2c 9c be b0 6e 85 be ec 83 4c bd 60 9b 39 be
       -0.30502325 -0.2606101 -0.049930498 -0.18125677
000060 76 bb cf 3c b4 cb 99 3c 93 c5 ce bd 89 b3 03 3e
       0.025357943 0.018773891 -0.10096278 0.12861456
000070 a4 a4 63 3e e1 cd 8e 3e bd 4a 48 be 33 93 3c 3e
       0.22230774 0.27891448 -0.1955976 0.18415527
000080 51 33 e6 3d 35 00 d4 be a3 a0 3d 3e dc d8 59 3e
       0.112402566 -0.41406408 0.1851831 0.21274132
000090 a3 a5 77 3e 57 14 67 3e b3 d0 c0 bd a8 99 cd be
       0.24184279 0.22566353 -0.09414806 -0.40156293
0000a0 bd 83 34 bd fb 7a 54 be 0f 8b 19 3e 6c 0e 89 be
       -0.044070948 -0.20750038 0.14994453 -0.26768816
0000b0 26 50 5c bd 10 7c bf 3d 4d 2c f1 bd a2 ef 5c be
       -0.053787373 0.09349835 -0.11776028 -0.21575788
0000c0 66 34 c6 be dd ba 8d 3d 41 95 72 3d d3 35 fa 3d
       -0.38711852 0.06920407 0.05922437 0.122172974
0000d0 f6 e0 33 3e 15 f5 25 3e 2c 55 e5 bc 07 58 73 3e
       0.17566285 0.16206773 -0.027994715 0.23764049
0000e0 f6 24 fa bd a4 80 88 3d 8c cb 01 bf 17 e2 11 3e
       -0.12214081 0.06665161 -0.5070121 0.14246403
0000f0 72 1c 99 be 45 6b 69 3e 55 b3 05 be 7c 41 6a 3e
       -0.29904515 0.22794826 -0.13056691 0.22876543
000100 06 67 d4 3e 41 5d ed 3d 8c db a0 bd 2e 60 6e 3d
       0.4148485 0.115900524 -0.07854375 0.058197193
000110 a0 4e b2 3e f8 de 2e 3e 5c 3a ee be 5a 6a 7a 3e
       0.3482561 0.17077243 -0.465289 0.24454632
000120 94 32 4d be 36 cc 1c be 43 04 db 3d 53 bd 04 be
       -0.20038825 -0.15312275 0.10694172 -0.12962846
000130 cb 1b 7d 3c 1e 97 b6 be 61 d5 89 3e 43 fe 62 3e
       0.015448521 -0.35662168 0.26920608 0.22167306
000140 98 33 81 bc ab b9 49 be 05 f9 ed 3d ed de 4c be
       -0.015771672 -0.19699733 0.11619762 -0.20006914
000150 7e cb 03 3c 85 c5 d0 3e 70 26 8d 3e 34 b1 b1 be
       0.008044122 0.40775695 0.27568388 -0.34705508
000160 d6 0d c4 bd 76 be 09 bc 58 fd c7 be 63 b0 65 3d
       -0.095729515 -0.008407226 -0.39060473 0.05607642
000170 8d bf 66 3e 19 cc 6f be a3 d1 59 3e cf c9 d1 3d
       0.22534008 -0.23417701 0.21271376 0.1024357
000180 98 75 59 be e6 0b 55 3e 40 c9 01 bf 55 36 52 3d
       -0.21236265 0.2080532 -0.5069771 0.051321346
000190 6a f8 ea bd a6 6f 3f be a4 18 03 be cc 15 73 3d
       -0.114731625 -0.18694934 -0.12802368 0.05934696
0001a0 9c d4 a2 3d 25 e6 86 be d2 f8 46 bd 8e 64 c6 3e
       0.07950708 -0.2634746 -0.048577137 0.38748592
0001b0 1a ea 81 3e ed 79 bd bd 7f d6 8e bd 13 e5 e7 3e
       0.25373918 -0.09251771 -0.06974506 0.45291957
0001c0 77 ce 55 3d 0a 35 17 3e 71 13 96 bd dc c7 91 3e
       0.052198853 0.14766327 -0.07327927 0.28472793
0001d0 60 d7 99 bd 53 b5 a8 be 37 ea af bd 0b fb f0 3e
       -0.07511783 -0.3295084 -0.08589595 0.4706653
0001e0 dd ad 24 bd b6 8e 43 3e 09 8f 98 3e 9d 25 e6 3d
       -0.04020487 0.19097409 0.29796627 0.11237643
0001f0 14 77 5e 3d 70 75 27 3e 2f c4 02 3e e3 eb 45 bc
       0.05431278 0.16353393 0.1277015 -0.012080166
000200 1f 37 c8 be 95 af ea bd 4c bb 0f 3e d9 71 9b 3e
       -0.39104554 -0.11459271 0.14036292 0.30360296
000210 5f 91 12 3d ce 79 af 3d 74 4e 83 3e 0f b5 ee bb
       0.035783168 0.08568154 0.25645792 -0.0072847675
000220 07 dc 60 3e 6d 1f de be 96 1d 92 bd 6d 3f 87 be
       0.21958934 -0.4338335 -0.07134549 -0.26415578
000230 20 f1 70 be dc ed 9b 3d 0b 6e 80 3c 7a 7c 5b 3d
       -0.23529482 0.076137275 0.015677473 0.053585507
000240 7d 24 5c 3c 50 88 66 3d 50 bc 9f 3e 7b 37 28 be
       0.013436434 0.05628234 0.3119836 -0.16427414
000250 2b b1 79 be 34 af 26 3e bc d8 18 be 02 34 ac be
       -0.2438399 0.16277772 -0.14926428 -0.3363343
000260 54 0f b3 3e 8a 6b c0 3d 74 09 b1 bd 99 e3 08 bd
       0.34972632 0.093955114 -0.08644381 -0.03342018
000270 e7 82 f5 bc 51 a0 1f be bb f4 1b be d2 07 3d be
       -0.029969646 -0.155885 -0.15230076 -0.18460014
000280 ff e8 63 bd a5 98 a5 3c a3 aa e2 3e 38 91 62 bd
       -0.055642124 0.020214388 0.4427081 -0.055314273
000290 2c 1d 87 3e 75 49 76 be 8e 6b 26 3e 97 bd f4 be
       0.26389444 -0.24051459 0.16251966 -0.47800896
0002a0 7a d8 6e 3e 81 96 9f 3c 28 9c 96 3d f3 3c 81 bc
       0.23324767 0.019480946 0.07354003 -0.015776133
0002b0 b7 f7 28 bd 29 2d 07 3e e3 61 8a 3e 57 7a a6 3c
       -0.041251864 0.13200821 0.27027807 0.020322008
0002c0 64 bb 60 3d 5f b0 cb bd 72 45 03 be 81 72 8c bd
       0.05486621 -0.099457495 -0.1281946 -0.068577774
0002d0 87 93 f5 3e 55 82 09 3e d6 06 41 3e f2 ff ad be
       0.47964117 0.13428624 0.18850264 -0.33984333
0002e0 40 a3 12 3e 77 cd 82 bd 60 ff 2c 3e 1b 8c 29 3e
       0.14320087 -0.063868456 0.16894293 0.16557352
0002f0 2b ee fb 3d 80 7e c9 3e d2 1f 02 3e e7 e2 3e 3f
       0.12301286 0.39354324 0.12707451 0.74564976
000300 a7 28 17 3f 6f f3 d9 3e 19 7e 68 3d 91 ce b9 be
       0.59046406 0.42568538 0.05676088 -0.3629041
000310 d6 bf b9 3e 5d 15 5d 3e c7 5b b9 be 13 3c f6 bd
       0.36279172 0.2159018 -0.36202833 -0.12023177
000320 1b c8 bc be e1 bf 64 be 92 c6 16 be 1e 51 c7 3e
       -0.36871418 -0.22338821 -0.14724186 0.38929075
000330 79 50 f6 3e da 57 09 3e ec 05 5b bb c3 d3 81 3e
       0.4810827 0.13412419 -0.0033420278 0.25356874
000340 b8 a1 0f be ed 1a 05 3e 63 68 df 3d 15 e9 92 3e
       -0.14026535 0.12998553 0.10908582 0.28693452
000350 99 c9 0c bf 4d 0c a9 3e 24 21 d2 3e 6c 5d 73 3d
       -0.54995114 0.33017197 0.4104091 0.059415266
000360 fe 36 ac 3e f7 9e b9 3e b1 a2 e2 be be 99 16 be
       0.33635706 0.36254093 -0.4426475 -0.14707085
000370 fb 2f b8 3e 73 26 82 be d2 b6 bd 3e 9b b7 b3 3d
       0.35974106 -0.2541996 0.37053543 0.08775254
000380 8c 6b fb be 31 c3 e9 bd 6c d5 33 3e 5f 0d 86 be
       -0.4910549 -0.11414183 0.17561883 -0.26182076
000390 9b ce 6c bd e4 44 05 be 89 16 01 bf 17 73 d2 3b
       -0.05781422 -0.13014561 -0.5042501 0.006422411
0003a0 3e 80 1a be 20 04 cc bd 0b 07 b5 3d 4e e2 08 bf
       -0.15087983 -0.09961724 0.08839234 -0.53470314
0003b0 0b ab 90 3c 22 1b fa 3c f4 aa 21 3d 0b 6e 97 bc
       0.017659685 0.030530516 0.039469674 -0.01848509
0003c0 f2 4c ab 3e 30 39 b9 3d 3d 52 35 be 71 ff eb 3c
       0.33457142 0.09044111 -0.17707153 0.028808327
0003d0 35 13 26 be 75 b6 9e be ed 64 99 3e 2e 40 7e be
       -0.16218264 -0.3099858 0.29959813 -0.2482917
0003e0 58 5e c5 3e df 72 3c be 0d 94 0f 3e 1d 48 95 3e
       0.3854854 -0.18403195 0.1402132 0.2915658
0003f0 09 40 0c be c4 cf 99 3d 1a 93 92 3d 68 5e 8c 3e
       -0.13696302 0.07510331 0.07156964 0.27415776

rnn.bias_ih_l0 f4 [16]
000000 4d bc 4f be fc ee ac 3d 49 03 06 3e 4f f0 49 3e
       -0.20286675 0.0844402 0.1308719 0.19720577
000010 f0 0c 57 be aa d0 d7 bd 64 3e 6a bd 12 c6 0d be
       -0.21001029 -0.105378464 -0.057188407 -0.13845089
000020 3e 61 1c be c7 3a a6 3d f3 36 2c bd df 5d 9e bd
       -0.1527147 0.0811668 -0.04204459 -0.07732748
000030 ef d7 a2 be c0 d6 ac 3d 5b ed b2 bd 65 01 f6 bd
       -0.3180537 0.08439398 -0.08736678 -0.12011985

rnn.bias_hh_l0 f4 [16]
000000 95 16 9f 3d 16 1f 26 bc c4 5d 08 bc 7b b4 13 be
       0.07767979 -0.010139247 -0.008323137 -0.14424317
000010 5a 58 30 be 32 e1 a0 3d b7 2d 65 be 02 13 34 3e
       -0.17221203 0.078554526 -0.2238072 0.17585376
000020 4d e4 86 bd 4d f0 11 3e 61 fd 45 3e 7a 38 98 be
       -0.06586514 0.14251824 0.19334938 -0.29730588
000030 01 b0 20 3d 25 ba d3 bd 03 18 db 3d c7 a1 22 be
       0.03923035 -0.103382386 0.10697939 -0.15882026

out.weight f4 [1, 16]
000000 ef ab 5b be 32 85 ee 3e f8 f2 8d be 6b f1 d5 3e
       -0.21452306 0.46585995 -0.27724433 0.4178575
000010 2d da 0e bf 31 4f fd be 48 11 be 3e b0 ef eb bc
       -0.5580166 -0.4947448 0.3712256 -0.028800815
000020 3a 5a 3f 3e 45 6a bb be f6 e7 5d be d3 29 18 3e
       0.18686762 -0.36604515 -0.21670517 0.14859705
000030 b8 73 15 bf bc 45 e2 3d d2 3f 8e 3c 9e 0e 12 3f
       -0.583797 0.11048457 0.017364416 0.57053554
