rnn_weights_3/weights_16_uniform_g0.1_tanh_integrator.pt (torch, 4296 bytes, 5 tensors)

rnn.weight_ih_l0 f4 [16, 1]
00000000: 0253 fd3c 4165 f93c 8eb2 12bd 6f1e 03bd
00000010: 18b1 85bd f943 0dbe e48b 493d fbb7 d83b
00000020: 8171 47bd 124e ac3d a6e4 633e e541 c9bd
00000030: 36f7 1f3d 73f5 933d dd0b 6ebd f8b6 813b
0.03092337 0.03044379 -0.035814814 -0.032011446 -0.065279186 -0.13795461 0.049205676 0.006613729
-0.04869223 0.08413328 0.22255191 -0.098270215 0.039054118 0.0722455 -0.058116782 0.003958579

rnn.weight_hh_l0 f4 [16, 16]
00000000: 723f be3d 379a 533d ac3a 27bc b7a8 09bc
00000010: b9d9 c63d 6e2f 133e 9566 cabd 651d f03d
00000020: a09c db3d f544 1cbe c8d0 f03d 7797 cd3d
00000030: b265 1d3d 394d 893d f2c5 9f3d 88b5 513d
00000040: c9c4 9b3d f55a ae3b 3167 47bd b75b 0bbd
00000050: b581 e03d 56f6 a73d cc81 b7bd 5fa2 f13d
00000060: 3a33 ba3d aca8 ebbd 9322 323e b22c c83d
00000070: 1d36 883c 4944 c13c be66 ca3d 0749 d43d
00000080: 0045 1bbd e257 b1bd 4ffe e13c bde8 08bd
00000090: fff4 e2bd 65d0 d5bd ea82 b83d c977 0cbe
000000a0: ad38 33bd 5b4f 043e 020a 15be 9892 01be
000000b0: 54fc 9cbd 6105 97bd de77 84bd 5d27 2dbd
000000c0: 3069 ed3c 31de d0bd 081f 9d3c 3703 31bd
000000d0: 25bc e4bd 117b 88bd 1d28 de3d 7115 b1bd
000000e0: 58a8 093d ad37 dd3d 8c57 19be 9dae cabd
000000f0: b06a f8bd 11e1 51bd 2d94 4e3d 8ebc 203d
00000100: d82e 933d 0eff ef38 552d 61bd 6399 0ebd
00000110: bba6 d83d 10c8 bf3d 5054 b1bd d1e5 ee3d
00000120: 8bbc e33d 7200 cbbd 2929 f33d b0f5 993d
00000130: b09c 603c 323d 843d 6a0a c63d 3ac4 c33d
00000140: da78 373d 65ca bf3d d4d6 a63c 53c3 80bb
00000150: 6793 cb3d 3c74 823d 2770 90bd 2b49 a83d
00000160: a5dd b43d 94c0 f1bd 2768 103e de29 af3d
00000170: c989 a23d 6021 913b 443d 443d 5622 503c
00000180: 56d1 d9bc 526c 90bd 3c05 403c b559 033d
00000190: e694 c3bd 671e 49bd 7e04 9b3d a075 a3bd
000001a0: 3e19 0abd 77bc bb3d 4cc8 0fbe fba2 efbd
000001b0: 4882 b3bd 06cb 813c 34ee 1abd ef70 33bd
000001c0: 091d 053d 8b80 d13d ef79 173d 3d3c 343c
000001d0: 2234 f83d d139 a73d 2090 9abd 2255 de3d
000001e0: f64f c53d ca98 babd a34e 243e 0235 033e
000001f0: 97d4 f13d 70c0 aebb 9ef6 043d b764 083c
00000200: b3ba a43d 2f8d 4e3d 99a4 7abc 3884 923c
00000210: 4b16 ea3d 31d5 e93d c685 6fbd fa22 e83d
00000220: 1f96 c83d f1ea d1bd 2875 093e aa42 a33d
00000230: 9240 223d b852 633d 6ccb 9d3d 4568 a03d
00000240: a660 91bd 926e 1abd 15d4 253d 1c2c e13c
00000250: e97a c9bd f8de b1bd 62ef 9b3d 2457 aebd
00000260: eec6 e8bd 6066 bb3d 55cc f3bd 54e3 95bd
00000270: 06e1 31bd fb5a 82bd 206c d1bd 8c7b 87bd
00000280: 3076 3d3d 960d 553d b8d8 1ebd e6dc d4bb
00000290: a62f dd3d 566b bb3d 1759 8abd dd7b 0c3e
000002a0: 8618 d63d 6f38 e3bd 943f 353e 642d f33d
000002b0: 18e6 813c d751 843c 731a d43d cfba 573d
000002c0: df20 863d 06fb f03b a98a 0ebd addc febc
000002d0: d9ed ab3d ba95 9e3d f327 b0bd f9dd f13d
000002e0: 2324 e23d 00e8 e3bd 84f1 e03d 97cf fd3d
000002f0: 35e8 de3c d6e2 793d 3f79 8f3d 8b73 913d
00000300: 7aee 8b3d fa9c ef3c 0bcf 6bbd 862d a1bc
00000310: 2543 8d3d dd02 a53d a2dd 82bd 6deb de3d
00000320: 425f fb3d 5820 fabd 2d51 163e c0e3 a83d
00000330: 9827 4b3c 81d4 c63c b036 c53d 7cb6 8e3d
00000340: 3335 25be 3229 8abd 04ac 453e 8a18 2c3e
00000350: 9c3a 48be 2b5d 1bbe cc0e 033e 9d38 2ebe
00000360: 2da5 93be 7b5a c13e 9fa3 9ebe eeb0 87be
00000370: 0a65 a5bd ac60 a43d 567f 68be 3b6b 55be
00000380: 3223 b23d fa55 9f3c af8a e8bc 3f8d 3bba
00000390: 096f ec3d 6f91 9a3d e576 69bd da83 ec3d
000003a0: d114 f83d 63df 1ebe f3b8 ea3d 45e4 fb3d
000003b0: e212 103d dead 673d 3a0c 9f3d f862 643d
000003c0: c264 a53d 888e 5b3d 2686 27bd 7907 463c
000003d0: bb97 fb3d 2fc0 c93d 838e b8bd a0ca 033e
000003e0: 0500 b73d db0c dabd 9797 003e 751a f83d
000003f0: 6c9c 523d 8a98 953d 1ccd b63d d10e 613d
0.09289445 0.051660743 -0.01020686 -0.008402041 0.09709496 0.14373562 -0.09882847 0.117243566
0.10723233 -0.1526068 0.11758572 0.10038655 0.038427062 0.06704182 0.07801427 0.051198512
0.07605893 0.0053209015 -0.048682395 -0.034023013 0.1096224 0.08201282 -0.08960304 0.11798548
0.09091802 -0.11506781 0.17396002 0.0977415 0.016627366 0.023592131 0.09882878 0.10365491
-0.0379076 -0.086593404 0.027587084 -0.03342508 -0.110818855 -0.10440139 0.09009345 -0.1371757
-0.043755222 0.12920897 -0.14554599 -0.12653577 -0.07665315 -0.07374073 -0.06468175 -0.042273868
0.028980821 -0.1019863 0.019179836 -0.043215957 -0.11168698 -0.06664098 0.10847495 -0.08646668
0.03360781 0.10801635 -0.14974803 -0.09896586 -0.12129724 -0.05124003 0.05043428 0.03924232
0.07186669 0.00011443916 -0.054974873 -0.03481425 0.10578676 0.09364331 -0.086586595 0.11664928
0.11119946 -0.09912194 0.11873085 0.07517564 0.013709232 0.064569846 0.09669955 0.095589116
0.044792987 0.093647756 0.02036611 -0.0039295345 0.09940224 0.06369826 -0.07052641 0.08217081
0.08831338 -0.118043095 0.14102231 0.085529074 0.07936437 0.0044290274 0.04790999 0.012703499
-0.026589077 -0.070519105 0.011719998 0.032067973 -0.095498845 -0.04910126 0.07569216 -0.079814196
-0.03371548 0.09166806 -0.14041251 -0.11701008 -0.087650836 0.01584388 -0.037824824 -0.043808874
0.032498393 0.10229596 0.03698152 0.01100069 0.121193185 0.081653245 -0.07547021 0.108560815
0.09634392 -0.091111735 0.16045623 0.1281319 0.118081264 -0.005332999 0.032461755 0.008324794
0.080434225 0.050427612 -0.015298032 0.017885312 0.11430033 0.11417616 -0.058477186 0.11334796
0.09794258 -0.1024989 0.13423598 0.079716995 0.03961236 0.05549881 0.07704815 0.07832388
-0.07098512 -0.037703104 0.04048546 0.027486853 -0.098378964 -0.08685106 0.07614018 -0.085127145
-0.11366068 0.09150386 -0.119042076 -0.0731875 -0.04342749 -0.063650094 -0.10225701 -0.066153616
0.04625529 0.05201491 -0.038780898 -0.0064960597 0.10800104 0.09151332 -0.06755274 0.13719125
0.10453896 -0.11094748 0.17700034 0.11873892 0.015856788 0.016152306 0.10356607 0.05266839
0.065492384 0.007354143 -0.034800205 -0.031111086 0.08394975 0.07743402 -0.0860137 0.11809916
0.11042049 -0.11128235 0.109835654 0.1239311 0.027210334 0.061007343 0.07005548 0.07102116
0.06832595 0.029249657 -0.0575705 -0.019675028 0.068975724 0.08057187 -0.06389929 0.10884748
0.12274028 -0.122132 0.14679404 0.08246565 0.012399577 0.024271252 0.096295714 0.069684
-0.16133575 -0.06746139 0.193039 0.16806236 -0.19553608 -0.1517226 0.12798613 -0.17013784
-0.28836957 0.37764344 -0.30984208 -0.26502174 -0.08075912 0.08026251 -0.22704825 -0.20841686
0.08698119 0.019450177 -0.028386442 -0.0007154531 0.11544616 0.075472705 -0.056998152 0.11548586
0.121133454 -0.15514903 0.114610575 0.12299398 0.035174258 0.056562297 0.07766004 0.055758446
0.08075859 0.053602725 -0.04089942 0.012086743 0.122848 0.09851109 -0.09011557 0.12870264
0.089355506 -0.10646983 0.12557827 0.12114421 0.051418707 0.07304485 0.0892584 0.05494577

rnn.bias_ih_l0 f4 [16]
00000000: f742 68be 62b2 263e 57c0 4b3b baca 0c3c
00000010: 072b 963d 23ec a43c 0867 e93d f482 33be
00000020: 2beb 09be 1cc5 253b 6daf 44be 0643 11be
00000030: 925b 023e aea1 8fbd 3457 00be 7291 62be
-0.22681795 0.16278985 0.0031089985 0.008593256 0.073324256 0.02013213 0.11396605 -0.17530423
-0.13468616 0.0025294488 -0.19207545 -0.14185724 0.12730244 -0.0701326 -0.12533265 -0.22125795

rnn.bias_hh_l0 f4 [16]
00000000: c323 8abd 4142 8c3d 1497 873d c244 dd3d
00000010: 640e 3c3d 1dd6 723d 87a2 40be 4875 593e
00000020: 9488 9bbc f336 63bd 3971 583e 188a 5b3e
00000030: 3206 d93c 1efd e9bc 087f 86bd 722d 84bb
-0.06745102 0.068485744 0.06620613 0.1080413 0.04591216 0.059286226 -0.18812 0.21236145
-0.018986024 -0.055472326 0.21136941 0.21439397 0.026492212 -0.028563078 -0.06567198 -0.004033738

out.weight f4 [1, 16]
00000000: 6b41 b4be 5bb2 ffbe e8cd 483f 47c7 1b3f
00000010: 2c81 3ebf 534e eabe 6e7c c73e 0a77 0bbf
00000020: 617f 20bf 5622 693f d0f3 54bf 4171 60bf
00000030: 0dca eabe f12d 9c3e 0e73 24bf 1535 0ebf
-0.3520616 -0.49940762 0.7843919 0.6085095 -0.7441585 -0.45762882 0.3896212 -0.54478514
-0.62694365 0.9106802 -0.8318453 -0.8767281 -0.45857278 0.305038 -0.6423806 -0.55549747
