rnn_weights_3/weights_256_uniform_g0.5_relu_flip_flop.pt (torch, 271304 bytes, 6 tensors)

rnn.weight_ih_l0 f4 [256, 2]
0	0x3dcfdd28	0.10149604
1	0xbd806953	-0.06270089
2	0x3cb382ed	0.021913016
3	0x3cc5dfb4	0.024154522
4	0x3b1eda1d	0.0024238892
5	0x3e4250c2	0.18976119
6	0xbe0202f4	-0.12696439
7	0xbdd325ca	-0.10309942
8	0x3d383142	0.04496885
9	0x3b9d98d9	0.0048094806
10	0xb91ef077	-0.00015157634
11	0xbf692467	-0.9107117
12	0xbebeb9d2	-0.37251145
13	0xbd1fd605	-0.039022464
14	0x3e0769e3	0.13223986
15	0xbdc9a37f	-0.098456375
16	0xbe8fce95	-0.28087297
17	0xbd2b1a06	-0.041772865
18	0xbe8ef556	-0.2792155
19	0xbd6a5d6e	-0.057218008
20	0x3cf5aabf	0.029988645
21	0xbc86389e	-0.016384419
22	0xbcc505b0	-0.024050564
23	0xbcec49b2	-0.028843734
24	0x3c926da5	0.017874548
25	0x3d4b1b20	0.049586415
26	0xbe89ad65	-0.26890102
27	0x3cc8fba4	0.024534054
28	0xbc46c156	-0.012131056
29	0x3d674ca2	0.056469567
30	0xbcef0c55	-0.029180685
31	0xbe3209bc	-0.17386526
32	0x3d84296f	0.06453215
33	0x3e0cc40c	0.13746661
34	0xbc8e5bf2	-0.017377827
35	0x3e568482	0.20948985
36	0x3d115c17	0.035488214
37	0x3cff5a73	0.03117106
38	0x3d2298e4	0.03969659
39	0x3d1a1a95	0.037623007
40	0xbc5d7a53	-0.013517934
41	0x3c596b8a	0.013270268
42	0x3dd59648	0.104290545
43	0x3cce088f	0.025150565
44	0x3ca79f5b	0.020461729
45	0x3e497cb7	0.19676481
46	0x3d049c9a	0.03237591
47	0x3ecb171d	0.39666072
48	0x3c3a2d61	0.011363358
49	0x3a9b7b6b	0.0011862343
50	0xbdeabbc6	-0.11461596
51	0x3d145418	0.03621301
52	0x3d13c8eb	0.036080282
53	0x3e4a02a1	0.19727565
54	0xbd03eeb7	-0.032210078
55	0xbc0e08e7	-0.008669115
56	0xbc58db52	-0.013235884
57	0xbe93e500	-0.2888565
58	0xbd26b1eb	-0.04069702
59	0x3d2d7cba	0.042355277
60	0x3d8005a6	0.06251077
61	0xbd18e719	-0.037329767
62	0xbda1b391	-0.07895578
63	0x3e33ef9b	0.17571871
64	0xbc07c5b3	-0.008286881
65	0x3dd22ca3	0.1026242
66	0xbdf8d242	-0.121494785
67	0xbba6f2a8	-0.005094845
68	0x3d5877be	0.05284857
69	0xbcbde59c	-0.023180775
70	0xbe3d08d8	-0.18460405
71	0x3cdbf748	0.026851311
72	0x3d94a05e	0.0725715
73	0xbc1a962b	-0.009435217
74	0x3c6b7f0b	0.014373551
75	0x3d946744	0.07246259
76	0x3e8ed7ba	0.2789896
77	0x3d945a75	0.07243816
78	0xbd80d078	-0.06289762
79	0xbd410e09	-0.047132526
80	0xbd620a70	-0.055185735
81	0x3e3b0abf	0.18265818
82	0x3dc232c0	0.09482336
83	0x3d0fdde3	0.035123717
84	0x3d7e00ee	0.062012605
85	0x3daff73f	0.0859208
86	0xbdc47bbb	-0.09593912
87	0x3dce3b0f	0.10069858
88	0x3dd815a8	0.105510056
89	0xbd6ed6d4	-0.058310345
90	0xbe817431	-0.2528396
91	0xba4029ec	-0.00073304656
92	0x3c88bd88	0.016691938
93	0xbd240d62	-0.040051825
94	0xbe23fb52	-0.1601384
95	0x3c875e79	0.01652454
96	0xbd9e7605	-0.07737354
97	0x3c779bc0	0.015112817
98	0xbd62a95d	-0.0553373
99	0xbd8678e3	-0.06566026
100	0xbcf3262d	-0.02968129
101	0xbbc30bb0	-0.005952321
102	0x3e0b709c	0.13617176
103	0xbc556c8a	-0.013026366
104	0x3d4b980c	0.04970555
105	0xbe854b76	-0.26034135
106	0x3cfd9abc	0.030957572
107	0xbbb60b87	-0.0055555734
108	0xbe50d234	-0.20392686
109	0xbd09fe94	-0.03369005
110	0x3c3ec22a	0.011642972
111	0xbd41c076	-0.047302686
112	0x3dc3de1b	0.09563848
113	0x3c065be2	0.0082006175
114	0xbced4cc3	-0.028967267
115	0xbe89816b	-0.2685655
116	0xba914bf6	-0.001108526
117	0xbc02f1ba	-0.007992202
118	0xbaebf336	-0.001800156
119	0x3c2d627e	0.010582564
120	0x3d6a5ed2	0.057219334
121	0xbd546b7a	-0.05186031
122	0xbcb43794	-0.021999158
123	0xbda3f511	-0.08005727
124	0xbdb09e67	-0.08623963
125	0x3c97a3d1	0.018510731
126	0xbd57e8f0	-0.05271238
127	0x3c3d91dd	0.011570421
128	0xbd02baea	-0.031916536
129	0x3d1c70c6	0.038193487
130	0xbdfdb192	-0.123873845
131	0xbd861ac9	-0.065480776
132	0xba13812b	-0.00056268525
133	0x3e85a8ab	0.26105246
134	0x3db3c4cb	0.0877777
135	0xbc6a0699	-0.0142838
136	0xbe9adf72	-0.302486
137	0xbbdf79f0	-0.006819956
138	0x3d221882	0.039574154
139	0xbc916b80	-0.017751455
140	0x3e005845	0.12533672
141	0xbba54325	-0.0050434046
142	0x39b3a10f	0.00034261539
143	0x3d64ba15	0.055841524
144	0xbc859098	-0.0163043
145	0xbe3c7ed3	-0.18407755
146	0xbde8ec63	-0.11373212
147	0x3c252cdf	0.010081499
148	0xbdafd968	-0.08586389
149	0x3d0607ec	0.0327224
150	0xbd5ecf7e	-0.0543971
151	0x3e8d4069	0.27588204
152	0xbc8d0678	-0.017214999
153	0x3da466cc	0.080274194
154	0xbca305e9	-0.01990028
155	0xbe5a9dd7	-0.21349274
156	0xbd100d4d	-0.035168935
157	0x3cc6e838	0.024280652
158	0x3d06000c	0.03271489
159	0xbd5d8916	-0.054085813
160	0x3d15a442	0.0365336
161	0xbcb9dad9	-0.022687363
162	0xbd22d3ee	-0.039752893
163	0xbaf0f7b4	-0.0018384368
164	0xbc974a89	-0.018468158
165	0x3e06e5ec	0.13173646
166	0xbd3a8078	-0.045532674
167	0xbbeb31b5	-0.0071775564
168	0x3b318cc0	0.002709195
169	0x3cc28b8f	0.023748187
170	0xbd722723	-0.059119355
171	0xbcbe53c6	-0.023233306
172	0xbc9e9401	-0.019357683
173	0xbea7a44a	-0.3274253
174	0xbd098265	-0.03357162
175	0xbe927675	-0.28606
176	0xbdbe6192	-0.09295954
177	0x3d361b0c	0.044459388
178	0x3c90674d	0.017627383
179	0xbc7cadbc	-0.015422281
180	0x3b84775f	0.0040425505
181	0x3e98e5e8	0.29862905
182	0x39c4fc6e	0.00037572108
183	0xbcafa5a9	-0.021441298
184	0x3e1cfb32	0.15330198
185	0xbc02e479	-0.007989042
186	0x3d5af6d3	0.053458046
187	0x3caf1831	0.02137384
188	0xbd836a63	-0.06416776
189	0xbdcb91c2	-0.099399105
190	0xbd635674	-0.05550237
191	0x3dfbbe7f	0.122921936
192	0x3d605b7c	0.054774746
193	0xbe5f3031	-0.21795727
194	0xbe4605fa	-0.19338217
195	0x3d0c4d8c	0.034253642
196	0xbd1c1980	-0.038110256
197	0xbdde8df9	-0.10866923
198	0x3d0afcb2	0.033932395
199	0x3c1b5de8	0.009482838
200	0xbf78c94c	-0.97182155
201	0xba12ce70	-0.00056002196
202	0x3d8ce663	0.0687988
203	0xbe93b2af	-0.28847262
204	0xbea3d3b4	-0.31997454
205	0x3d26601e	0.04061901
206	0x3e1a7c4e	0.15086481
207	0xbd2a4a1e	-0.04157459
208	0x3b6d3ad1	0.0036198387
209	0xbc928f59	-0.01789062
210	0x3d142283	0.036165725
211	0x3c4dc73d	0.012559709
212	0x3cc14abf	0.023595212
213	0xbd3b1118	-0.0456706
214	0x3dafed71	0.0859021
215	0x3e81b396	0.25332326
216	0xbe68994e	-0.22714731
217	0xbc86852f	-0.016420929
218	0xbe786135	-0.24255832
219	0x3bd5155f	0.006502792
220	0x3dc3c08a	0.09558208
221	0xbd5b67b1	-0.053565685
222	0x3db9bdcd	0.09069405
223	0xbdba3e27	-0.09093886
224	0x3e0611c3	0.13092713
225	0x3b2f4ff9	0.0026750548
226	0xbe00ee78	-0.12590969
227	0x3b44d69f	0.003003515
228	0xbcb029dc	-0.021504335
229	0xbe86a2bc	-0.2629603
230	0x3dc33d77	0.09533208
231	0x3dd5aab3	0.10432949
232	0x3df3fa08	0.11912924
233	0x3eb0dd8e	0.34544033
234	0x3d34c63e	0.04413437
235	0xbd8e8069	-0.06958086
236	0xbd3824e2	-0.04495705
237	0xbd28b556	-0.04118856
238	0xbcfcd1bc	-0.030861728
239	0x3cb0d8c5	0.021587739
240	0x3c815476	0.015787344
241	0x3ea5149a	0.3224228
242	0x3dd2df9a	0.10296555
243	0xbc8c53c4	-0.017129786
244	0x3c3103c6	0.010804122
245	0x3a146c59	0.0005661897
246	0x3b622a4b	0.0034510072
247	0x3ca6e909	0.020374792
248	0x3d95e697	0.07319372
249	0x3e349353	0.17634325
250	0x3c885ff1	0.01664731
251	0x3c60230e	0.013680233
252	0xbe503a9a	-0.20334855
253	0xb90ac367	-0.00013233499
254	0xbe2f7ffb	-0.17138664
255	0x3dbc64b0	0.09198892

rnn.weight_hh_l0 f4 [256, 256]
0	0xbbfd1817	-0.007723819
1	0x3cd9a439	0.026567565
2	0xbb9167cd	-0.004437423
3	0xbcb97761	-0.022639932
4	0xbcd0d4cc	-0.025492094
5	0xbbc1fcf3	-0.0059200465
6	0x3d3ffef2	0.046873994
7	0xbcf15c1f	-0.029462872
8	0xbbe1823d	-0.0068819807
9	0x3c3a14d5	0.011357506
10	0x3c20dae0	0.009817809
11	0x3ba6c73c	0.0050896686
12	0xbc949faf	-0.01814255
13	0x3c4e5229	0.012592831
14	0x3d661b4b	0.056178372
15	0xbd0e9215	-0.034807283
16	0x3b1a1f29	0.0023517108
17	0xbbda9b30	-0.006671332
18	0xbc8081f8	-0.015686974
19	0x3ca2c301	0.019868376
20	0x3c31fa80	0.0108629465
21	0x3adfdfe8	0.0017080279
22	0x3bafb0b7	0.005361642
23	0x3cb79815	0.022411386
24	0x3bcf03e4	0.0063176025
25	0xbc0ac2a6	-0.008469259
26	0x3ca284eb	0.01983877
27	0x3cb86447	0.022508753
28	0x3c97a7c4	0.018512614
29	0xbc2f8e22	-0.010715039
30	0x3c989671	0.018626424
31	0x3d34c1b1	0.04413003
32	0x3c963ef9	0.018340575
33	0x3cef0b22	0.029180113
34	0x3cee8634	0.029116727
35	0xbc616963	-0.013758036
36	0x3ce759b5	0.028241018
37	0xbc987517	-0.01861052
38	0x3c22a3d9	0.00992676
39	0xbcdcfbf8	-0.026975617
40	0x3cff2f45	0.03115047
41	0x3b7354af	0.0037129333
42	0x3c840acf	0.016118435
43	0xbbc30f9f	-0.00595279
44	0x3c6c922b	0.014439146
45	0xbcdf7b58	-0.027280495
46	0xbbffa55f	-0.007801696
47	0x3bdddfeb	0.006771078
48	0xbc8d7d8d	-0.017271781
49	0x3c7c55c7	0.01540131
50	0x3b660ffe	0.0035104747
51	0xbbec3581	-0.0072085266
52	0x3cacc55c	0.021090202
53	0x3d426896	0.047463022
54	0x3bd15946	0.006388816
55	0x3babe1f9	0.005245444
56	0x3d0ba940	0.034096956
57	0x3c8be844	0.017078526
58	0xbcb3bea6	-0.021941494
59	0x3c804c49	0.015661376
60	0x3dafb7ce	0.0857998
61	0x3ab9c5d9	0.0014173343
62	0x3d2d6bbc	0.04233907
63	0x3c3bc9dc	0.011461701
64	0x3cd0067e	0.02539372
65	0xbcbf0f65	-0.02332277
66	0x3d13909a	0.036026575
67	0x3c3e0211	0.011597172
68	0xbbaee411	-0.005337246
69	0x3cb460d5	0.02201883
70	0xbcf73616	-0.030177157
71	0x3bb44273	0.0055010854
72	0xbd14886b	-0.03626291
73	0xbc822b9a	-0.015889931
74	0x3cc58cb6	0.024114948
75	0xbb5c2a83	-0.0033594675
76	0x3c5b2454	0.0133753605
77	0xbc1936de	-0.00935146
78	0xbbc9a13a	-0.006153253
79	0xbc8b5ea3	-0.0170129
80	0xbbec8434	-0.0072179083
81	0x3d5814a7	0.05275407
82	0x3c85636c	0.01628276
83	0x3c84c7f2	0.016208623
84	0x3be45af7	0.0069688517
85	0x3c86f636	0.016474824
86	0xb9ebc3b1	-0.00044968494
87	0xbc947292	-0.018121038
88	0x3c7c84ff	0.015412568
89	0x3cb8ac74	0.02254317
90	0xbc9e3f0c	-0.019317172
91	0x3c7503e3	0.01495454
92	0x39566b63	0.00020448635
93	0x3c149067	0.009067631
94	0x3c981c4d	0.018568182
95	0xbc0b6ad5	-0.008509357
96	0xbc81f7c3	-0.015865212
97	0x3c9f1f78	0.019424185
98	0x3d28a0ee	0.0411691
99	0x3ce174f7	0.027521593
100	0x3d7c46c3	0.06159092
101	0x3cc1a864	0.023639865
102	0xbcf22249	-0.029557364
103	0xbd406b4c	-0.046977326
104	0x3c8944be	0.016756412
105	0x3a3b5c9c	0.0007147284
106	0xbd3b4210	-0.0457173
107	0xbba4dc62	-0.0050311545
108	0x3857de7a	5.1467192e-05
109	0x3a2b173c	0.00065265945
110	0xbb90777e	-0.004408776
111	0xbc0b586b	-0.008504967
112	0x3cb21b23	0.021741455
113	0x3d0ba74b	0.03409509
114	0xbbea468d	-0.0071495236
115	0x3cc57552	0.024103794
116	0xbe425768	-0.18978655
117	0xbac34cbc	-0.0014900188
118	0xbce77af0	-0.028256863
119	0x3caf28d5	0.021381775
120	0x3cc8b473	0.024500107
121	0x3c3ec191	0.0116428295
122	0x3d57008d	0.05249076
123	0x3c2f74c4	0.010708991
124	0x3cc719d3	0.024304306
125	0x3b46c377	0.0030328908
126	0x3d39c85a	0.045357086
127	0x3ce80dc6	0.02832688
128	0x3b060577	0.0020450035
129	0x3cb88774	0.022525527
130	0xbcb7e577	-0.022448285
131	0xbb92e07d	-0.0044823275
132	0x3cb3f675	0.021968106
133	0x3bed9cbe	0.007251351
134	0x3cdb47ae	0.026767578
135	0x3add95eb	0.0016905641
136	0x3d271816	0.040794455
137	0x3cf1cee7	0.029517604
138	0xbbcd5482	-0.0062661776
139	0x3daf4dd0	0.085597634
140	0x3d569b53	0.052394222
141	0x3cdf0829	0.02722557
142	0xbcd97764	-0.026546188
143	0x3c8e0b99	0.017339515
144	0x3cd715c3	0.026255494
145	0xbac1ea0e	-0.0014794485
146	0xbae35e39	-0.0017346806
147	0xbbf3588c	-0.007426327
148	0xbcb53809	-0.022121446
149	0xbbdce39b	-0.006741
150	0x3cf2cc2d	0.029638374
151	0x3ccf5890	0.025310785
152	0x3c945dc9	0.018111126
153	0x3cde3b5b	0.027127912
154	0x3d116d35	0.03550454
155	0x3d1bb521	0.038014535
156	0x3cb35a5f	0.021893678
157	0xbc9f2bda	-0.01943009
158	0x3d83b0e3	0.06430223
159	0x3c845d85	0.016157875
160	0x3cb8d5cd	0.022562886
161	0xbcaadf11	-0.02085832
162	0xbcfaed8f	-0.030630855
163	0xbd463ad1	-0.048395935
164	0x3c80ad35	0.015707592
165	0x3c973821	0.018459382
166	0xbcf6602a	-0.030075151
167	0x3cf250b3	0.029579496
168	0xbcc592f8	-0.024117932
169	0x3c8cbda3	0.01718027
170	0x3cb59ac0	0.022168517
171	0x3d123c47	0.035702016
172	0x3b7967d1	0.0038056264
173	0xbd0789d6	-0.033090435
174	0x3c1b8e66	0.0094944
175	0x3c3039f1	0.010756002
176	0x3b84663e	0.0040405085
177	0x3b760d9e	0.0037544738
178	0x3c463ab6	0.012098959
179	0xbc861b5c	-0.016370468
180	0xbc05eb76	-0.008173814
181	0xbc294da2	-0.0103334505
182	0xba4a8100	-0.0007724911
183	0x3d00e22f	0.031465705
184	0x3cef918b	0.029244205
185	0xbcd2a78e	-0.025714662
186	0xbb8a2315	-0.004215608
187	0x3d73b300	0.05949688
188	0x3b59dcbf	0.0033243147
189	0x3b94e39c	0.0045437347
190	0xbb1dd8f2	-0.0024085608
191	0x3c54d6a4	0.012990627
192	0x3cc2cadf	0.023778377
193	0x3afcacc2	0.001927756
194	0xb9db3fed	-0.00041818563
195	0xbc0f44fb	-0.008744474
196	0x3ca81584	0.020518072
197	0xbc24fbe5	-0.010069822
198	0xbcaa3729	-0.020778256
199	0x3c2324be	0.0099574905
200	0x3c1802d7	0.009278021
201	0xbd374561	-0.0447439
202	0xbc58b840	-0.013227522
203	0x3c56a2a7	0.013100303
204	0x3c95dcfc	0.01829385
205	0xbcbc3a6e	-0.02297708
206	0xbccd432b	-0.025056442
207	0xbc3cfc1c	-0.011534717
208	0x3c1244dc	0.00892755
209	0xbc95daff	-0.018292902
210	0x3d1d8934	0.038460925
211	0x3bc38519	0.005966794
212	0x3ba21d95	0.004947374
213	0x3d13f9d6	0.036126934
214	0x3a719b77	0.00092165865
215	0x3c336fc5	0.010951941
216	0x3c691ce4	0.0142280795
217	0x3caf7274	0.02141688
218	0x3c0638d8	0.008192264
219	0x3c1ad67b	0.00945055
220	0x3b9182b7	0.0044406313
221	0xbcaded93	-0.021231448
222	0xbc8dba53	-0.01730076
223	0x3b28a72a	0.0025734403
224	0xbba1d5c2	-0.004938812
225	0x3cce0a1b	0.025151303
226	0x3a3b3520	0.00071414
227	0x3c9de174	0.019272543
228	0x3a7653ea	0.00093966594
229	0xb9f1e698	-0.00046138908
230	0x3b7b457e	0.003834098
231	0x3aa3de81	0.0012502224
232	0x3b91e137	0.0044518965
233	0x3c541555	0.012944539
234	0xbc1166b1	-0.008874581
235	0xbcc4aa54	-0.024007
236	0x3c30b561	0.010785432
237	0xbb1298ef	-0.0022368988
238	0x3b21740e	0.0024635824
239	0xbbdfedf4	-0.006833786
240	0xbbc2e3e6	-0.0059475778
241	0xbcad30b8	-0.021141395
242	0xbbebbc9f	-0.0071941162
243	0x3cbc07be	0.02295291
244	0xbe32d131	-0.17462613
245	0xbce3da47	-0.027814044
246	0xb9975aed	-0.0002886871
247	0x3c4dfb24	0.012572084
248	0xbbbc2c6a	-0.0057425993
249	0x3d1324c8	0.03592375
250	0x3cb9e541	0.022692325
251	0xbbad7e64	-0.005294608
252	0x3ce0a135	0.02742062
253	0x3ca39b24	0.019971438
254	0xbc55794b	-0.013029407
255	0x3ad427b0	0.0016186144

rnn.bias_ih_l0 f4 [256]
0	0xbd475801	-0.04866791
1	0x3d680af5	0.056651074
2	0x3c1c643e	0.009545384
3	0x3b941225	0.0045187646
4	0x3c61a890	0.013773099
5	0xbdefda7c	-0.117115945
6	0x3da6529b	0.081212245
7	0x3ce2d8bc	0.027691238
8	0x3d3f1590	0.046651423
9	0x3c421d74	0.0118478425
10	0xbcadef4d	-0.021232272
11	0xbd830a36	-0.06398432
12	0x3c8503d5	0.016237179
13	0x3c3b59b5	0.011434962
14	0x3d3dd9a0	0.04635012
15	0x3d07d627	0.033163216
16	0xbd216185	-0.039399642
17	0x3d69297c	0.05692433
18	0xbcd3bf38	-0.025848016
19	0x3cc6cab1	0.024266573
20	0xbd5ddda9	-0.05416647
21	0x3bf9ae2b	0.0076196394
22	0xbd12ec33	-0.03586979
23	0x3d94d0f0	0.07266414
24	0x3cececfe	0.0289216
25	0x3c917ce2	0.017759744
26	0xbcfaa8bc	-0.030598037
27	0x3d488168	0.048951536
28	0x3bc041a5	0.0058672004
29	0x3d532690	0.051550448
30	0x3ccb87a0	0.024844944
31	0x3da78ede	0.08181547
32	0xbcb36374	-0.021898009
33	0xbd75a523	-0.05997194
34	0xbced9a88	-0.02900435
35	0xbd2130ef	-0.039353307
36	0x3d620a70	0.055185735
37	0xbba718bf	-0.0050993855
38	0xbd8beb14	-0.06831947
39	0x3cfcd64c	0.030863903
40	0x3d993a35	0.07481805
41	0x3d8e0c1f	0.06935906
42	0xbd457267	-0.048204806
43	0xbd69d600	-0.057088852
44	0x3ce7b1c9	0.028283017
45	0x3d56dbb0	0.052455604
46	0xbd546ea4	-0.051863328
47	0x3cfe365f	0.031031786
48	0x3bfc6987	0.0077030095
49	0x3cca41ab	0.024689516
50	0x3d2c5948	0.042077333
51	0xba6b0f1c	-0.000896679
52	0x3cbb1886	0.022838842
53	0x3b484773	0.0030560165
54	0x3cc808c4	0.024418242
55	0xbb6e5a28	-0.0036369655
56	0x3d16277b	0.036658745
57	0x3d077509	0.033070598
58	0xbd682137	-0.0566723
59	0x3cb20031	0.021728607
60	0x3d08fb3d	0.033442724
61	0x3d51f2ea	0.05125705
62	0x3bd6c5c2	0.0065543363
63	0x3d73e3ca	0.05954341
64	0xba9ba696	-0.0011875208
65	0x3d6400a0	0.05566466
66	0x3d2de422	0.042453893
67	0x3d80266b	0.06257328
68	0x3970d21e	0.00022966458
69	0xbd94421c	-0.07239172
70	0x3d583cfc	0.052792534
71	0xbd603705	-0.05473997
72	0x3c51d8e9	0.012808063
73	0x3cb20ef2	0.021735642
74	0xbb75e405	-0.0037519943
75	0x3d32ea13	0.04368026
76	0x3c94a8d6	0.018146913
77	0xbc4fa20d	-0.012672913
78	0xbdb5a24e	-0.08868848
79	0xbd64640e	-0.055759482
80	0xbd6410ac	-0.055679962
81	0x3d6eff9d	0.05834924
82	0x3c17ef77	0.009273401
83	0x3c8415d7	0.016123695
84	0x3c3c3440	0.011487067
85	0xbcf1810f	-0.029480485
86	0xba16497f	-0.00057329977
87	0xbd47dc0a	-0.04879383
88	0xbcaeff82	-0.02136207
89	0xbc69906a	-0.014255622
90	0xbd33b2fb	-0.04387186
91	0xbd26d2eb	-0.04072849
92	0xbc7d6842	-0.0154667515
93	0x3b6aa869	0.0035805947
94	0xbd2bc7a2	-0.04193843
95	0x3d8444d6	0.06458442
96	0xbdbcc3ad	-0.0921701
97	0x3dd40669	0.10352785
98	0x3ad4663d	0.0016204786
99	0x3d8a08d8	0.06739968
100	0xbdce5c61	-0.10076214
101	0x3d88e2a9	0.06683857
102	0xbbb113bc	-0.005403964
103	0x3d3acd1d	0.045605768
104	0xbd662c86	-0.056194805
105	0xbd7a7a91	-0.061152045
106	0xbc959328	-0.018258646
107	0xbd7bf0d6	-0.061508976
108	0xbc29b640	-0.010358393
109	0xbb9a0a9f	-0.004700973
110	0x3d6fc081	0.058533195
111	0x3ce99b38	0.028516397
112	0x3b4376b6	0.0029825396
113	0xbd07fe3b	-0.033201437
114	0xbcf5d0fb	-0.030006876
115	0x3d079dd5	0.033109505
116	0x3d881555	0.06644694
117	0xbcde7a6e	-0.027157988
118	0x3c156e48	0.009120531
119	0xbd70bf50	-0.0587762
120	0x3ce75a12	0.028241191
121	0x3d1c8ac1	0.038218264
122	0xbc8793b1	-0.016549917
123	0xbd4e9aeb	-0.05044071
124	0xbd1da31f	-0.038485643
125	0xbc284472	-0.010270225
126	0x3d525770	0.05135292
127	0x3a85adfd	0.0010198947
128	0xbd0b4cca	-0.03400878
129	0x3bcd7cd5	0.0062709847
130	0x3de9442a	0.113899544
131	0xbd40e080	-0.0470891
132	0xbc0e3a70	-0.008680925
133	0xbd0b9947	-0.034081724
134	0x3d3a2806	0.045448326
135	0xbcda6f6d	-0.02666446
136	0x3d41c5a7	0.047307637
137	0xbc0c721a	-0.008572126
138	0x3d65ba7b	0.056086045
139	0x3d6c45ae	0.05768364
140	0x3d23def5	0.04000755
141	0x3d9a7447	0.075417094
142	0x3b036fc2	0.0020055627
143	0x3d45e9db	0.048318725
144	0xbb98a7b4	-0.0046586636
145	0x3d0fb801	0.03508759
146	0xbd833535	-0.06406633
147	0x3c9a4268	0.018830493
148	0xbd77f27e	-0.060533993
149	0xbcf3de69	-0.02976914
150	0x3d03d712	0.03218753
151	0x3c89e8d4	0.016834654
152	0x3d1f515e	0.038895957
153	0xbc927e00	-0.017882347
154	0x3cbd383c	0.023098104
155	0x3bc4fc4a	0.0060115205
156	0x3d75a8d6	0.059975468
157	0x3d1abdd5	0.037778694
158	0x3d41b655	0.047293026
159	0xbd2fff06	-0.04296782
160	0x3d8510cc	0.064973444
161	0xbcbb1463	-0.02283687
162	0xbc91c63e	-0.017794725
163	0x3da1310a	0.078706816
164	0xbd1aa4b2	-0.037754722
165	0x3d329c3c	0.043606028
166	0xbd382a0d	-0.044961978
167	0x3d4cd4ad	0.05000751
168	0xbcc453b5	-0.023965696
169	0xbd872f6d	-0.066008426
170	0x3c8b6ec8	0.017020598
171	0xbd8880a3	-0.066651605
172	0xbc3192f2	-0.010838257
173	0x3c808d23	0.0156923
174	0x3d809d68	0.06280023
175	0xbc23584f	-0.009969785
176	0xbd158ce1	-0.036511306
177	0x3c84911f	0.01618248
178	0x3ca69d28	0.02033861
179	0xbd5c9fa7	-0.053863194
180	0xbc10c89b	-0.008836891
181	0x3dc920d8	0.098207176
182	0x3da6e4d1	0.08149112
183	0xbd06fa2c	-0.032953426
184	0x3d980bec	0.07424149
185	0x3d063b81	0.03277159
186	0xbcb49726	-0.02204473
187	0x3c5a556a	0.013326028
188	0x3dbf4872	0.0933999
189	0xbc1601f4	-0.009155739
190	0x3d2944f6	0.041325532
191	0xbc1ce55e	-0.00957617
192	0xbdb4575a	-0.088057235
193	0x3d55bd8b	0.052182715
194	0xbd312ab3	-0.04325361
195	0x3ce92055	0.0284578
196	0x3c58e353	0.013237792
197	0xbc74befe	-0.014938114
198	0xbd10d75e	-0.03536164
199	0x3c6bb9c6	0.014387554
200	0xbcea4cc6	-0.028601062
201	0xbdfbd615	-0.12296692
202	0x3c2313ba	0.009953434
203	0xbd3c0a5a	-0.04590831
204	0x3d76e87e	0.060280316
205	0xbd1bed98	-0.038068384
206	0x3d8b5010	0.0680238
207	0xbcae6e50	-0.021292835
208	0xbc6d3b17	-0.01447942
209	0x3b0ca11f	0.002145834
210	0x3c62f2b9	0.013851815
211	0x3c1ff44e	0.009762837
212	0xbba99fc2	-0.0051765153
213	0x3c262d82	0.010142686
214	0x3c9c7ce2	0.019102518
215	0x3cee82e8	0.029115155
216	0x3d2a621f	0.04159748
217	0x3c5e4077	0.013565174
218	0x3c45051d	0.012025145
219	0x3d41ad36	0.047284327
220	0x3d85c61c	0.06531927
221	0xbd4e14e5	-0.050312895
222	0xbcee7477	-0.02910827
223	0xbbc56727	-0.0060242596
224	0x3ceea342	0.029130582
225	0x3d217264	0.039415732
226	0xbc6cdafe	-0.014456509
227	0x3d81c8cb	0.06337126
228	0xbca5e1fb	-0.020249357
229	0xbd393e84	-0.045225635
230	0x3bb7cb56	0.0056089563
231	0x3acd684b	0.001567134
232	0xbd76c33e	-0.06024479
233	0xbb9003d3	-0.004394987
234	0x3c59fe3e	0.013305245
235	0x3c79c0d3	0.015243727
236	0xbc63b867	-0.013898945
237	0xbc20cdfd	-0.009814736
238	0xbcd9b305	-0.026574621
239	0xbcfb0b98	-0.030645177
240	0x3d4ada87	0.04952481
241	0x3d00e73c	0.031470522
242	0x3d23e853	0.040016484
243	0xbcbeffa7	-0.023315264
244	0xbb6b6adf	-0.0035921854
245	0x3d94afba	0.0726008
246	0x3d140893	0.03614099
247	0x3cc9a7f9	0.024616228
248	0x3d0c5f0a	0.034270324
249	0x3d8f0c33	0.06984749
250	0x3bc73efd	0.006080507
251	0x3d98d4f3	0.07462492
252	0x3d4d4a7c	0.050119862
253	0xbc0698cd	-0.0082151415
254	0xbc0ff041	-0.008785308
255	0x3d3ba449	0.04581097

rnn.bias_hh_l0 f4 [256]
0	0xbd42d289	-0.047564063
1	0x3d8960d5	0.06707922
2	0x3cba02b8	0.022706375
3	0x39482032	0.0001908548
4	0xbd8f3d5a	-0.06994124
5	0xbdf2fada	-0.118642524
6	0x3d7a6d5d	0.061139453
7	0xbc31d98a	-0.010855088
8	0x3bb8049c	0.005615784
9	0x3bc54cf8	0.0060211383
10	0xbd5ee57b	-0.05441807
11	0xbd859466	-0.065224454
12	0xbd931c5f	-0.07183146
13	0x3ce8dbe2	0.02842516
14	0xbd048c11	-0.03236014
15	0x3d24fc52	0.040279694
16	0x3d83c131	0.06433333
17	0xbcd173c6	-0.0255679
18	0xbd81ddbf	-0.06341123
19	0x3d51b508	0.051198035
20	0xbcd5185f	-0.026012598
21	0xbd22e705	-0.0397711
22	0x3d10b586	0.035329364
23	0x3d4131cd	0.047166634
24	0x3d629dc5	0.055326242
25	0x3ca4b4ba	0.020105708
26	0x3d3d8694	0.04627092
27	0x3d773502	0.060353287
28	0x3cb67c04	0.022275932
29	0xbd34eec6	-0.044173025
30	0xbc8c2d28	-0.017111376
31	0xbca1037e	-0.019654986
32	0x3d89b2be	0.067235455
33	0x3d6c16ae	0.057638817
34	0xbd74d226	-0.059770726
35	0x3d2eb464	0.042652503
36	0xbc0d9670	-0.008641824
37	0xbcdc9de0	-0.02693075
38	0xbd86d65e	-0.06583856
39	0xbd30f6a9	-0.043203983
40	0xbcf0e295	-0.029404918
41	0x3d4a1345	0.049334783
42	0x3d897a8f	0.06712829
43	0x3c977c3f	0.018491862
44	0x3c8764fc	0.016527645
45	0xbd0e470c	-0.034735724
46	0xbc84aefa	-0.016196717
47	0xbd0c9f52	-0.034331627
48	0xba9c2e0d	-0.001191558
49	0xbc7b895b	-0.015352572
50	0x3d6a6772	0.05722756
51	0x3d9acf1a	0.07559033
52	0xbd38f1da	-0.045152523
53	0xbd335285	-0.04377987
54	0x3d78dd40	0.060757875
55	0xbd8137a3	-0.0630944
56	0x3ca691ec	0.020333253
57	0x3bdd9286	0.0067618517
58	0x3ccd5b41	0.025067927
59	0xbd553ed8	-0.052061886
60	0xba576b16	-0.0008217556
61	0x3d4b97ac	0.049705192
62	0x3d9576d0	0.07298052
63	0xbb6a41dc	-0.0035744822
64	0xbd60a1d6	-0.05484184
65	0x3da2dbf9	0.07952113
66	0x3c574c14	0.013140697
67	0x3c055d42	0.00813991
68	0x3d11d593	0.03560407
69	0xbbed4d31	-0.007241868
70	0x3c374bab	0.011187474
71	0xbceedd3c	-0.029158227
72	0x3cbb26e2	0.02284569
73	0xbc07392c	-0.008253377
74	0x3d6bece7	0.057598975
75	0xbaf6b863	-0.0018823262
76	0x3d293292	0.041307993
77	0xbd07c552	-0.033147164
78	0xbd0e918c	-0.034806773
79	0xbd3ecf6a	-0.046584524
80	0x3d53c892	0.05170495
81	0x3d37d7a1	0.044883374
82	0x3d3319df	0.043725844
83	0x3ccbd7e6	0.024883222
84	0x3a7d2459	0.00096566003
85	0x3d6c16d2	0.05763895
86	0xbce7d008	-0.02829744
87	0xba8234f9	-0.0009934
88	0x3d88371e	0.06651138
89	0xbbfdc93a	-0.0077449353
90	0x3cd1892c	0.025578104
91	0xbd19d083	-0.037552368
92	0x3d90c2a7	0.07068377
93	0x3db8bc93	0.09020343
94	0x3d275e6c	0.040861532
95	0x3c741c7f	0.014899372
96	0xbdc9037f	-0.0981512
97	0x3e48bcad	0.19603224
98	0x3c1892a2	0.009312304
99	0x3d4ca49f	0.049961682
100	0xbdc6505f	-0.09683298
101	0xbcfa0c04	-0.030523308
102	0x3c793b23	0.015211853
103	0x3d463b2d	0.04839628
104	0xbd164220	-0.036684155
105	0xbc55c886	-0.013048297
106	0xbd07ffee	-0.033203058
107	0x3d63b3ec	0.05559151
108	0x3c321c45	0.010870998
109	0x3d239fec	0.039947435
110	0x3c608c6c	0.013705354
111	0x3bead2d2	0.007166245
112	0x3cf1a262	0.029496375
113	0x3ccc2685	0.024920711
114	0x3d8f30ea	0.069917515
115	0x3bf822c2	0.007572503
116	0x3deeb1d0	0.11655009
117	0xbc2e95fa	-0.010655874
118	0x3d30e5e5	0.043187995
119	0xbcf021df	-0.029313026
120	0xbb9ce0fc	-0.0047875624
121	0x3da86e94	0.08224216
122	0xbcf6539b	-0.030069163
123	0xbd194d4f	-0.037427243
124	0xbc84aaa1	-0.016194643
125	0xbd78a0ba	-0.060700156
126	0x3d94cbb7	0.07265418
127	0xbd064e24	-0.032789364
128	0x3d70d14e	0.05879336
129	0xbc9318a9	-0.017956095
130	0x3d98218e	0.07428275
131	0x3d1a88be	0.037728064
132	0x3d30909a	0.043106653
133	0x3d580cd7	0.05274662
134	0xbcdba17f	-0.026810406
135	0x3d9328f6	0.07185547
136	0x3d504c33	0.05085392
137	0xbd69d6a8	-0.057089478
138	0xbc55e1b5	-0.013054301
139	0x3d55dec8	0.052214414
140	0x3d86e3e2	0.06586434
141	0x3cb933a0	0.022607625
142	0xbd36ee8c	-0.04466109
143	0x3c7ee841	0.015558303
144	0x3d72f42a	0.059314884
145	0x3d3d9680	0.046286106
146	0xbd895b0c	-0.06706819
147	0x3d0154cc	0.03157501
148	0xbd4dfc14	-0.05028923
149	0x3d335edb	0.043791633
150	0x3d8bc857	0.06825321
151	0x3d9e4150	0.07727301
152	0x3c9ec5ac	0.019381367
153	0xbd12bc42	-0.035824068
154	0xbc810b46	-0.015752446
155	0x3d08b490	0.033375323
156	0x3cce4e1a	0.025183726
157	0xbce686b9	-0.028140413
158	0x3dabcb72	0.083884135
159	0xbc2ee337	-0.010674289
160	0x3d837b8f	0.06420051
161	0xbd2ded49	-0.04246262
162	0x3c125f83	0.008933905
163	0x3d24a214	0.040193632
164	0x3d1b6584	0.03793861
165	0xbc9f0437	-0.01941119
166	0x3d5b9003	0.053604137
167	0xbca796fc	-0.020457737
168	0xbd3faa45	-0.04679324
169	0x3c022cd6	0.00794526
170	0xbc8e94e1	-0.017404975
171	0x3d161698	0.03664264
172	0xbd69bf23	-0.057067048
173	0xbce43c96	-0.02786092
174	0xbc66b61d	-0.014081505
175	0xbce4df1c	-0.027938418
176	0x3d18438b	0.03717379
177	0xbd00b10e	-0.031418853
178	0x3b2fb8b1	0.0026812966
179	0xbcf62fc7	-0.030052079
180	0x3d34709b	0.0440527
181	0xbbb8e7ac	-0.005642852
182	0x3d8f99f5	0.07011787
183	0xbd0d5290	-0.034502566
184	0x3d44cf3f	0.048049208
185	0xbb9cad0a	-0.00478137
186	0xbd18cd87	-0.03730538
187	0x3ccf5d63	0.025313085
188	0x3d94c171	0.072634585
189	0xbc1a0b44	-0.0094021
190	0xbd2b22c8	-0.041781217
191	0xbd40ea39	-0.047098372
192	0xbccfb394	-0.025354184
193	0xbd1e97a1	-0.038718823
194	0x3cceed72	0.025259707
195	0xbd17ddc6	-0.037076734
196	0x3b5dab7b	0.0033824134
197	0xbd19595b	-0.03743873
198	0xbd369615	-0.044576723
199	0xb886aa9d	-6.421397e-05
200	0x3b9ffe4a	0.0048826085
201	0xbde4c697	-0.111706905
202	0x3cc0265d	0.023455793
203	0x3d721904	0.059105888
204	0x3d23a33a	0.039950587
205	0xbd39859c	-0.045293435
206	0xbcae4d94	-0.021277227
207	0xbd2031a7	-0.039109852
208	0x3d35442b	0.044254463
209	0x3d46a8bf	0.048500773
210	0x3d517b03	0.051142704
211	0x3bbb6f29	0.0057200384
212	0x3d10816b	0.035279673
213	0xbc8414eb	-0.016123256
214	0x3d105df4	0.03524585
215	0x3d1494ef	0.036274847
216	0x3d09e2f9	0.033663724
217	0x3bb02f49	0.0053767306
218	0xbd38a276	-0.04507681
219	0x3d858a4d	0.065205194
220	0x3d8a5289	0.067540236
221	0xbd81f051	-0.06344665
222	0xbd7046e7	-0.058661368
223	0xbb2ad3b0	-0.0026066117
224	0xbbe194d0	-0.006884195
225	0xbd46120c	-0.048357055
226	0x3b7d59bf	0.003865823
227	0x3d79e859	0.0610126
228	0xbaf993e6	-0.001904127
229	0x3d620d4a	0.055188455
230	0xbd5fd919	-0.0546504
231	0xbd4cf437	-0.05003759
232	0xbd0f80c8	-0.035034925
233	0xbd709605	-0.05873682
234	0x3d4c06ef	0.0498113
235	0x3d3f9872	0.046776243
236	0x3c283e23	0.010268721
237	0xbd083188	-0.03325036
238	0x3c99b8a1	0.018764796
239	0x3d337cf9	0.043820355
240	0x3c8318cb	0.016003033
241	0x3a60b5e5	0.0008572026
242	0x3ce16574	0.027514197
243	0x3d598788	0.05310777
244	0x3d83dc1b	0.06438466
245	0xbd271985	-0.04079582
246	0x3aa6b8cb	0.0012719868
247	0xbc256d58	-0.01009687
248	0x3cd96e75	0.026541928
249	0xbd26f675	-0.040762383
250	0x3d036fdb	0.032089096
251	0x3c94779b	0.018123439
252	0x3d0c4211	0.034242693
253	0xbcba9777	-0.022777302
254	0xbd5265b1	-0.05136651
255	0xbce510a5	-0.027962038

out.weight f4 [2, 256]
0	0x3c555960	0.013021797
1	0x3da2f2ed	0.07956491
2	0x3a00c1af	0.00049116736
3	0xbd75a4dc	-0.059971675
4	0xbd38372c	-0.04497449
5	0xbe1a9b79	-0.1509837
6	0x3e7af038	0.24505699
7	0xbdab1b25	-0.08354787
8	0xbe7d733a	-0.24750987
9	0xbe5105c8	-0.20412362
10	0x3bd4496f	0.0064784805
11	0xbcb17ced	-0.021666015
12	0x3c3fb092	0.0116998125
13	0xbe83d071	-0.25744966
14	0xbd6ade96	-0.05734118
15	0x3cad66ee	0.021167245
16	0x3d68fab9	0.056879733
17	0x3d899fe5	0.067199506
18	0x3ce04fdc	0.02738183
19	0x3ce819c6	0.028332602
20	0x3cf6cca5	0.030126879
21	0x3d7bbab0	0.061457336
22	0x3d2cfbbe	0.042232268
23	0x3d7604a9	0.060063038
24	0x3dfb0b3c	0.12258002
25	0xbdc97cf9	-0.0983829
26	0x3bdbf925	0.00671305
27	0x3db920fc	0.090394944
28	0x3d16d619	0.036825273
29	0xbc0fb13b	-0.008770282
30	0xbbce0147	-0.0062867734
31	0x3e158755	0.14602406
32	0x3dad9386	0.084754035
33	0xbe195cb3	-0.14976768
34	0xbd08b6a0	-0.03337729
35	0xbe14c254	-0.14527255
36	0x3cf39136	0.029732328
37	0xbcfa4382	-0.030549768
38	0xbe99a41f	-0.30008027
39	0xbd920795	-0.071303524
40	0x3d564d11	0.05231959
41	0x3d7180c4	0.05896069
42	0x3d865f37	0.065611295
43	0xbd5abae8	-0.053400904
44	0x3da77a6b	0.08177646
45	0xbe7979a9	-0.24362816
46	0xbd60d64e	-0.054891877
47	0xbde165e3	-0.110057615
48	0x3c1fe15a	0.009758318
49	0xbd63eb9e	-0.055644624
50	0xb9aaf29f	-0.00032605694
51	0x3d8272c2	0.063695446
52	0x3c801260	0.015633762
53	0xbd49c709	-0.04926208
54	0xbe524b35	-0.20536502
55	0x3d08b9ed	0.033380438
56	0x3b70eca9	0.0036762154
57	0xbc0bc992	-0.008531945
58	0x3cb5025e	0.022095855
59	0xbd3c5b18	-0.04598531
60	0x3d915a6c	0.07097325
61	0x3dab16dd	0.0835397
62	0x3d0407eb	0.032234114
63	0x3d44e0d0	0.04806596
64	0x3cd3fb7b	0.025876751
65	0x3e545d8f	0.20738815
66	0xbdbba3de	-0.091621146
67	0x3d445868	0.047935873
68	0xbe626b87	-0.22111331
69	0xbd1c93b0	-0.038226783
70	0x3e085b77	0.13316141
71	0xbc7429be	-0.01490253
72	0xbac0ed4d	-0.0014719159
73	0xbdd9c028	-0.10632354
74	0xbd8f10e2	-0.06985642
75	0x3dc4c256	0.09607379
76	0xbc98785e	-0.018612083
77	0xbc802f18	-0.015647456
78	0x3d982610	0.07429135
79	0xbc259304	-0.010105852
80	0xbd25b8a6	-0.040459298
81	0x3dcea232	0.1008953
82	0x3c566a46	0.013086861
83	0xbd9d207a	-0.0767221
84	0x3d161099	0.036636923
85	0x3d332763	0.043738734
86	0x3c6b0b5e	0.014345972
87	0x3da2a847	0.079422526
88	0xbdb0f166	-0.08639793
89	0xbd2795ef	-0.040914472
90	0x3da5ac59	0.08089513
91	0xbd53e818	-0.051735014
92	0x3e06f996	0.13181147
93	0x3ce6f722	0.028194014
94	0xbcf0e40a	-0.029405612
95	0xbd229087	-0.039688613
96	0xbe4f18c5	-0.20224293
97	0x3e07ec19	0.13273658
98	0x3dbfaf52	0.093596116
99	0x3de68d9e	0.1125748
100	0x3fcb4e49	1.5883266
101	0x3d18966f	0.03725284
102	0xbeb07a0a	-0.34468108
103	0x3eb1cd24	0.34726822
104	0x3c6c9c78	0.014441602
105	0x3c1d5a07	0.009603984
106	0x3c388bcc	0.011263799
107	0x3e07132d	0.13190909
108	0xbe6c4244	-0.23072153
109	0xbebb0086	-0.36523837
110	0xbc06c2e4	-0.0082251765
111	0xbae94f50	-0.0017800126
112	0x3da3e58d	0.08002768
113	0xbdeb16ff	-0.114789955
114	0xbcb0229c	-0.021500878
115	0x3d52ff09	0.05151275
116	0x3e0f9950	0.14023328
117	0xbcf2fcc4	-0.029661544
118	0x3b61f09f	0.0034475697
119	0xbcafbd2f	-0.021452514
120	0x3d23ad76	0.039960347
121	0x3e2b0066	0.1669937
122	0x3d4a7aac	0.049433395
123	0x3c887ca5	0.016660998
124	0x3b80bba7	0.00392862
125	0x3da81372	0.08206834
126	0x3e33aa13	0.17545347
127	0xbdeff6f7	-0.11717027
128	0x3d5a5abf	0.0533092
129	0x3c8477aa	0.016170342
130	0x3d3c9eb4	0.04604979
131	0xbd7dd176	-0.061967336
132	0xbd10bbdf	-0.035335418
133	0xbe28f71a	-0.16500512
134	0xbd0e0018	-0.03466806
135	0x3df13401	0.11777497
136	0x3d1ee7a3	0.038795125
137	0xbced3926	-0.028957915
138	0x3d89a00e	0.06719981
139	0xbe356f13	-0.17718153
140	0x3dfd83bb	0.12378641
141	0x3ccd610f	0.025070695
142	0xbf831f20	-1.0243874
143	0x3d56e165	0.052461047
144	0xbd9e0d08	-0.07717329
145	0x3d187027	0.03721633
146	0x3cd315f4	0.025767304
147	0xbe7d4fd2	-0.2473748
148	0xbcdfe6bd	-0.027331704
149	0xbc1a3a8b	-0.009413372
150	0x3ce554a4	0.027994461
151	0x3d95ae7e	0.07308672
152	0x3da06b03	0.07832911
153	0x3c7fe613	0.015618819
154	0xbe49cbf6	-0.19706711
155	0x3f093dc5	0.5360988
156	0x3e096298	0.13416517
157	0xbe1dd39c	-0.15412754
158	0x3db5d429	0.08878357
159	0x3d1bf19a	0.038072206
160	0x3e03ffd2	0.12890556
161	0xbb8f61ac	-0.004375657
162	0x3b8ee9ad	0.0043613524
163	0x3e21335d	0.1574225
164	0xbea31117	-0.31848976
165	0x3befc0ca	0.0073166834
166	0xbe298478	-0.16554439
167	0x3d702e21	0.058637742
168	0x3caecc02	0.021337513
169	0x3be32d29	0.0069328737
170	0xb9b07fe2	-0.00033664616
171	0xbd1f4694	-0.038885668
172	0xbcb14aec	-0.02164217
173	0x3b93858f	0.0045020054
174	0x3c9925f6	0.018694859
175	0x3d8bb9e5	0.06822566
176	0x3c0275b1	0.00796263
177	0xbcb15382	-0.021646265
178	0xbaf8bbad	-0.001897683
179	0xbd53f4f5	-0.05174728
180	0x3e0b64d2	0.13612679
181	0x3d8715e4	0.06595972
182	0x3ddda577	0.108225755
183	0xbbed918e	-0.0072500175
184	0x3e30dd1f	0.17271851
185	0x3d33be1b	0.04388247
186	0xbe753f87	-0.23950015
187	0x3ca3ffcb	0.020019433
188	0x3e442282	0.19153789
189	0x3d8fd60c	0.07023248
190	0x3c8b2228	0.01698406
191	0xbd5dfc78	-0.05419585
192	0xbdb2dace	-0.0873314
193	0x3d81ccd6	0.063378975
194	0x3d16e2da	0.036837436
195	0xbe81bc9a	-0.25339204
196	0x3d7912bb	0.06080888
197	0xbdf220cf	-0.11822664
198	0xbcc9c8ad	-0.024631822
199	0xbe6337ce	-0.22189257
200	0xbcdca3cd	-0.026933575
201	0xbd73c758	-0.05951628
202	0xbeac7771	-0.33684877
203	0x3d2c01f6	0.041994058
204	0x3dd0c22c	0.10193285
205	0xbd494daa	-0.04914633
206	0xbe8b3b5b	-0.27193722
207	0xbb792336	-0.0038015372
208	0xbd0c0dab	-0.034192722
209	0xbd177c82	-0.036983974
210	0x3cdadcae	0.026716556
211	0x3d2474f3	0.040150594
212	0x3ce9bec1	0.028533341
213	0x3ccb79f0	0.024838418
214	0xbe0f3e0a	-0.1398851
215	0xbbb3f51f	-0.005491867
216	0x3b005b41	0.0019585642
217	0x3d2284b2	0.03967733
218	0x3d450c5a	0.048107482
219	0x3e1c919e	0.15289924
220	0x3e0d0ddf	0.13774823
221	0xbd023190	-0.031785548
222	0xbc48b2d6	-0.012249669
223	0x3daec4c9	0.085336275
224	0xbc9ed3c1	-0.019388082
225	0x3d129f34	0.03579636
226	0xbe986b77	-0.2976949
227	0x3de7c542	0.11316921
228	0xbe1dc010	-0.15405297
229	0xbc7497c7	-0.014928765
230	0x3ca8882d	0.020572746
231	0x3c077917	0.008268616
232	0xbd138a84	-0.03602077
233	0xbd54b155	-0.05192693
234	0xbc8182ea	-0.015809495
235	0xbdad273c	-0.08454749
236	0xbd069952	-0.03286106
237	0x3c13db03	0.009024384
238	0x3d0bcf3c	0.03413318
239	0x39f5148e	0.00046745356
240	0x3da661bb	0.08124109
241	0x3d3da209	0.046297107
242	0xbd080f60	-0.033217788
243	0xbdc0957d	-0.094035126
244	0xbdea3a22	-0.11436869
245	0xbe661d59	-0.22472133
246	0x3e06b4a0	0.1315484
247	0xbe0b7c3c	-0.1362161
248	0xbe6e6476	-0.2328051
249	0x3d240891	0.040047232
250	0xbc1e3997	-0.009657285
251	0x3dc9370e	0.09824954
252	0x3d00a325	0.031405587
253	0xbd91692a	-0.071001366
254	0x3bae35af	0.005316458
255	0x3c8dddaa	0.017317612

out.bias f4 [2]
0	0x3d815833	0.06315651
1	0x3d81ea67	0.06343537
