rnn_weights_3/weights_16_uniform_g0.5_tanh_delay_discrimination.pt (torch, 4396 bytes, 5 tensors)

rnn.weight_ih_l0 f4 [16, 1]
-0.14816862 -0.20066123 1.0514287 -0.18617404 -0.108334094 -0.37444133 -0.003339831 -0.21774243
0.05103772 -0.24167003 -0.08863748 0.2893945 -0.0014120782 -0.3829693 -0.99739486 0.035135787
00000000: 84b9 17be 237a 4dbe 3795 863f 68a4 3ebe
00000010: 44de ddbd c6b6 bfbe 11e1 5abb dff7 5ebe
00000020: ee0c 513d 5978 77be 9187 b5bd 842b 943e
00000030: 7b15 b9ba 8d14 c4be 4555 7fbf 8bea 0f3d

rnn.weight_hh_l0 f4 [16, 16]
0.10739779 0.19129142 0.14857778 0.014870132 0.08634205 0.0057634045 -0.07500931 -0.04426094
0.03499979 0.2611434 -0.043335862 -0.026175804 0.072531804 0.20088589 0.0010822963 -0.19979265
0.049191292 0.79694533 -0.75722533 -0.41792178 0.24899538 0.16021201 0.24359548 -0.2901495
-0.75997144 -0.28445348 -0.056977488 0.19911572 0.4842713 0.003307934 0.22607677 0.00407005
-0.14118749 0.20884515 -0.28586835 0.261358 -0.1336738 0.24590987 0.25151846 0.8060567
0.2645127 -0.32643875 -0.38031137 0.025536915 0.15457939 1.0518961 0.3628756 0.04955284
-1.2607954 -1.8879052 2.6191678 0.94162923 0.74704355 0.86760366 0.20842032 1.5758518
0.37047964 -0.25604507 0.3845178 0.7974055 -1.3874573 -0.9126207 -0.5112729 1.0583097
-0.22685146 0.3275239 -0.027739177 0.0109774275 0.4653948 0.03157156 0.19651544 -0.2250327
-0.12774378 -0.8458988 0.022433857 0.10307105 -0.0038109948 -0.21963465 -0.17092861 0.3116284
-0.15114348 -0.37829548 0.18033752 0.08920401 0.28695524 0.36237022 -0.14346218 0.31968537
-0.18622512 -0.12039675 0.045036964 0.018645536 -0.5244174 -0.079711534 0.06948087 0.43114153
-0.031720087 0.10001062 -0.3843822 -0.04973322 0.3111321 0.14176434 0.0974989 -0.27510312
0.17110935 -0.36496133 0.11872759 0.12807243 0.20681141 -0.06862715 -0.20335813 0.15946828
0.12944394 -0.53458583 -0.6221147 0.041923296 -0.06430597 0.25904837 -0.1024067 0.07567066
0.19462812 -0.09043723 -0.16269179 -0.115857676 -0.029138165 0.5472041 0.6097271 -0.075485684
0.07627366 -0.4017448 -0.2458573 -0.013918805 -0.56842524 -0.53691083 -0.237947 0.15593602
0.9883266 -0.060672246 -0.029493978 -0.1953523 -0.05544211 0.39832342 -0.5220701 -0.3882073
0.39227107 0.1504416 0.31682584 0.009507741 -0.100439 -0.035311054 0.043319087 0.08224468
-0.31941575 -0.019625023 -0.26759082 -0.33805862 -0.3619265 0.4283594 0.39803275 -0.32532367
-0.0168089 0.0103867715 1.1889073 0.21389127 0.65728194 0.0740323 0.7315354 -0.4068514
1.1621416 -0.6005997 0.61097205 -0.028195275 -0.635293 0.55462736 -0.1687721 -0.14672829
0.062068094 -0.3090541 0.007935314 0.083174154 0.166585 -0.009465546 0.21973416 -0.1323071
-0.06510472 -0.38434422 0.15718384 0.17980273 -0.10444715 -0.08170846 0.020043092 0.22146411
0.16751513 0.15686627 -0.39969692 0.06624584 0.14618823 -0.5722932 -0.18300809 -0.2898377
-0.2417703 -0.06507017 0.18115574 0.1730782 0.30188385 -0.24833728 -0.32137817 -0.5262556
0.22193229 -0.12839079 -0.2799538 0.0028142054 0.14081065 0.009296616 0.047745872 -0.0037229839
0.225652 0.17511591 -0.011295577 -0.18959658 0.23986144 0.13970421 0.2790317 0.034267757
0.27825275 -0.13034 -0.093036875 -0.097083464 0.11978434 0.0957466 0.18701455 -0.16779715
-0.36817533 0.17854187 0.29674876 -0.1146293 -0.1848929 0.19316632 0.27810338 -0.18916492
-0.04573247 -0.19715625 -0.09166062 -0.11238445 0.04596529 0.07422494 0.10463617 -0.06294983
-0.14145719 -0.29993242 -0.029315468 0.12651658 -0.28637752 -0.2023364 0.008981653 0.10422327
00000000: 5ff3 db3d e6e1 433e c624 183e dba1 733c
00000010: 1ad4 b03d f1da bc3b 7b9e 99bd f64a 35bd
00000020: f15b 0f3d 96b4 853e f280 31bd a46e d6bc
00000030: 8e8b 943d 08b5 4d3e d6db 8d3a 7296 4cbe
00000040: cf7c 493d 9c04 4c3f 85d9 41bf d8f9 d5be
00000050: a5f8 7e3e 9e0e 243e 1871 793e 7a8e 94be
00000060: 7d8d 42bf e3a3 91be 3a61 69bd fee4 4b3e
00000070: 68f2 f73e ecc9 583b ab80 673e 0e5e 853b
00000080: 7493 10be 81db 553e 565d 92be b7d0 853e
00000090: c9e1 08be cccf 7b3e 07c7 803e bb59 4e3f
000000a0: 356e 873e fb22 a7be 2cb8 c2be cb32 d13c
000000b0: 0f4a 1e3e 88a4 863f d5ca b93e ebf7 4a3d
000000c0: be61 a1bf e1a6 f1bf 72a0 2740 9d0e 713f
000000d0: 3f3e 3f3f 461b 5e3f 236c 553e 83b5 c93f
000000e0: 82af bd3e 5718 83be 84df c43e c422 4c3f
000000f0: 3398 b1bf 83a1 69bf c8e2 02bf b176 873f
00000100: c04b 68be 36b1 a73e 453d e3bc abda 333c
00000110: 3a48 ee3e 2e51 013d 583b 493e f96e 66be
00000120: 44cf 02be d38c 58bf 35c7 b73c ea16 d33d
00000130: e2c1 79bb e8e7 60be e907 2fbe c28d 9f3e
00000140: 5bc5 1abe f2af c1be 66aa 383e 98b0 b63d
00000150: cceb 923e 9788 b93e c0e7 12be cdad a33e
00000160: ccb1 3ebe 9292 f6bd ae78 383d 86be 983c
00000170: 3840 06bf cd3f a3bd fd4b 8e3d 95be dc3e
00000180: ecec 01bd 5ed2 cc3d becd c4be 10b5 4bbd
00000190: b54c 9f3e ac2a 113e 81ad c73d 51da 8cbe
000001a0: 4a37 2f3e 36dc babe 7327 f33d 6b25 033e
000001b0: 5fc6 533e 648c 8cbd 1d3d 50be a74b 233e
000001c0: f48c 043e 9eda 08bf e942 1fbf c3b7 2b3d
000001d0: d9b2 83bd fda1 843e 9bba d1bd 38f9 9a3d
000001e0: 984c 473e 2837 b9bd ad98 26be ca46 edbd
000001f0: 29b3 eebc 9115 0c3f 1317 1c3f 3d98 9abd
00000200: 5d35 9c3d 7fb1 cdbe 04c2 7bbe b30b 64bc
00000210: 5184 11bf fd72 09bf 61a8 73be b1ad 1f3e
00000220: f902 7d3f 7683 78bd 5b9d f1bc 6f0a 48be
00000230: 4417 63bd 0cf1 cb3e 63a6 05bf 1bc3 c6be
00000240: c1d7 c83e 5d0d 1a3e ff36 a23e 5bc6 1b3c
00000250: f6b2 cdbd 53a2 10bd 5b6f 313d e66f a83d
00000260: 768a a3be a8c4 a0bc aa01 89be 0516 adbe
00000270: 6e4e b9be ec51 db3e f3ca cb3e d390 a6be
00000280: d1b2 89bc 472d 2a3c 1d2e 983f 5006 5b3e
00000290: a143 283f 3f9e 973d e745 3b3f d44e d0be
000002a0: 0ec1 943f e7c0 19bf aa68 1c3f c7f9 e6bc
000002b0: 90a2 22bf 0ffc 0d3f 98d2 2cbe f13f 16be
000002c0: 1d3b 7e3d 573c 9ebe 1f03 023c 3657 aa3d
000002d0: 4295 2a3e 6115 1bbc fe01 613e 837b 07be
000002e0: a055 85bd c4c8 c4be cdf4 203e 351e 383e
000002f0: 63e8 d5bd c456 a7bd 6931 a43c 7dc7 623e
00000300: 1689 2b3e 8da1 203e 13a5 ccbe e6ab 873d
00000310: 5eb2 153e cf81 12bf 7966 3bbe 9b65 94be
00000320: a292 77be 8243 85bd e480 393e 693b 313e
00000330: 8590 9a3e 214c 7ebe ae8b a4be b0b8 06bf
00000340: 3842 633e e078 03be 1b56 8fbe 886e 383b
00000350: ab30 103e d550 183c 2d91 433d 4efd 73bb
00000360: 5111 673e 9651 333e 1511 39bc 9b25 42be
00000370: 3d9e 753e 9f0e 0f3e 3edd 8e3e 595c 0c3d
00000380: 2577 8e3e d977 05be 1e8a bebd b2d3 c6bd
00000390: 7e51 f53d cb16 c43d be80 3f3e 04d3 2bbe
000003a0: 7a81 bcbe aed3 363e 74ef 973e c4c2 eabd
000003b0: 9054 3dbe 64cd 453e 9163 8e3e 73b4 41be
000003c0: f851 3bbd 54e3 49be 90b8 bbbd d229 e6bd
000003d0: 1a46 3c3d 3f03 983d 7d4b d63d d7eb 80bd
000003e0: 27da 10be be90 99be fe26 f0bc 908d 013e
000003f0: 13a0 92be 4631 4fbe c827 133c 0373 d53d

rnn.bias_ih_l0 f4 [16]
-0.08691265 -0.019163374 0.012741852 0.47983688 -0.35400432 0.0109666465 -0.09394217 -0.122379124
0.3551163 0.16514757 0.22712298 0.14114639 0.08936928 0.16640209 0.17690644 0.048878998
00000000: 42ff b1bd 82fc 9cbc 33c3 503c 2ead f53e
00000010: 0e40 b5be 73ad 333c c164 c0bd e8a1 fabd
00000020: ced1 b53e 721c 293e ed92 683e ae88 103e
00000030: 3e07 b73d 4f65 2a3e f626 353e 5835 483d

rnn.bias_hh_l0 f4 [16]
0.21933894 -0.187346 0.17984697 0.5097738 -0.30618948 -0.15352888 0.09122678 0.14221261
-0.04476019 0.046413947 0.19301794 -0.070084736 -0.14740597 0.123511724 0.057177193 -0.18820377
00000000: 639a 603e a1d7 3fbe ce29 383e 8980 023f
00000010: dec4 9cbe ad36 1dbe 1bd5 ba3d 2fa0 113e
00000020: 7656 37bd 8d1c 3e3d 7fa6 453e 9688 8fbd
00000030: 97f1 16be b7f3 fc3d a232 6a3d 7db8 40be

out.weight f4 [1, 16]
-0.019792736 0.019582292 -0.009943151 -1.0204883 -0.087706946 -0.02906295 0.017390246 -0.08547501
-0.04842476 0.091647185 0.6348134 -0.032383442 -0.027286267 0.2385103 -0.11836011 0.18976742
00000000: 6024 a2bc 0b6b a03c 99e8 22bc 5c9f 82bf
00000010: b39f b3bd 6c15 eebc fd75 8e3c 860d afbd
00000020: 0b59 46bd 85b1 bb3d 2283 223f 80a4 04bd
00000030: 7387 dfbc 0b3c 743e c966 f2bd 6452 423e
