rnn_weights_3/weights_256_uniform_g0.5_tanh_flip_flop.pt (torch, 271304 bytes, 6 tensors)

rnn.weight_ih_l0 f4 [256, 2]
00000000: 598f 49be 3d06 0dbe 3087 d23e 9a2b 70bd
00000010: 6a7c 493d 5043 9ebe 88dc 953d 208c 873e
00000020: 8651 3cbe 5e38 dc3d bc79 1ebe eab3 86bd
00000030: 4e85 b93d b6e3 10be b038 263f 4177 98bc
00000040: 5366 be3d 4dc9 b4be 96ca e1bd dac0 433e
00000050: 2e3c a3bd 6c27 b1bd d22d 4fbe c668 1a3e
00000060: f7d8 e3bd e11b ffbd b2bd f0bc 3e2f f6be
00000070: d5f7 d9bd 6147 a5bd 8b26 1f3d 887f 2b3e
00000080: 7ced dd3d 226f 33be fd88 953d 419a e1be
00000090: f787 343d 656d 893e 03c4 2b3d 1d10 29be
000000a0: 1f81 c13d 78e1 9ebe 0a17 95bc 5428 813e
000000b0: d1e7 763e 909e 44be 5a1f a03d 574b e3be
000000c0: 536a 3abe 3cb9 97bd ad37 bf3c 6360 523e
000000d0: e794 223d 41c4 2a3c 75f1 013e 3374 c2bd
000000e0: 7c54 193e 87fc 29be 7ceb 6ebc 97c7 2b3f
000000f0: 4c72 ba3d 38a8 85be 9ba6 0b3e f0cc 01bd
00000100: 5eb3 b1bd cd21 50be d46c 01be a028 51be
00000110: cfd8 5e3f b376 69bb b77b 8b3d a36a df3d
00000120: 4010 0abe 9a0c 4cbe 7b93 03be 3913 b1bd
00000130: d3b9 733e ffcb 033e d0c1 fa3d c298 51be
00000140: 323f 81bc ab24 35be 261d e63d cf79 1c3e
00000150: 4a7e a73d 90d9 a2be 8660 49be 4bc0 03be
00000160: c4f5 8b3b 73c1 81bd 3c9c 4fbe db03 0c3e
00000170: 6fd0 873d 1f2e c9be f6b6 0abe 64a4 33bc
00000180: b04e 393e 500b fd3d b965 39bc 9e48 9d3c
00000190: fdf8 9f3d fa67 793e 4728 13be 6e07 afbc
000001a0: f201 243b d9f3 6ebe fdff c5bd 0d23 923d
000001b0: e874 c93c 077e 17bf c141 583d a22e b03c
000001c0: 8dad 56bd bdca 3ebe 98f7 58bf 5cf0 babd
000001d0: 6f13 1dbe 600c c63c 8dbe e3bd 4ae1 cd3d
000001e0: 0813 bb3d 7f38 9cbe 9117 63bd 797d 5bbd
000001f0: d588 313d c955 793e 8bcf 9b3c a71e 3cbe
00000200: c68f 50be 75c6 c83d 5511 82bc bff8 873e
00000210: aa01 37be 1b1d 6a3d 116d cabd c91c 7d3e
00000220: 7b3c 30be a6c0 d43c b52c abbd 7c6b 983d
00000230: 508c 433d 8c90 7ebe cb09 bfbd 9582 5a3e
00000240: f976 713c 2f98 8b3e c86d 1b3e ca99 d93d
00000250: 129b 5c3e bd2a 7fbd 049e 943d cea2 273e
00000260: 421c 13be 74e2 293e c1a0 a53d bcf0 14be
00000270: 6232 20be e798 313d f98e 4dbb 96d6 14be
00000280: b362 0b3e c711 1e3d 850c 02be 065e abbe
00000290: e373 203e 8f70 7fbe 68a6 003e d319 67be
000002a0: 1c67 0cbd 013a 8bbe 17d4 abbe 3f6b a13d
000002b0: 0999 663e c59f 98be d183 0a3d f417 4cbf
000002c0: 70a8 17be 854a 503e a66e 483e 392e d03d
000002d0: 1676 84be 9302 653e f6c7 d1bd 8117 d3bd
000002e0: bf42 a23d 146a 94be 79fd 803d ab61 1fbf
000002f0: 7903 ef3d 146e 65be b668 26be 55bd ed3c
00000300: 98e2 bcbc f4d7 4abe a5bd 383e 47fd 4c3d
00000310: 4799 cf3c 7170 953e 6a88 f4bc 329b febd
00000320: 88d2 9eb9 579e 253f 108c 803e fdd2 af3d
00000330: 5aa7 093e 44cf 8fbe 040a 94be bf06 013e
00000340: b133 e2bd c954 033c cf57 223d f9da a9be
00000350: 241d 5e3e 265e 33be f512 b43c b380 70be
00000360: 33f0 dcbd 5221 823e 6652 ef3d df30 babd
00000370: 8931 bbbd fc28 593d c8ac 113e 23c7 2bbd
00000380: 82ca 2340 b5a4 2fbc 1a22 78bd 8679 ebbb
00000390: 2c7f 3a3e b9c5 663e 8186 803d a166 853e
000003a0: 1a43 713e 5549 45be 7521 d1bb b8dd e43e
000003b0: 64f7 1c3e d38e 44be a7ea 253e 0f53 95be
000003c0: 2028 91bd f035 5f3e 9299 e8be 6f7b ef3d
000003d0: f9d0 1a3c aef6 edbc 25fa 7f3e 95e0 4ebe
000003e0: 1caf d5bd d98a 9a3c 5b54 38bd ed49 81be
000003f0: 83d7 433e ad50 80bd 712c 563d 19bb 7dbe
-0.19683589 -0.13771911 0.41118765 -0.05863533 0.049190916 -0.3091073 0.073174536 0.26474094
-0.18390474 0.10752939 -0.15476125 -0.06577285 0.09058629 -0.14149365 0.6493025 -0.018611552
0.092968605 -0.3530983 -0.11024968 0.19116536 -0.07970463 -0.08650097 -0.20232323 0.1507903
-0.11125367 -0.12456489 -0.029387329 -0.48082918 -0.10642973 -0.08070255 0.038855117 0.16747868
0.10836312 -0.17522863 0.07301519 -0.44063 0.04407498 0.26841274 0.04193498 -0.16510053
0.09448456 -0.31031394 -0.018199462 0.2522608 0.24111868 -0.19201112 0.0781848 -0.44393417
-0.18204622 -0.074083775 0.023341978 0.20544581 0.039692786 0.010422767 0.12689765 -0.094948195
0.14973634 -0.16600238 -0.014582511 0.67101425 0.09103832 -0.26104903 0.13637774 -0.031689584
-0.0867679 -0.20325394 -0.12639171 -0.20425653 0.87049574 -0.0035623729 0.06810706 0.10909011
-0.13482761 -0.19926682 -0.12849228 -0.086462446 0.23801355 0.12870787 0.12243998 -0.20468429
-0.015777204 -0.17689769 0.112360284 0.15280841 0.081783846 -0.31806612 -0.19665727 -0.12866323
0.004271241 -0.06335726 -0.20274442 0.13673346 0.066315524 -0.39293 -0.13546357 -0.010964487
0.18096423 0.12355673 -0.0113157565 0.019199666 0.078111626 0.2435607 -0.14370833 -0.021365847
0.0025025574 -0.23335208 -0.096679665 0.07135592 0.024591878 -0.5917668 0.052797083 0.021506611
-0.052411605 -0.18632026 -0.847528 -0.09127876 -0.15339445 0.024175823 -0.11120329 0.10052736
0.09134489 -0.30511853 -0.055442397 -0.053586457 0.043343384 0.2434913 0.019019863 -0.18371068
-0.20367345 0.09803478 -0.015877405 0.26556966 -0.17871729 0.057156663 -0.09884084 0.24718012
-0.17210571 0.025970768 -0.083581366 0.07442376 0.047741234 -0.24859828 -0.0932804 0.21338876
0.014737838 0.27264544 0.15178597 0.10625036 0.2154353 -0.062296618 0.072567016 0.16370699
-0.14366248 0.16590291 0.08087302 -0.14544958 -0.1564422 0.04335871 -0.0031365736 -0.14534983
0.1361187 0.038591173 -0.12700088 -0.33470172 0.15669207 -0.24945281 0.12563479 -0.22568445
-0.03427802 -0.2719269 -0.3356025 0.07881784 0.22519316 -0.29809394 0.033817116 -0.7972405
-0.14810348 0.20340927 0.19573459 0.10165066 -0.25871342 0.22364263 -0.10243218 -0.103072174
0.07922887 -0.2898718 0.06298346 -0.62258404 0.11670584 -0.22405273 -0.16250882 0.029020945
-0.023057267 -0.19808942 0.18041094 0.05004623 0.025341643 0.29187348 -0.029850204 -0.12431945
-0.00030292966 0.6469473 0.2510686 0.08585165 0.13442746 -0.2808782 -0.2891389 0.1260023
-0.110450156 0.00801582 0.039634522 -0.33174875 0.21690804 -0.17516384 0.021981696 -0.23486595
-0.10788002 0.25416046 0.11685638 -0.09091353 -0.091403075 0.0530176 0.14226067 -0.04193796
2.559235 -0.010720422 -0.060579397 -0.0071861176 0.18212575 0.22536363 0.062756546 0.26054862
0.23560753 -0.19266255 -0.006382162 0.44700408 0.15328747 -0.19195108 0.16202794 -0.2916493
-0.07087731 0.2179792 -0.45429665 0.11693465 0.009449237 -0.02904829 0.24997766 -0.20202859
-0.1043379 0.018865036 -0.045002323 -0.25251713 0.1912518 -0.06265388 0.052288476 -0.24778403

rnn.weight_hh_l0 f4 [256, 256]
00000000: d991 0cbc 1ad6 6a3d 494b 7b3d 9851 06bd
00000010: b64c 6dba 08be 423d d013 fb3b 7172 403d
00000020: 3f86 c93c 3c7f 4abd 1752 b6ba db53 22bd
00000030: b8db 8cbd 91ad 843d e3d3 953a ad48 1c3d
00000040: 391d 05bd e031 01bd d1a5 293d cc97 abbc
00000050: 860f b6bc 2cd2 943c 8571 723d b733 08bd
00000060: 70f7 6bbd b98a 1fbd 85a0 8e3a 28b8 eabc
00000070: 9253 3fbd 9a17 9d3c 34fc 283d ed71 d93a
00000080: 56d3 e13c 7e3e b63c 6bb4 eabb 9c6f f9bc
00000090: a1b5 1fbd 06f1 acbb 081b a7bc 8519 bcbd
000000a0: cf32 8cbc 17f8 c3bc ed6d c8bc b700 82bd
000000b0: e737 4cbc d5e4 9dbd 536f a33c 7e0c 403b
000000c0: db9a a4bc 90e1 7ebd ba12 feba 9a3c 0c3d
000000d0: bb75 783c 388e 033d 713a a1bb 761b 433d
000000e0: ce91 5cbc e17d e53b 630a 353c 6269 d63c
000000f0: 290f bc3c 5fea c03c 5dd1 c53c 7881 bd3c
00000100: 6d6b 94bc 9b4a e2bc 9ff8 b83d 67f2 093d
00000110: 9260 273c 9a36 72bc f161 603b 71be 653c
00000120: 4bd8 80bc 2bf9 40bd ec6d 2b3d 6c1d 98bd
00000130: fdae 3ebd cada 303c a3f0 28bd e853 8f3d
00000140: 74bd 813d ff13 07bd 9980 e3bc a74f 363b
00000150: 010b c13c e6e6 803c 7ae8 423d ef3c 8dbc
00000160: 7f66 ebbc 60a2 79bc f8e8 4abd 1c45 9a3b
00000170: 02e2 093d c51b c8bc 7251 05bd 63cc 2c3d
00000180: a623 943c 9bcc 76bd 5339 5b3c 52a9 f2bb
00000190: ec7e e33c 21d0 44bd be55 3bbd c2fc 8e3d
000001a0: 6f4a 023e 36aa c53c 7840 e9bb bd33 90bd
000001b0: abf3 563c afa8 703c 5baa 033d 18d8 43bd
000001c0: 92e6 c3bc a915 ee3c b9f6 4dbc 9baa 263c
000001d0: 7cb7 91bd 3f26 e43c 0d14 2cbd 4d02 b1bc
000001e0: bc46 48bb beed a73d 2941 01bb fbe9 37bd
000001f0: 5248 7d3d 88f3 e2bc 2460 a7bc 69fa c13c
00000200: 3bcd 83bc 41eb 623c 0234 9f3b e356 34bc
00000210: 50c4 633d 85d9 b7bc 3e02 2ebc 5382 973c
00000220: 6a34 31bd f35d 5dbc c155 51bd 39bc 613d
00000230: 82e4 f0bc e2c0 09bd 1435 6fba d399 32bc
00000240: 0881 dc3c bdaa 0dbd 440f d23c 509b 36bd
00000250: 1d32 a93a 4ef1 503b 01a8 03bd 18c6 423c
00000260: 2890 dd3c 5c45 883b f525 da3c 8098 0cbd
00000270: f656 43bd 38f0 3fbc 2259 393d 0e59 43bd
00000280: d74a a2bd 7535 cf3c fe63 8bbd d8dc c2bb
00000290: e43c 653c c6f6 26bd dbe9 1cbd 9915 58bc
000002a0: 98d4 a73c d54f 06bd 61ea cbbc c335 32bc
000002b0: 37e3 0d3d a88f 17bd e61f 983c 660b 2f3b
000002c0: 7fe4 d73b 721a c0bc c149 293d 0759 0bbd
000002d0: bd8d dd3c f25a 4c3b 868f 693d c74c 613d
000002e0: cfff 743c 5086 df39 5d6a a0bc 34cf 0fbd
000002f0: fc86 98bc 5013 bfbc 74eb 373d f72f 273a
00000300: 1241 753a 2d29 57bc 0dc4 b33c f028 1ebd
00000310: 6eed d8bb d725 7d3c 7759 a0bc f68d 84bc
00000320: 675c 83bb 256a 923c 23a7 41bc 88b2 35bd
00000330: ddb8 afbc 88b5 db3b c5eb 06bc b1d7 16bd
00000340: 0e7c 003d 2ae4 0a3d 40ae 2abd 9862 99bc
00000350: 1308 37bd d428 46bb 2428 813d 1464 0b3d
00000360: 7d1d 5e3d 76d3 bcbb 0557 b5bc 4181 7abc
00000370: c4d0 823d b73b 193c 2db5 ed3b 61fb 55bc
00000380: 725b 803b 626f 903b 0de8 5f3d 1aca 223d
00000390: 1fe0 56bb 6f4b 3dbd 8d2f 70bd 3261 3dbc
000003a0: 0be3 36bd 52d0 3d3a 2c88 95bb f5cd a8bc
000003b0: e612 093c 278a 453c d905 a73c b47d 16bd
000003c0: 1d00 353d 9aea 893c 963e 35bc 6f26 a0bd
000003d0: 8cb6 093d 1771 9f3c 7c6e 01ba 7830 293a
000003e0: a20f 1a3b afe4 133c 37b8 0bbd 78da 5dbd
000003f0: 6b48 c83b aa97 263d 8871 d9bc 2e2c 57bd
-0.008579695 0.05733309 0.061351094 -0.032792658 -0.00090522633 0.04754451 0.007662274 0.04698414
0.024600146 -0.049437746 -0.0013909963 -0.039630752 -0.068778455 0.06478418 0.0011430945 0.038155247
-0.032498572 -0.031541705 0.0414179 -0.020946406 -0.022224199 0.018166624 0.059190292 -0.033252444
-0.05760902 -0.038950656 0.0010881579 -0.028652266 -0.04671056 0.019176293 0.041256145 0.0016589739
0.027566593 0.022246595 -0.007162621 -0.030448727 -0.038991574 -0.0052777557 -0.020398632 -0.09184555
-0.017114071 -0.02392201 -0.02446648 -0.063477926 -0.0124645 -0.07709662 0.019950544 0.002930432
-0.020093372 -0.062226832 -0.0019384243 0.03423748 0.015164788 0.032118052 -0.004920297 0.04763361
-0.013462497 0.0070035313 0.01104984 0.026173297 0.022956448 0.023549257 0.024147684 0.023133025
-0.01811763 -0.027623465 0.09031796 0.03367844 0.010215895 -0.014783526 0.0034238065 0.014022456
-0.015728137 -0.047112625 0.041852877 -0.07427487 -0.0465536 0.010794351 -0.041245114 0.06998426
0.063349634 -0.032978054 -0.027771281 0.0027818473 0.023564817 0.015735101 0.04758499 -0.01724097
-0.028735397 -0.015236467 -0.049538583 0.0047079455 0.033662803 -0.024427304 -0.032548375 0.042187106
0.018083405 -0.06025372 0.013380366 -0.0074054385 0.027770482 -0.04805005 -0.045736067 0.069818035
0.12723707 0.024129014 -0.007118281 -0.07041118 0.013119618 0.014688655 0.032144886 -0.047813505
-0.023913655 0.029063063 -0.01257103 0.010172511 -0.07115075 0.027850268 -0.04201131 -0.021607542
-0.003055974 0.081996426 -0.0019722676 -0.044900876 0.06183655 -0.027704015 -0.020431586 0.023678975
-0.016089072 0.013850034 0.0048584947 -0.0110070435 0.05560714 -0.022442589 -0.010620652 0.01849476
-0.043262877 -0.013511169 -0.051107172 0.055111144 -0.029405836 -0.033631213 -0.0009125036 -0.010900932
0.026916996 -0.034586657 0.025642045 -0.04458171 0.0012908612 0.003188211 -0.032142643 0.01188805
0.027046278 0.004158659 0.026629427 -0.034325123 -0.047690354 -0.011714987 0.04525102 -0.04769235
-0.07924431 0.025294045 -0.06806181 -0.005946737 0.013991568 -0.040762685 -0.03830896 -0.013188743
0.020487115 -0.032790978 -0.024892034 -0.010877076 0.034640517 -0.037002236 0.018569898 0.0026709675
0.006588518 -0.02345011 0.041330103 -0.03402045 0.027045125 0.0031182137 0.05702164 0.05500486
0.014953568 0.00042633945 -0.019581968 -0.035109714 -0.018619053 -0.023324639 0.04490228 0.0006377692
0.00093557045 -0.013132376 0.02194407 -0.03861326 -0.0066201007 0.015450916 -0.01957391 -0.016180974
-0.004008818 0.01787288 -0.011819634 -0.044359714 -0.021450454 0.00670499 -0.008234923 -0.036826793
0.031368308 0.033909 -0.041670084 -0.018723771 -0.044685435 -0.0030236738 0.06306484 0.03403099
0.05422734 -0.005762513 -0.02213622 -0.015289606 0.06387475 0.009352616 0.007254264 -0.013060422
0.003917151 0.004407809 0.05466466 0.03974352 -0.0032787395 -0.046214517 -0.058639098 -0.011558818
-0.04465012 0.000724082 -0.004563352 -0.02060602 0.008366322 0.012056864 0.02038853 -0.036740974
0.04418956 0.0168355 -0.011062285 -0.078198306 0.033621356 0.019463105 -0.0004937423 0.0006454061
0.0023507853 0.00902669 -0.034111228 -0.054163426 0.0061121485 0.040671982 -0.026543394 -0.052532367

rnn.bias_ih_l0 f4 [256]
00000000: b5f3 383d c900 68bd 5ab9 a8bc b66e 57bb
00000010: 7e78 ddbc 0034 25bd 0d26 64bd 982d 973c
00000020: 8002 7a3c 3861 913b 3245 f63c 4651 533d
00000030: 214a 1abc b0c8 2e3d b1be 8ebc c386 8cbc
00000040: d315 6c3c 391f 253d c451 18bd ecb7 6fbc
00000050: b1df 71bb 3b14 80bd 3a3b f23c 6bb8 273d
00000060: 068c fd3c 2012 0dbd 86b3 383d f1e2 b23c
00000070: 0053 573c 5f58 20bd d7a1 4cbc 9bec 1abd
00000080: c330 ae3b a102 6ebc 5d15 f3bb 25b9 a0bc
00000090: 35dd b13c 7499 c73d 8707 fd38 8306 913d
000000a0: 621d 503d 7a31 3bbd 6935 d33c ee67 e1bb
000000b0: 6215 173b 6b65 883d dfd6 f93c d775 8dbd
000000c0: 5242 963c ec19 4d3d 851a cdbc 2fc6 76bb
000000d0: d687 2f3c 58ef 71bd 1dce ca3c 558f 27bd
000000e0: f586 603d fcad b93c 52bc a5bc c654 8ebd
000000f0: b264 87bc a580 1f3c 4ed0 6ebc d30e 083d
00000100: ac1f 283c e8d1 18bd 39cc 27ba 912e 48bc
00000110: 0ca1 88bc 7465 01bd ea28 db3c 0e4d 6d3c
00000120: dfba 5bbd acfb d8bc 1ad5 5b3c a3fd 07bb
00000130: 5440 cebc e8fc a3bd efaa 5b3d b498 47bd
00000140: 7c00 9ebc 4aec c1bc 40b1 763c f1b0 893d
00000150: 09a5 0dbc 136f 0b3d e038 03bd 49c2 9a3c
00000160: a898 8bbd 9866 78bb 9415 233c b2eb 9a3d
00000170: 21c2 84bc 69d1 163d 4fa6 a63d 1100 ab3c
00000180: 46a5 8c3d 578f 713d 6532 9fbb 7d27 7d3c
00000190: 28ed 78bd 0588 883b d2c8 8abc 7112 19bd
000001a0: 24f0 283c 6416 b2bc 0ae8 2e3d c72d 7a3c
000001b0: 95fa 4cbd 73c1 a73c 6843 42bd 86f4 dd3c
000001c0: dcf6 f03c 6383 e83c 59d0 19bc cb52 debc
000001d0: 98ff 7b3c 1fb9 7c3c 38f3 83bc 8e46 37bc
000001e0: 0873 88bd 10a3 963c 1be8 8bb9 38da 89ba
000001f0: 30b6 95bc bb13 b83c 5b07 60bb e259 aebc
00000200: 22a9 39bd 3bce 4bbd 3f0b 053d e22e 4e3d
00000210: 57b0 8ebd 9805 833d 4706 f63c 4836 d83c
00000220: 0331 eb3c 290c 84bc 5c6b d3bc 7243 60bd
00000230: 23d0 d03c f5f8 0f3d b5a9 333d c9ab 8f3d
00000240: c694 09bd ba38 073c de6b 91ba 88fe 4fbc
00000250: 0972 5ebd d53c 22bd d06c 0dbd 2aa8 853d
00000260: e13f 13bd d661 d53c 8eb2 3fbc e689 953d
00000270: e002 bb3c daec 153d 6b26 513d e0e5 f93c
00000280: 3631 e3bc 2323 87bc a62b 85bc 83ae 463d
00000290: 5489 7fbb d435 a2bd 2dcb a73b 8173 893d
000002a0: 55b0 b03d ac32 33bc af46 913d 582d 32bb
000002b0: 5673 693b f41d a43c 9870 5dbd c9bf 8e3c
000002c0: 11e7 bdbc 40a1 b03b a849 76bd d536 763b
000002d0: c1ee dcbb 4b64 2d3d 2982 05bd 93aa 2fbd
000002e0: 4d50 95bb a5b8 49bc 70a5 533c 5598 e5bc
000002f0: 74b3 8bbd fbda ad3b 3fe1 e3b9 7a94 fe3c
00000300: 2f4d b53b df13 933b 7e88 4d3a a732 303d
00000310: 7105 163d d23f afbb 9880 973d 6714 bc39
00000320: c999 1f3c 8636 ef3c f490 aa3c 6624 693c
00000330: 1304 603d f1e1 77bc d896 24bd 6b5d 743d
00000340: 9cc2 053c 0258 b73c e4c9 b63c b553 36bd
00000350: e547 993d e8ef 263b 827c 513d 4dba 8dbd
00000360: 7ec7 ebbc 97de 6f3c 32de a13d c2bd 82bd
00000370: 5dac 00bd c8f7 f7bc d8b3 44ba a6ef 64bd
00000380: 303f cb3c fd3e a7bb 5566 2a3d e3b5 54bd
00000390: 3b77 f63b a1f7 c83c a9aa ca3a d71c 1b3c
000003a0: 6806 b33c bd2c a63c fdde c83b d29f 4e3d
000003b0: 4994 903c a389 8f3b de49 033d 5c40 8a3c
000003c0: e6b7 8fbd 69fe 4cbc 1451 2f3c 0267 82bc
000003d0: 8438 c2bc f842 5a3d ea2d 853d f2d3 053b
000003e0: 41ec 513d c281 76bd 1cf0 883c 0e8d bebb
000003f0: 6f74 edbc eb55 e8bc 8c3a e2bb c152 003d
0.045154292 -0.056641374 -0.020596195 -0.0032872385 -0.027034994 -0.040332794 -0.05570035 0.018454358
0.015259385 0.004436638 0.030062292 0.05159118 -0.009417088 0.04267186 -0.017424913 -0.017154103
0.0144095 0.04031298 -0.037187353 -0.014631253 -0.0036907012 -0.06253859 0.029569257 0.04094736
0.030950557 -0.034441113 0.045093082 0.02183673 0.013142347 -0.039146777 -0.0124897575 -0.0378233
0.0053158714 -0.014526994 -0.007418318 -0.019619534 0.021711925 0.09746066 0.00012065382 0.0708132
0.05080927 -0.04570148 0.025782304 -0.0068788445 0.0023053517 0.06659969 0.030497966 -0.06907242
0.01834217 0.05007355 -0.02503706 -0.0037654748 0.010713538 -0.059066147 0.024756486 -0.040908176
0.054816205 0.02266597 -0.0202314 -0.06949763 -0.016527507 0.009735261 -0.014576031 0.033217262
0.010261457 -0.037309557 -0.0006400976 -0.012218134 -0.016678356 -0.031590894 0.026752908 0.014483703
-0.05364501 -0.026487194 0.013417507 -0.0020750544 -0.025177158 -0.080072224 0.05362981 -0.048729613
-0.01928734 -0.023672242 0.015056908 0.06723202 -0.0086453045 0.034041476 -0.032036662 0.01889147
-0.06816226 -0.0037902948 0.009953875 0.075644866 -0.01620585 0.036820803 0.081371896 0.020874055
0.06867461 0.05897459 -0.0048583024 0.015451309 -0.060773045 0.0041666054 -0.016941462 -0.037371103
0.01031116 -0.021739192 0.04270176 0.015269703 -0.05004366 0.020477986 -0.047427565 0.027094137
0.029414587 0.028382963 -0.009388053 -0.027139088 0.0153807625 0.015424996 -0.016107187 -0.011186255
-0.066625655 0.018388301 -0.00026685078 -0.0010517305 -0.01827535 0.022470346 -0.0034184072 -0.021283094
-0.045327313 -0.049757224 0.03248143 0.05033768 -0.06967228 0.06397551 0.03003229 0.02639307
0.028709894 -0.01611908 -0.025808029 -0.05475182 0.025489872 0.035149533 0.043863017 0.07015187
-0.033589147 0.008253271 -0.0011094769 -0.012694962 -0.05430797 -0.039608795 -0.0345276 0.065262154
-0.03594959 0.026047628 -0.011700286 0.07301693 0.02282852 0.036602832 0.05106203 0.03050512
-0.027733427 -0.016496247 -0.016256165 0.04850627 -0.0038991766 -0.07920423 0.005120656 0.06711484
0.08627383 -0.010937374 0.0709356 -0.0027187672 0.0035621724 0.020033814 -0.054062456 0.017425435
-0.02318147 0.0053903162 -0.060128838 0.0037569304 -0.006742329 0.042331975 -0.032594834 -0.04288728
-0.0045566917 -0.012312089 0.012917861 -0.02802674 -0.06821337 0.0053056455 -0.00043464635 0.031076659
0.0055328826 0.004488453 0.00078404683 0.043017056 0.036626283 -0.005348184 0.07397574 0.00035873355
0.009741255 0.029200803 0.020821072 0.0142298695 0.054691385 -0.015129552 -0.04018292 0.059659403
0.008164074 0.022380833 0.022313066 -0.044513423 0.07484416 0.0025472585 0.05114413 -0.069203
-0.028781649 0.014640472 0.079037085 -0.0638385 -0.03141438 -0.030269518 -0.00075036054 -0.05589261
0.024810404 -0.0051039443 0.041601498 -0.051931273 0.0075215376 0.024532141 0.0015462238 0.009467325
0.02185364 0.020285005 0.006130098 0.050445385 0.017648833 0.0043804212 0.032052867 0.016876392
-0.07017498 -0.012511828 0.010700483 -0.015918259 -0.02370859 0.053286523 0.06502898 0.0020420519
0.0512507 -0.06018234 0.016716056 -0.005815155 -0.028986184 -0.028361281 -0.006903952 0.03132892

rnn.bias_hh_l0 f4 [256]
00000000: 34da 00bc 0bc8 a03c f5b0 f13b 03eb 5f3d
00000010: 7b13 0c3d d459 49bc 7c5c fdbc 30ae c9bc
00000020: ebef f7bc e63a e83c 1365 643d 127a 833d
00000030: 45ea 573d d8cd e7bc c83a c73d ab51 c6bb
00000040: ed4d e0bc 8104 183d ea52 78bd f6fb a63d
00000050: acd5 c13c 1adf ea3b eaaa a93b db73 83bc
00000060: 6cdb 2e3d 85a2 9bbc 44a6 43bc 15e3 22bb
00000070: 64a4 243d 51d6 dabc 6c51 57bd 6146 4d3d
00000080: f8d4 0dbd ce62 893d 08d7 983c 776e 39bc
00000090: 679b 9e3c bffb 863c 0f23 8d3c e7ac d43c
000000a0: ca88 50ba 25ec 413c 414a d6bb 6932 963d
000000b0: bee0 3f3d bae5 993d f370 b8bc f34f 3bbc
000000c0: fed7 8dbd 1157 1cbc 52c1 4ebd 2cdd 96bd
000000d0: 9e0a 0a3c 863b 91bd c08d 423d 3bf2 afba
000000e0: 8378 573d 9f1a fdbc 6ebc 973d 337b 8cbd
000000f0: 1c1e a83b abe5 84bc d97e adbc 7a0a 6f3d
00000100: 9270 ddbc 233e 8f3c c646 ffbc 2b5d c7bc
00000110: 6e0d 80bd 40bb 883d 8dc8 7e3d e190 15bd
00000120: 6a1a 5e3c 247f 833c 6892 90bc 758a 693d
00000130: 3a26 ea3c 8b75 163a 930d 89ba d87e b13c
00000140: 0db3 21bd dc33 a43d f451 a73d de75 d93b
00000150: 4974 a23d 33e0 273c 088a 8bba 7c9a 1a3d
00000160: 7805 c33b dc17 5c3c 453b 1f3d 7db4 dabc
00000170: 06c9 143c 4762 543d 1fba c9bc 1a1e e3bb
00000180: 37ed cabb d213 c9bc 105c aebd 0efa 47bb
00000190: e4ce d7ba ad1c 923c b8c0 2e3d cdc1 51bd
000001a0: c6e6 4d3c 97f9 323c e8c2 453d da78 a23d
000001b0: 1c7f e13c 4550 20bc b0b0 b5bc ef5b 7dbc
000001c0: a379 193d 6f01 53bd d54c 79bd 5321 0d3b
000001d0: 0882 4a3d 7732 62bb ffac 793d 56b6 883d
000001e0: 610d 6bbc 6700 a6ba cd7a d23b 45a8 8abc
000001f0: 832b b23b b9a4 0fbc cb81 fb3c b55f 0c3d
00000200: 32e6 233d b356 0bbd a7a0 593c 3e2a 903d
00000210: daac 1abd 8fe4 5abc c524 0b3d 79bf 42bd
00000220: 0b24 2abc 1579 253c dc01 d2bc f8bb 033d
00000230: 6de6 a7bc 013d 28bd b2e4 013d a199 623d
00000240: 8d06 adbc 3c8e 803c 8b36 9ebb 57d3 95bc
00000250: 63b4 df3c 4af6 c2bb b898 513d 8580 0bbc
00000260: adf7 98bd ad84 2c3d 5ae9 80bd efa9 6fbc
00000270: 4d38 0ebd b4c4 1c3d b7fa 163d e34d 5f3d
00000280: 9cf1 eabc 4f3a bebd 983a 023d b395 373d
00000290: 8d47 85bc 2d4b 9dbc 775a 6c3c 9357 9cbc
000002a0: 2ee9 0cbd b44a 9c3b e1c7 03bd 9cde fb3c
000002b0: 6444 9dbc cd5a 30bd ed22 703b 4b53 c83c
000002c0: 8956 fdbc da7c 4d3d 0922 f939 23ee ee3c
000002d0: 243e 7cbd 703c 653c 1829 dbbc f1a6 46bb
000002e0: 2207 a53c 6fdd 623c 1db1 b9bc 1d3d d13a
000002f0: c2d8 6bbd 6fb9 853d f299 90bd d267 05bc
00000300: b3f2 b3bc 6c6d 33bd 36e8 ab3a d9e7 47bd
00000310: 8fa4 8e3b 2365 5dbd 9fdf 6c3d e1e3 703d
00000320: a041 dd3c 54af 313b 720d b93c 4938 073d
00000330: 5166 b63d 3695 f9bc e9fa fb3c 5246 ec3a
00000340: 7179 bd3c 7eee 85bd 0cf1 de3c 20ef d0ba
00000350: 8808 ddbc 4e4c 48bd 92ac 1abd 25c3 163d
00000360: 0de7 e6bc 727a 203d d7a6 533d dbbb 663d
00000370: 70d9 433c 6167 fbbb 7fcb 7bbc 20e4 9cbc
00000380: 9d14 36bd 33e5 2e3d 531a 27bd a984 84bd
00000390: dcce 7d3d d393 303c 5c32 223d ccc1 e33c
000003a0: 7c23 7c3d 18cb 74ba 6247 5fbd e867 0d3d
000003b0: ae6e 5ebd c7ad 78bc 0209 7bbd acc7 d0bb
000003c0: e297 e9bb 755e 57bd 5492 8bbb 77ce 473d
000003d0: d768 a03d 0e59 bb3c 8af3 f53a 6104 1f3d
000003e0: 1a72 863d 2822 fcbb 0219 c33c 7559 8c3d
000003f0: eecd deba 1265 633c 168e 173c 59d0 2b3d
-0.007864524 0.019626638 0.0073758313 0.054667484 0.034198266 -0.012289483 -0.030927889 -0.024619192
-0.030265769 0.028348397 0.055760454 0.064197674 0.05271365 -0.028296396 0.097280085 -0.006052216
-0.027380908 0.03711367 -0.060625948 0.081535265 0.023661457 0.007167709 0.0051778452 -0.016046455
0.042689726 -0.018998394 -0.011941496 -0.002485459 0.040195838 -0.026713522 -0.052567884 0.050115947
-0.03462693 0.067082986 0.018657222 -0.011317841 0.019361211 0.016477464 0.017228631 0.025961353
-0.00079549535 0.011836086 -0.0065396135 0.07333834 0.04684519 0.0751452 -0.022514796 -0.011432636
-0.06925963 -0.009542243 -0.050477333 -0.07366404 0.008425383 -0.07091431 0.047498465 -0.0013423631
0.052605163 -0.030896483 0.07408987 -0.06859436 0.0051305424 -0.016222795 -0.02117865 0.0583596
-0.027031217 0.017485684 -0.031161677 -0.024336418 -0.062525615 0.0667634 0.06220298 -0.03651512
0.013556102 0.016051836 -0.017647937 0.05701681 0.028582681 0.0005739561 -0.0010456316 0.02166693
-0.039477397 0.08017704 0.08169928 0.0066363653 0.07932336 0.010246324 -0.0010645995 0.037744984
0.0059515797 0.013433423 0.038874883 -0.026697392 0.009081131 0.051851537 -0.024624882 -0.0069310786
-0.006192829 -0.024545584 -0.08513653 -0.0030514034 -0.0016464856 0.01783594 0.04266426 -0.051210213
0.012567228 0.010923765 0.04828158 0.07933207 0.02752643 -0.009784763 -0.022178978 -0.015463813
0.037469517 -0.05151504 -0.06086429 0.0021534755 0.049440414 -0.0034514943 0.060955998 0.06675403
-0.0143464515 -0.0012664915 0.0064233304 -0.01692594 0.005437316 -0.0087673 0.030701539 0.03427096
0.040014453 -0.03401823 0.013282931 0.07039307 -0.0377625 -0.013360157 0.033970613 -0.047545884
-0.01038457 0.010099669 -0.025635652 0.032161683 -0.020495618 -0.041073803 0.03171224 0.055322293
-0.021121288 0.015692823 -0.0048282794 -0.018289251 0.027307695 -0.00594977 0.051171035 -0.008514528
-0.074691154 0.042118717 -0.06294508 -0.014627918 -0.03472166 0.03827353 0.036860194 0.054517638
-0.028679661 -0.09288465 0.03179416 0.0448205 -0.01626947 -0.019200886 0.014425865 -0.019084727
-0.034402065 0.0047696475 -0.03217304 0.030745797 -0.01919765 -0.043055344 0.003664191 0.02445378
-0.030925052 0.050167896 0.0004751834 0.029166287 -0.0615827 0.01399146 -0.026752993 -0.0030311907
0.020145003 0.013846739 -0.022667462 0.0015963648 -0.057579763 0.06529509 -0.07060613 -0.0081424285
-0.021966314 -0.043805525 0.0013115469 -0.04880509 0.004353113 -0.05405153 0.05783045 0.058811072
0.027008832 0.002711256 0.022589419 0.033012662 0.08906234 -0.030466657 0.030759292 0.0018026328
0.023129197 -0.065396294 0.02721455 -0.0015940405 -0.026981607 -0.048900895 -0.037762232 0.036807198
-0.028186345 0.039179273 0.051672783 0.056331497 0.011953697 -0.007672236 -0.0153683415 -0.019151747
-0.044453252 0.04269905 -0.04079659 -0.064706154 0.061964855 0.010777432 0.039598808 0.02780237
0.061557278 -0.00093381247 -0.054511435 0.03452292 -0.05430477 -0.0151781505 -0.061287887 -0.006371459
-0.0071287015 -0.052580316 -0.004259387 0.048780885 0.078324966 0.022869613 0.0018764597 0.038822535
0.06564732 -0.0076945014 0.023815636 0.06853 -0.0016998628 0.0138790775 0.0092501845 0.041946743

out.weight f4 [2, 256]
00000000: 5ecf 5639 e0f7 9dbd 6f04 1a3d cc2a 973c
00000010: 81f4 0d3d 9d67 9d3c c1d7 973c 8b4c 5ebe
00000020: 1c17 44bb 5d5f 283d 9db4 67bc f206 09ba
00000030: a5ed 023d a76d 513c 57b2 373c 8cf5 4cbc
00000040: 495d 39bb ac03 543d c8be e7bc 96f0 1fbd
00000050: 2a42 4e3d 539a 7fbd e280 f03b 4667 8fbc
00000060: 221a f03c 2aa6 edbc 0745 22bd 773f 87bb
00000070: fc3e bbbc 7b9e 393d c225 373c ed3a 97bc
00000080: e4a7 033d 9656 e73c ffd6 f83c 628a 9cbc
00000090: bfe1 563d 9193 153d 579d a0bd e8bb 20bd
000000a0: 79de 96bc 85e6 19bd 69ad 6b3c 794c 133d
000000b0: bc2c de3c 7564 5a3c c43f 29bd cfa9 0e3d
000000c0: 0a48 883b 361c 1fbb 708e 753d cba1 8b3d
000000d0: e527 ff3c b527 d33c 556a f53c 0969 a03b
000000e0: b3c8 c63c a40f b2bc f001 5e3d 44e7 a7bc
000000f0: 575d 9e3c bb02 423b d6b1 4eb9 4e6c 373d
00000100: 20c5 ebbc 931f 64bc a8e1 eb3c 7ca6 7b3d
00000110: 6fa3 2b3d f728 fc3c 60f8 193d 2dd4 a43d
00000120: 7cf1 b4bc eed3 38bc a17e 373b 12a3 49bc
00000130: 19c3 ac3d ebe0 dabc 0a8f 103c 5c20 0abd
00000140: f825 66bd 1cff dcbb c4de 7abd 8226 253b
00000150: b2c0 cf39 32f4 32bd 732e 2fbd 209c 1abd
00000160: e288 b6bc 7cc5 c53c a392 63bc e52d 893d
00000170: 77e1 cabb 2701 dbb9 43ad 34bc 2ba6 a73c
00000180: 43fe 65bd 92e4 93bc d933 053c 335e 51bd
00000190: 51cb 5e3c dc42 da3c 7242 77bd 5b6d 67bd
000001a0: ff84 87bd 7d0b 9fbb 70a7 55ba 7a4e 3bbd
000001b0: ea3d 78bb 57d0 2fbb c2ad 75bc 17e1 34bb
000001c0: dd78 6d3f f1ea 7d3d d16e 1ebd a894 ec3b
000001d0: 1a88 cc3c 2539 483a 85e6 cc3b cdfc b53c
000001e0: 8cf8 da3c 2b6b 943c 7663 303d ba26 6ebb
000001f0: d779 8d3b fe18 f73b e3c4 5cbb 755f 00bb
00000200: da4d 7c3d 3f21 bbbc 11b2 acbc f054 16bd
00000210: 6fe1 56bc d181 4c3d f48f c8bc a62e b6bc
00000220: 2084 0ebd 1329 953d 4a9b 3b3c 9112 f5bb
00000230: b39f dc3c c359 f63c e05f 2dbc 5986 ab3c
00000240: 8b15 4bbe 9e9a e2bc ad24 443d e680 373c
00000250: fe5b af3c a2cb 8abc b63a dabc acb4 1ebd
00000260: 9877 40bd 4888 aebc 8dba 453c bec1 5cbd
00000270: 24c6 28bc 2a46 ab3c 5403 453c 1d47 77bc
00000280: 7840 ba3e 37ec 28bc 1edb cfbc 367c 5ebc
00000290: 0657 72bd bc6c 003d c2be 5d3c 6d1e 42bd
000002a0: 6e91 3bbd 6fe7 b73c a53c 4c3d 3f02 c73b
000002b0: 125b 17bc c62a 6ebc 4d96 c53b ca0f 0e39
000002c0: 1c3e 30bc fdf5 29bd 0dc7 863d 146e a53c
000002d0: 0bdb d2bd 8a7d a23c ac9c a73d 287e 963d
000002e0: cc51 6dbd ea69 36bc 00c1 eebb 90c9 71bd
000002f0: 79c0 723b 3414 78bb 516d 23bb 965c 9aba
00000300: d639 b3bc 260c 16bd 51d1 443d 3fed cbbc
00000310: d02c 61bd 8cdb 7ebb 7201 f9bd 650c 89bc
00000320: e009 a139 20ca 423d 1b75 043d a4e2 0bbd
00000330: 3ed5 45bc 1e20 02bd 119d 3f3d 7f32 feb9
00000340: 2e27 873c 175b 423d 92b4 293e 7329 35bc
00000350: 9a83 05bd 55ca 073d 59c3 51bc b40f 613c
00000360: 3976 8e3c 2676 1c3d 87dd 913c eca5 ebba
00000370: 68ba 99bc 7dc3 e0bc f72a 39bd 7714 56bd
00000380: df3e 25bd 7773 29bd 49e3 12bd 94eb a63b
00000390: 3396 32bb 175a eebd 20c4 c1ba fcd4 87bb
000003a0: e4e5 f23c 3e0a 853c 9e14 e0bc 8475 253b
000003b0: 93b7 493c cf0b 513d ab5e c43b ec1f ce3a
000003c0: 1fe3 523c 7642 463d c315 5abd 7117 d03d
000003d0: e978 2fbc 28f4 5c3c 5a1f d5bc ff02 f53b
000003e0: 971a babc 36d9 19bc d1f8 a03a 021f a23c
000003f0: b242 98bb a83d e03b 888b 013d 696c bb3c
0.0002048588 -0.07713294 0.037601884 0.018453024 0.034657005 0.019214446 0.018535497 -0.21708886
-0.0029921 0.04110657 -0.014142183 -0.000522717 0.031964917 0.012782491 0.011211953 -0.012509715
-0.0028284362 0.051761314 -0.028289214 -0.0390478 0.050356068 -0.062403034 0.007339583 -0.0175053
0.029309336 -0.029009897 -0.03961661 -0.0041274386 -0.022857182 0.045317154 0.011178436 -0.018460715
0.032142535 0.02823953 0.030375956 -0.019108955 0.052461382 0.036517683 -0.0784251 -0.0392417
-0.01841663 -0.037573356 0.014384606 0.035961602 0.02712094 0.013329615 -0.041320577 0.03482991
0.0041589784 -0.002427829 0.059950292 0.06817969 0.031146953 0.02577577 0.02995793 0.0048953337
0.024265623 -0.021735974 0.054201066 -0.020496018 0.019331617 0.0029603678 -0.0001971194 0.04478102
-0.02878052 -0.0139235435 0.028794125 0.06143807 0.04190391 0.030781252 0.037590384 0.08048282
-0.022087805 -0.011280997 0.002799906 -0.012306945 0.084356494 -0.026718577 0.008823166 -0.033722267
-0.056188554 -0.0067442786 -0.061247602 0.0025199954 0.00039625686 -0.043689914 -0.042768907 -0.03774655
-0.022282068 0.02414202 -0.013889941 0.06698207 -0.0061914283 -0.00041771794 -0.011027637 0.020464977
-0.056150686 -0.018053327 0.008130037 -0.051115226 0.013598279 0.02664321 -0.0603661 -0.056500774
-0.06617164 -0.0048536644 -0.00081502553 -0.045729138 -0.00378787 -0.002682706 -0.01499504 -0.0027599984
0.9276255 0.061991636 -0.0386799 0.0072198696 0.024967242 0.000763791 0.006253066 0.022215271
0.026729845 0.018117508 0.043063603 -0.0036339 0.004317503 0.007540821 -0.003368669 -0.0019588147
0.061597683 -0.022843001 -0.021081002 -0.036702096 -0.013115271 0.04992849 -0.024482705 -0.02223904
-0.034793973 0.07283225 0.011450598 -0.00747902 0.02693162 0.030072099 -0.01058194 0.020938085
-0.19832437 -0.027661618 0.04788654 0.011200165 0.02140617 -0.016942803 -0.026639324 -0.03874652
-0.046989053 -0.021305218 0.012068403 -0.053895704 -0.010301147 0.02090748 0.012024719 -0.015092638
0.3637731 -0.010310224 -0.025373038 -0.013579419 -0.059165023 0.031353697 0.01353425 -0.047392298
-0.04579299 0.022449223 0.049862523 0.006073266 -0.009238021 -0.014536565 0.00602988 0.00013548057
-0.0107569955 -0.04149436 0.06580935 0.02019409 -0.102956854 0.019835252 0.0818418 0.07348281
-0.057939336 -0.01113365 -0.007286191 -0.059030116 0.0037040992 -0.003785384 -0.0024936984 -0.001177686
-0.021878164 -0.03663268 0.048051182 -0.024893401 -0.054974377 -0.0038888184 -0.12158479 -0.016729543
0.0003071567 0.047556043 0.032338243 -0.03415169 -0.012074767 -0.03176891 0.04678065 -0.00048484278
0.016498175 0.04745015 0.16572788 -0.011057246 -0.03259621 0.033151943 -0.012802922 0.013736654
0.017390357 0.038198613 0.017805828 -0.0017978526 -0.018765643 -0.027436966 -0.04520699 -0.05226561
-0.04034316 -0.04136988 -0.035861287 0.005094001 -0.002725017 -0.11638277 -0.0014783181 -0.0041452628
0.029650636 0.016240235 -0.027353581 0.0025247047 0.012311834 0.051036652 0.0059927306 0.0015726066
0.012871533 0.048403226 -0.05324341 0.10160721 -0.01070998 0.013485946 -0.026015926 0.007477164
-0.022717757 -0.009390166 0.0012281184 0.019790176 -0.0046466226 0.0068432875 0.031627208 0.022878842

out.bias f4 [2]
00000000: dbb7 5b3b 5a86 8bbc
0.0033526334 -0.017031837
