rnn_weights_3/weights_32_uniform_g0.9_tanh_flip_flop.pt (torch, 7870 bytes, 6 tensors)

rnn.weight_ih_l0 f4 [32, 2]
0	0x3e3a21bc	0.18176931
1	0xbe30af35	-0.17254336
2	0x3e194801	0.14968874
3	0x3f1095ad	0.5647839
4	0xbd2f4d9f	-0.042798635
5	0xbe2efe87	-0.17089282
6	0xbe933b83	-0.2875634
7	0xbe66fb8c	-0.22556895
8	0xbd927be1	-0.07152534
9	0xbe9eb330	-0.30996084
10	0x3ecf4e37	0.4048936
11	0x3e2d93c7	0.16950904
12	0x3e8d2ab9	0.27571657
13	0xbd0d740f	-0.03453451
14	0x3e351d7e	0.17687032
15	0xbcc5c40d	-0.024141336
16	0x3e668e18	0.22515142
17	0xbe1778f8	-0.1479224
18	0xbd8ad8d1	-0.06779636
19	0x3ec8a453	0.3918787
20	0xbeb05aca	-0.34444267
21	0x3d005ed8	0.03134045
22	0xbd0df5f3	-0.034658384
23	0x3eb9fe0f	0.36326644
24	0x3db81f84	0.08990386
25	0xbf365011	-0.7121592
26	0x3e3d32e0	0.18476439
27	0xbef7cf35	-0.48400274
28	0x3c0accf0	0.0084717125
29	0x3e15fd55	0.1464742
30	0x3edf95ff	0.43669125
31	0xbc148a42	-0.009066166
32	0xbd2daf32	-0.042403407
33	0x40043d67	2.0662477
34	0xbfc3cdc9	-1.5297176
35	0xbcbe435e	-0.023225483
36	0x3e39ae0f	0.18132804
37	0x3e81043e	0.2519855
38	0x3f295375	0.6614297
39	0xbdf31136	-0.11868517
40	0x3de32f6f	0.110930316
41	0x3f5e6a26	0.8688072
42	0xbe8d8a7d	-0.2764472
43	0xbe2c1da8	-0.16808188
44	0xbc87812b	-0.016541084
45	0x3f2fc0d0	0.68653584
46	0xbfd73e5c	-1.6815906
47	0x3d22a1cf	0.039705094
48	0x3de282f5	0.11060134
49	0x3e978196	0.29591054
50	0xbf02f2c2	-0.5115167
51	0xbbc75ff2	-0.0060844356
52	0xbf36b154	-0.7136433
53	0xbd680597	-0.056645956
54	0xbe0131d6	-0.12616667
55	0x3e4b659b	0.19862978
56	0x3dce212d	0.100649215
57	0x3e8553e2	0.2604056
58	0xbeb15b83	-0.3464013
59	0xbe013156	-0.12616476
60	0x3f192c96	0.5983366
61	0x3a26f40c	0.0006368763
62	0xbeb0b54b	-0.34513316
63	0x3e41bbd0	0.18919301

rnn.weight_hh_l0 f4 [32, 32]
0	0x3d7a80f3	0.06115813
1	0xbd57ecad	-0.052715946
2	0x3dfa7d3f	0.1223092
3	0x3c471dbf	0.012153088
4	0x3df92f49	0.12167222
5	0x3dcf7c6b	0.10131153
6	0x3d286cc7	0.041119363
7	0x3e01106f	0.12603925
8	0xbdb781dd	-0.08960316
9	0xbd8d2337	-0.06891482
10	0x3d732c19	0.059368227
11	0xbe04683a	-0.12930384
12	0xbd84dcbf	-0.064874165
13	0xbd4560c9	-0.048188005
14	0x3d68a9ef	0.056802686
15	0x3e014bfd	0.12626643
16	0xbc3e969d	-0.011632589
17	0x3e933716	0.28752965
18	0xbe30f133	-0.1727951
19	0x3e434f32	0.1907318
20	0xbce7f8fe	-0.02831697
21	0x3d9f0b0a	0.077657774
22	0xbdfc4daa	-0.12319501
23	0xbe05106a	-0.12994543
24	0xbca44eb0	-0.020057052
25	0x3d992059	0.07476873
26	0x3e3e2359	0.18568172
27	0xbe0293f1	-0.12751748
28	0x3d9c27ec	0.07624802
29	0x3e25f169	0.16205372
30	0xbe35c862	-0.17752221
31	0xbe074e6a	-0.13213506
32	0x3d6306e4	0.055426493
33	0x3e1bdaed	0.15220232
34	0xbdaadc4d	-0.083428
35	0xbdb91549	-0.09037263
36	0x3d452b76	0.04813715
37	0x3cfcbcba	0.03085171
38	0xba10063d	-0.00054940936
39	0x3cecf173	0.028923726
40	0xbe0b734b	-0.136182
41	0x3e5a3b42	0.21311668
42	0x3e433182	0.19061854
43	0x3e2a37f8	0.16622913
44	0x3d593895	0.053032476
45	0xbdec9c56	-0.11553256
46	0xbc9dd07f	-0.019264458
47	0x3c5ece43	0.013598981
48	0x3d263720	0.040579915
49	0x3c033d83	0.008010271
50	0x3e668901	0.225132
51	0x3d12b839	0.03582022
52	0x3df7ea46	0.12105231
53	0xbe186714	-0.14883071
54	0x3dd13e3e	0.1021695
55	0xbc69ecf1	-0.014277683
56	0x3c6f7717	0.014615796
57	0x3e09f227	0.1347128
58	0xbd441781	-0.047873978
59	0x3e232cb5	0.15935023
60	0x3e11c8ce	0.14236757
61	0xbdd8af7d	-0.10580347
62	0xbe0ed6ed	-0.13949175
63	0xbc23d7fd	-0.010000226
64	0xbdc7689d	-0.0973675
65	0xbd6dbafa	-0.058039643
66	0xbb4f596a	-0.0031638988
67	0xbd989822	-0.07450892
68	0xbbbb4db9	-0.0057160524
69	0xbd270328	-0.040774494
70	0xbdc8affe	-0.09799193
71	0x3c48f678	0.012265794
72	0xbc3f0d99	-0.011660957
73	0x3deb980e	0.115036115
74	0x3d6b369a	0.05742512
75	0xbe1a1132	-0.15045622
76	0xbdc4df96	-0.09612958
77	0x3bde93e3	0.006792532
78	0xbe36bc57	-0.17845283
79	0x3d9705a0	0.0737412
80	0x3d70e1ab	0.058808964
81	0x3dc276db	0.09495326
82	0x3ddae0c0	0.10687399
83	0xbde20ec0	-0.110379696
84	0x3dac1d1d	0.084039904
85	0xbcbe1ec1	-0.023208024
86	0xbdcb62e0	-0.09930968
87	0x3de54712	0.11195196
88	0x3af6f960	0.001884263
89	0x3ccb79de	0.024838384
90	0xbd24bdc6	-0.040220045
91	0xbdb744b1	-0.08948649
92	0xbe28e471	-0.16493393
93	0x3e1dcfcf	0.15411304
94	0xbd8e0e07	-0.06936269
95	0x3e1259f4	0.14292127
96	0xbdeaa33c	-0.11456916
97	0xbd443784	-0.047904506
98	0xbe09dfa7	-0.13464223
99	0xbdadbe3f	-0.08483552
100	0xbd0c575a	-0.034262992
101	0xbd719449	-0.058979306
102	0xbd2f8910	-0.042855322
103	0x3d3b77d7	0.045768585
104	0xbdf4b33d	-0.119482495
105	0xbd7a124a	-0.061052598
106	0x3d7f4b8c	0.062327906
107	0xbd80a723	-0.06281879
108	0xbd072100	-0.032990456
109	0x3c7e85ef	0.015534862
110	0xbe466fd4	-0.19378597
111	0x3dfc2455	0.12311617
112	0xbd1498af	-0.036278423
113	0xbaec8b05	-0.0018046802
114	0xbd0fd19a	-0.035112
115	0x3e30324b	0.17206685
116	0xbde78ebf	-0.113065235
117	0x3d356b11	0.04429156
118	0xbbbc7d03	-0.0057522072
119	0xbe09c423	-0.13453726
120	0xbdd05225	-0.10171918
121	0x3c89cfb8	0.01682268
122	0xbdb47888	-0.08812052
123	0x3dc4bf9c	0.09606859
124	0xbdb9a593	-0.09064784
125	0xbd568aea	-0.052378573
126	0x3da579bd	0.0807986
127	0xbe25c098	-0.1618675
128	0xbd65feff	-0.056151386
129	0xbe3214f7	-0.1739081
130	0x3e2e0768	0.16995013
131	0xbdd7585f	-0.10514902
132	0x3cea8216	0.028626483
133	0xbd5a1544	-0.053242937
134	0x3dc805bb	0.09766718
135	0x3dc5f608	0.09666067
136	0x3d78aa20	0.06070912
137	0xbe489468	-0.19587862
138	0x3d8bdb60	0.06828952
139	0x3b5b42f9	0.0033456667
140	0x3e30bbc9	0.17259134
141	0x3e6d49e6	0.23172721
142	0xbd33f55d	-0.04393517
143	0xbbc9c256	-0.0061572
144	0xbdb73b2a	-0.089468315
145	0xbce86695	-0.028369227
146	0xbdc96e4a	-0.09835489
147	0xbc1b8c75	-0.009493937
148	0xbe0e2cc4	-0.13884264
149	0x3d4decd2	0.050274678
150	0xbde94110	-0.11389363
151	0xbdfcd887	-0.12345987
152	0xbe12ef23	-0.14349036
153	0x3dbb1f4a	0.09136827
154	0x3d8026d8	0.06257409
155	0xbcb520b2	-0.022110317
156	0xbd57c013	-0.05267341
157	0x3b3c783f	0.0028758196
158	0xbd84c6ac	-0.06483206
159	0xbe445e45	-0.19176586
160	0xbd2f3411	-0.042774264
161	0x3da5e978	0.08101171
162	0xbe11bff2	-0.14233378
163	0x3e3219a4	0.17392594
164	0xbdc807c9	-0.0976711
165	0x3e0ecd0f	0.13945411
166	0x3ca5af2a	0.020225126
167	0x3baa207b	0.0051918603
168	0x3e1acbb8	0.15116775
169	0xbd37c953	-0.044869732
170	0x3dbf3ad2	0.09337391
171	0xbdd3d18d	-0.10342703
172	0x3dbce07e	0.09222506
173	0xbdba10a7	-0.090852074
174	0xbd9a75e7	-0.07542019
175	0x3cbef7f3	0.02331159
176	0xbdfbaf58	-0.122893035
177	0xbe81bbc1	-0.25338557
178	0xbd4dcdd4	-0.05024512
179	0x3e430db5	0.19048198
180	0x3e0d2f89	0.13787664
181	0xbd82fd6c	-0.06395993
182	0xbde07804	-0.10960391
183	0x3cacff7b	0.021117916
184	0xbc5762e0	-0.013146132
185	0xbd756f45	-0.059920568
186	0x3d78ab01	0.060709957
187	0x3cf1a9f6	0.029499989
188	0x3d93a60a	0.07209404
189	0xbcf6465a	-0.030062843
190	0x3e07c4da	0.13258687
191	0xbd7a4b3b	-0.0611069
192	0xbddbf345	-0.10739759
193	0xbd98ec6d	-0.0746697
194	0x3e18a9da	0.14908543
195	0x3e3ba581	0.18324853
196	0x3d95da20	0.07316995
197	0xbcad2d4e	-0.021139767
198	0x3e0b95ba	0.13631335
199	0x3d00a721	0.031409387
200	0x3d962bb2	0.07332553
201	0xbc6f9b05	-0.014624362
202	0x3bffc1aa	0.007805069
203	0x3c517a93	0.012785572
204	0x3d961a24	0.07329205
205	0x3d6ea757	0.058265056
206	0x3e370b7a	0.17875472
207	0xbd2d38e8	-0.0422906
208	0xbdaefa96	-0.08543889
209	0xbe5ef5ed	-0.217735
210	0xbd66e986	-0.05637505
211	0xbce1483a	-0.02750026
212	0xbd39afa0	-0.045333505
213	0x3b92205d	0.0044594244
214	0xbd560675	-0.05225225
215	0xbe6661f8	-0.2249831
216	0x3ce43a4e	0.027859833
217	0x3de5f8bf	0.11229085
218	0xbd90dbdb	-0.07073184
219	0x3d8267fc	0.0636749
220	0xbe23a467	-0.15980683
221	0x3dbd5351	0.09244407
222	0xbc0d3ff0	-0.008621201
223	0xbdb17dba	-0.086665586
224	0xbd094fae	-0.033523254
225	0x3dd9f766	0.10642891
226	0x3d228723	0.039679658
227	0xbe0639e9	-0.13108028
228	0xbd9eed1a	-0.07760067
229	0x3db76ca8	0.089562714
230	0x3d82fabb	0.06395479
231	0x3c96e36f	0.018418996
232	0x3de778f0	0.11302364
233	0xbd19e0b9	-0.037567828
234	0xbc6f49aa	-0.014604965
235	0x3db9e869	0.09077532
236	0xbe06ee67	-0.13176881
237	0xbc43127b	-0.011906262
238	0xbe1b545a	-0.15168896
239	0xbe19d8cf	-0.15024112
240	0x3d6f6120	0.058442235
241	0xbcd7b674	-0.026332118
242	0x3dab1467	0.08353501
243	0xbdbf160a	-0.093303755
244	0x3dec0305	0.115240134
245	0xbdb45086	-0.08804421
246	0xbdacdf84	-0.0844107
247	0x3dd2be46	0.10290198
248	0x3d7ac8eb	0.061226767
249	0xbe7b1a95	-0.24521859
250	0xbe296f39	-0.16546334
251	0xbdd0f9dd	-0.10203908
252	0xbda7a8f2	-0.08186521
253	0xbd4ab568	-0.04948941
254	0xbe51f4a7	-0.20503484
255	0xbdaa2da2	-0.08309485

rnn.bias_ih_l0 f4 [32]
0	0xbd0d37aa	-0.034476914
1	0x3c8c30b2	0.017113063
2	0xbdce9e07	-0.10088735
3	0xbe155f32	-0.14587095
4	0x3d6eed0c	0.058331534
5	0x3cee8998	0.029118344
6	0xbda0b2b2	-0.078465834
7	0x3dae5053	0.085114144
8	0x3df5c90e	0.12001239
9	0x3d57fe26	0.05273261
10	0x3cbae686	0.022815
11	0xbc24ff5b	-0.010070647
12	0xbd414d23	-0.047192704
13	0xbe0ab575	-0.13545783
14	0x3c949ed7	0.018142147
15	0x3dc49ba0	0.095999956
16	0x3d1548a5	0.036446232
17	0x3c4000af	0.011718913
18	0x3dfd5ddd	0.123714186
19	0x3e08dab5	0.1336468
20	0xbc1d3436	-0.009594968
21	0x3d942aeb	0.072347485
22	0x3d255772	0.040366597
23	0x3d4c024c	0.049806878
24	0xbc332307	-0.010933644
25	0xbc135b41	-0.008993925
26	0x3d204877	0.039131608
27	0xbcc7fdd5	-0.024413029
28	0x3dc33d2b	0.09533151
29	0xbdc6daa2	-0.0970967
30	0x3b811ac1	0.003939957
31	0xbda31be9	-0.07964308

rnn.bias_hh_l0 f4 [32]
0	0x3d72b6e3	0.059256446
1	0x3ba97247	0.0051710936
2	0x3ddf35f8	0.108989656
3	0x3e471597	0.1944183
4	0xbce1127f	-0.02747464
5	0xbd91b754	-0.07115045
6	0x3bde2c90	0.0067802146
7	0xbe2a19c0	-0.16611385
8	0x3d8ad910	0.06779683
9	0xbe2ae6d8	-0.16689622
10	0x3da14d93	0.07876124
11	0x3dfc262b	0.123119675
12	0x3de4f0d8	0.1117875
13	0x3df8eadc	0.12154171
14	0xbd5b0c20	-0.05347836
15	0x3dab11ae	0.083529815
16	0xbd1de2e5	-0.03854646
17	0x3dca0eae	0.09866081
18	0xbdc9b4b8	-0.098489225
19	0x3d94a03f	0.07257127
20	0x3d868006	0.06567387
21	0x3d0356c6	0.032065175
22	0xbe024b19	-0.1272396
23	0x3c05ba84	0.008162145
24	0xbe0e1d49	-0.13878359
25	0xbd6be299	-0.057589147
26	0xbe0d6097	-0.13806377
27	0xbc5e45d9	-0.013566458
28	0xbd11bf7a	-0.035582997
29	0xbd180d39	-0.037121985
30	0x3d9fb44f	0.07798063
31	0x3daad366	0.08341102

out.weight f4 [2, 32]
0	0xbe8e1cf4	-0.27756464
1	0x3e015903	0.12631612
2	0x3e546ee4	0.20745426
3	0x3e6e6053	0.23278932
4	0xbd81461c	-0.063122004
5	0xbb89494a	-0.004189645
6	0xbd8f3be2	-0.069938436
7	0xbbb25e0a	-0.0054433392
8	0xbe1798d7	-0.14804398
9	0xbde3002f	-0.110840194
10	0x3e21cce5	0.15800817
11	0xbe007fc9	-0.12548746
12	0xbd170f58	-0.036879867
13	0x3bab6fa7	0.005231816
14	0x3e0de87f	0.13858221
15	0xbde1afbd	-0.110198475
16	0xbc0f3052	-0.008739548
17	0xbf5a3cdf	-0.8524913
18	0xbde4513b	-0.11148306
19	0x3e2f41dd	0.17114969
20	0x3c4b9375	0.012425293
21	0x3eb3497a	0.35016996
22	0x3d5da4b9	0.05411217
23	0xbf75fb02	-0.9608613
24	0xbd82c9e7	-0.06386166
25	0x3ee3845b	0.44436917
26	0xbe13ab3c	-0.1442079
27	0xbccb9892	-0.024853025
28	0x3c53d85b	0.012930001
29	0x3ea45fdd	0.32104388
30	0x3ddbef93	0.107390545
31	0x3f04c55c	0.51863647
32	0x3ecb65bb	0.39726052
33	0x3e216ec7	0.15764914
34	0xbda517e8	-0.080612004
35	0x3ddb006b	0.10693439
36	0x3d08428a	0.03326658
37	0xbe0f0930	-0.13968349
38	0x3e3e33e8	0.18574488
39	0xbddaa9ec	-0.10676941
40	0x3e8840c7	0.2661192
41	0xbd9a80ce	-0.07544099
42	0x3d59fcc1	0.05321956
43	0xbdd0db80	-0.10198116
44	0x3eef268b	0.46709093
45	0xbe04cb4f	-0.12968181
46	0xbe093f61	-0.13403083
47	0xbe0466c0	-0.12929821
48	0x3f9e6565	1.2374693
49	0xbdeab045	-0.11459402
50	0xbe345aab	-0.17612712
51	0xbdabab74	-0.083823115
52	0x3ea67a00	0.32514954
53	0x3dff92a4	0.12479141
54	0x3e85170e	0.25994152
55	0x3d807650	0.06272566
56	0xbd3ad42a	-0.04561249
57	0x3d8d3061	0.06893993
58	0x3e0c0355	0.13673146
59	0xbe72a413	-0.23695402
60	0xbe2f6b05	-0.17130668
61	0xbdc66fbf	-0.096892826
62	0x3d0f691e	0.035012357
63	0xbe1fa1bb	-0.15589039

out.bias f4 [2]
0	0xbb5e27ec	-0.0033898307
1	0xbd64a460	-0.055820823
