rnn_weights_3/weights_64_uniform_g0.9_relu_flip_flop.pt (torch, 20926 bytes, 6 tensors)

rnn.weight_ih_l0 f4 [64, 2]
000000 c3 5a 59 3c bf 56 35 3f 74 42 b9 3c d9 e9 a8 be
       0.013266268 0.7083549 0.022614695 -0.32990912
000010 18 86 2b be e6 42 51 bc 5b 2d 46 be d0 54 4c bd
       -0.16750371 -0.0127722975 -0.19353239 -0.04988557
000020 4c fe 4a bc 83 28 df 3c bd c4 05 3d 6a 8a ea 3e
       -0.012389731 0.027240997 0.032658327 0.45808727
000030 0f f4 74 bc fd 29 a1 be 63 2e c3 bb 29 71 58 bf
       -0.014950766 -0.31477347 -0.0059564575 -0.8454767
000040 52 a4 98 3e d6 95 4b bc 70 bb cf bc 82 c3 ab bd
       0.29812866 -0.01242586 -0.025357932 -0.083868995
000050 32 c1 99 3d 84 77 61 be cc 7e e9 3e 78 cb 11 bc
       0.07507552 -0.22018248 0.4560455 -0.008898608
000060 e5 0b 8f 3e 8a b4 c9 bc 15 db 04 be 81 fd 1f bc
       0.27938762 -0.02462222 -0.12974198 -0.00976503
000070 2e 2e 9e ba 0f 25 16 3f ca 53 3b 3e f1 44 5d bb
       -0.0012068206 0.58650297 0.18293682 -0.0033763016
000080 b0 f2 36 3e ab 1b 5b 3c 46 e4 0e 3c 9b 2b 50 bc
       0.17866015 0.013373296 0.008721417 -0.012705709
000090 2e 2d bf 3c c6 fa 1a 3f 0c 55 4b be d7 d2 04 3d
       0.023336973 0.605389 -0.19856662 0.032427635
0000a0 50 06 34 bb b5 61 11 3f 41 93 96 be 35 7c 2c bd
       -0.0027469583 0.56789714 -0.2940922 -0.04211064
0000b0 75 84 2c 3b 3a 57 11 3f c1 52 9b bc 23 7d ef 3e
       0.0026324068 0.5677372 -0.018960359 0.4677516
0000c0 a2 63 a2 3d 12 63 dd bd c6 87 8f 3c 7f 45 23 bd
       0.0792916 -0.10809912 0.017520797 -0.0398612
0000d0 0f bd 69 bc 1c b1 29 3d bb e3 83 bd 1f 65 44 be
       -0.0142662665 0.04142867 -0.064399205 -0.191792
0000e0 9a 7e 38 3e 47 78 99 bd 54 4e 32 3d e7 61 ae 3e
       0.18017045 -0.07493644 0.04353173 0.3405907
0000f0 37 70 34 3e 98 a4 e4 bd cf ee 45 3e 3a 93 cb 3d
       0.17620932 -0.11164206 0.1932938 0.099401906
000100 43 6b 8e 3e 50 d9 09 3d 95 17 f1 3e 23 b1 dd bc
       0.2781621 0.03365451 0.47088304 -0.027062004
000110 9d 95 2f bd 3b 37 e8 3e 93 39 ba be 90 86 ef 3c
       -0.04286729 0.45354638 -0.3637205 0.02923897
000120 20 a5 4c bd 28 37 db bd 79 a0 8c b9 fe 5e 9a 3d
       -0.049962163 -0.107038796 -0.00026822442 0.075376496
000130 c3 97 4d 3d 44 cd f8 3e 25 c5 04 3c e6 34 aa be
       0.05019356 0.48594105 0.008103644 -0.33243483
000140 e4 71 b3 3e 9b e3 55 bc 0b 72 9c be 8d 66 a9 3a
       0.3504783 -0.013054754 -0.30555758 0.0012924239
000150 53 3c bc bc 29 fa 15 3f b2 49 a3 3d 47 42 dc bc
       -0.022977984 0.5858484 0.07973041 -0.026887072
000160 61 49 08 bf cb 62 ad ba 82 ab 80 3e 31 aa 0f 3d
       -0.5323697 -0.0013228295 0.2513085 0.035074417
000170 af c1 50 3e 1d f5 08 bc 98 59 11 bd 8b 72 04 3f
       0.20386384 -0.008359221 -0.035485834 0.5173728
000180 1e bb 42 bf 8a dd d3 3b 89 e2 45 bc d1 f7 5e 3d
       -0.7606677 0.0064656185 -0.012077936 0.054435555
000190 a6 74 c1 3e 90 96 b4 3c 30 bd 9a bf 67 95 77 bc
       0.37784308 0.02204445 -1.2088985 -0.015111304
0001a0 d5 21 9a bb d9 05 6a 3f 6e fa da 3e 2a 83 92 3b
       -0.00470374 0.9141517 0.42769188 0.0044712024
0001b0 0e 92 f4 be 9c 09 a5 bd c6 7e 67 bb ce 6f 39 3e
       -0.4776768 -0.080584735 -0.0035323366 0.18109056
0001c0 5c 37 14 3d 86 62 b5 be 5a 37 2e bc 53 61 68 bd
       0.036185607 -0.3542673 -0.010633314 -0.05673344
0001d0 00 36 91 be 67 8c 9c 3b c2 32 56 3e 68 cb d3 3c
       -0.2836151 0.0047774795 0.209178 0.025853828
0001e0 08 ae 07 bc e0 ac 3a 3d 79 5e 83 bd 9a 7e 9a be
       -0.008281238 0.045575023 -0.064145036 -0.30174714
0001f0 7c 77 39 3f 6c 4a 0c 3b bf 97 cc be 3d 8e f0 3c
       0.72447944 0.0021406664 -0.39959523 0.0293647

rnn.weight_hh_l0 f4 [64, 64]
000000 79 64 a8 bb b0 2f 94 3c ef eb ef 3d 49 f9 25 bc
       -0.0051389304 0.018089145 0.11714923 -0.010130235
000010 ca 9c 7d 3c 8a 00 95 3d d5 97 14 3d 23 9a 00 3e
       0.015479276 0.072754934 0.03627761 0.12558798
000020 68 93 ae bd 52 f4 f3 bc c4 8a 4a bd 72 d6 22 3c
       -0.08524209 -0.029779587 -0.049448743 0.009938823
000030 13 c1 85 bd 2a 91 b9 bd f0 aa 49 3d 67 d2 c1 3d
       -0.065309666 -0.09060891 0.049235284 0.09463959
000040 ff d1 46 3d 87 f7 07 bd da 59 47 3d b3 c8 75 3d
       0.04854011 -0.033195045 0.048669674 0.060005855
000050 29 20 90 3d b7 b8 6b 3d e1 39 05 3e 80 f2 74 3d
       0.07037384 0.057549205 0.1301036 0.05980158
000060 e7 1f 3e bd 2e 29 ab bd 2e 9b 25 3e a5 42 72 3d
       -0.046417143 -0.08357464 0.16172478 0.05914559
000070 97 a3 24 bd c9 f6 06 be 46 6f 6c 3d e1 f7 12 3c
       -0.040195074 -0.13180079 0.057723306 0.008970232
000080 6a 01 b0 3d 67 c4 ac bc 2c c5 6c bc 80 dd b0 3c
       0.0859402 -0.021089746 -0.014451306 0.021589994
000090 38 23 45 3d 88 d7 f0 3d bf 2c a2 bd e9 30 14 be
       0.04812929 0.11759859 -0.07918691 -0.14471783
0000a0 20 f3 58 bd 5e f0 15 bd 96 65 13 3e 2e 77 5f 3d
       -0.052966237 -0.036606185 0.1439422 0.054557018
0000b0 c1 5b cb bd f4 1d d7 3d d1 de 8a 3d c9 63 86 3c
       -0.0992961 0.1050376 0.0678078 0.016405003
0000c0 90 a0 bd 3d 0c 0e 94 3d 58 5f 99 3c cf 13 9b 3c
       0.092591405 0.07229242 0.018722221 0.018930344
0000d0 4d 26 94 bc cf 79 80 3b 06 f0 9d bd 34 ee 7a 3d
       -0.01808467 0.0039207707 -0.077117965 0.061262324
0000e0 43 3d 94 bd f9 fe a3 bd cf f0 68 3d ad 24 98 bd
       -0.07238247 -0.080076165 0.056870278 -0.0742887
0000f0 22 2c 88 bd 67 21 22 3e a5 34 e9 3d b8 98 50 bd
       -0.06649043 0.15833054 0.11386994 -0.050926894
000100 35 f4 ff bd 79 b7 52 3d 02 d5 60 bc 86 d4 bd bb
       -0.12497751 0.051444504 -0.01372266 -0.005793157
000110 37 dc 82 3d 6c 0a ee bd ba ee 4b 3c 59 b9 de 3c
       0.06389659 -0.116230816 0.012447054 0.02718799
000120 d0 9f 48 3d 88 2c 01 3d 46 cc b0 3d af 65 44 3d
       0.048980534 0.03153661 0.08632712 0.047948536
000130 25 77 98 3d 08 46 d6 3d 67 4b 85 3d 5e 46 d7 bd
       0.074446 0.10462576 0.065085225 -0.10511468
000140 b1 f4 da bd 4e 1d 5c bd 37 41 90 bd ed c4 bc 3d
       -0.106912024 -0.053738885 -0.07043689 0.09217248
000150 aa c9 4b bd d9 b1 ea 3d d2 1a 4c bd 81 bb 73 bd
       -0.04975287 0.11459703 -0.049830265 -0.05950499
000160 39 f2 3f bb b5 e8 23 bd 67 03 6f bc 75 c2 12 bb
       -0.0029288663 -0.04001685 -0.0145882135 -0.0022393737
000170 e8 7e 53 bd 88 1b 1a 3d 99 99 d7 3c 3d 6c f9 3d
       -0.0516347 0.037623912 0.026318358 0.12178848
000180 41 34 ae bd fc a4 8a 3d 21 a3 3f 3d f0 64 92 3d
       -0.085060604 0.067697495 0.04678643 0.071481586
000190 af 5d 36 bd 91 ad 90 3c c1 02 f9 3d 17 20 c6 3d
       -0.044522937 0.017660888 0.121587284 0.096740894
0001a0 d4 4a b6 bd 1f 7c e5 3d 2f fe 0f 3d b2 1e 37 3d
       -0.08900991 0.11205315 0.035154518 0.044707008
0001b0 5a e2 3c 3d c3 e5 40 3d bc 87 ff 3c 24 fd 81 bc
       0.046114303 0.047094118 0.031192653 -0.015867777
0001c0 4b 70 7e bc 43 0d da bd 04 fd 72 3d 38 fc d1 bd
       -0.015529702 -0.10647061 0.059323326 -0.10253185
0001d0 24 1c 89 3d fe 96 63 3d 2b c3 83 bb 52 0e 53 be
       0.066948205 0.05556392 -0.0040210686 -0.20610932
0001e0 0f 22 8f 3d 0c 82 90 3d 49 6f b0 3c 6c bb 5a bd
       0.06988918 0.070560545 0.02153744 -0.053401396
0001f0 76 da ab 3d ed 9b a4 bd 78 27 7b 3c b2 20 ea 3c
       0.083912775 -0.08037553 0.015329234 0.028580043
000200 e2 db 9d bd 01 1c 63 3d 21 0e f6 3d 0d 83 e2 3c
       -0.07707955 0.05544663 0.120144136 0.02765038
000210 06 d9 78 3c 06 52 63 bd 5c 58 d6 bc fc 8d e7 3d
       0.015188461 -0.055498146 -0.02616518 0.11306378
000220 71 89 8b bd 01 44 d2 bd 01 8a aa bd 53 32 e4 bd
       -0.06813324 -0.10266877 -0.083271034 -0.11142411
000230 4a c3 d4 bd 83 03 1c 3d 01 31 5e 3d 28 a3 ea bd
       -0.10388811 0.038089287 0.054245953 -0.11456901
000240 c3 2d f1 bb 57 88 9c bd 86 d2 8c 3d 5f 5f 01 3d
       -0.0073601916 -0.07643192 0.06876092 0.031585094
000250 c4 7d 9f bc 27 5b f1 bd d8 31 90 3d ca 86 5b 3c
       -0.01946915 -0.11784964 0.07040757 0.013398835
000260 0c 09 81 bc b8 00 0b 3e fa 2d 2c bd 42 38 83 3d
       -0.015751384 0.13574493 -0.042036034 0.06407215
000270 ea f7 96 bd 02 e9 8b bd 32 67 8b 3d 9b 63 f5 3d
       -0.073715046 -0.06831552 0.06806792 0.11981889
000280 c4 58 8a 3d ed a5 50 bd 3c 1f 89 bc 0f 97 26 bd
       0.06755212 -0.05093949 -0.016738527 -0.040671404
000290 be 62 c6 3d 2e b7 a8 bc 4d 26 be bc 4e ab b1 3b
       0.09686802 -0.02059516 -0.023211623 0.0054220324
0002a0 d7 76 e6 bd 7c 88 1b 3e de a4 a7 3d 5f 02 bf bd
       -0.11253136 0.15188783 0.08185743 -0.09326624
0002b0 20 9c c2 bb aa ff 25 bd 3d ea ae bd fb 85 c4 3d
       -0.0059390217 -0.040527023 -0.08540771 0.09595867
0002c0 2b ab 2d 3d 5a 5c 37 bd 67 c6 a5 bd 6c b0 35 be
       0.042399567 -0.044765808 -0.08094483 -0.17743081
0002d0 79 66 01 bd c5 c6 9e 3d 16 da 07 3e d5 b5 dc 3c
       -0.031591866 0.07752756 0.13266787 0.026942173
0002e0 0d ac 66 3c 58 c8 99 3d 81 08 0a 3e 4a 06 82 bc
       0.014079106 0.07508916 0.13479806 -0.01587214
0002f0 c3 cc ec bd 80 56 f7 3d d7 f4 01 3e 19 c1 fa bc
       -0.11562493 0.120770454 0.12691055 -0.030609654
000300 1c fb 77 bd f0 9f 2e 3d a2 9f f9 3d b5 9b cb bc
       -0.06054221 0.042632997 0.12188651 -0.02485452
000310 e6 79 71 3d cc 46 d1 bd 40 3e 29 3d 31 e5 c7 3d
       0.058954142 -0.102185816 0.04131913 0.09760512
000320 1a a5 df 3d 19 42 19 bd da b8 be bc a8 0e de 3c
       0.109201625 -0.03741655 -0.023281503 0.027106598
000330 af ab d1 bd b4 4d e7 3d 6d e2 96 3d 53 66 af bd
       -0.10237824 0.112941176 0.07367406 -0.08564439
000340 a5 52 9b bd d7 9d 06 3d a9 99 b2 bd dd 15 67 3d
       -0.075841226 0.03286537 -0.087207146 0.056417335
000350 84 aa 9b bc 3d ce 2d bd 65 c2 f1 3d be c5 9c 3d
       -0.019002207 -0.042433012 0.11804656 0.07654904
000360 8e b5 8d 3d 80 3a 94 3d 0a c2 36 3d e0 0a fa 3c
       0.069193944 0.072377205 0.044618644 0.030522764
000370 d2 ee 03 bd 1d b2 bb bc 9a 3f b2 3d 73 e8 6d 3d
       -0.03221018 -0.02291208 0.08703537 0.05808301
000380 e9 73 3f 3d a8 0b ae bd d5 4f 21 ba 8e 93 44 3d
       0.0467414 -0.08498317 -0.00061535585 0.04799228
000390 6c 99 cb 3d a3 4c b3 3c 70 83 ce bb 4c 29 f3 3b
       0.09941372 0.02188713 -0.0063022897 0.0074206945
0003a0 1c ef ce bd 41 59 99 3d 64 5e 07 bd 90 00 56 3d
       -0.101042 0.07487727 -0.033049002 0.05224663
0003b0 f8 07 26 3e 06 2b 13 bc 67 db af bc de a8 8f 3c
       0.16213977 -0.008982426 -0.021466924 0.017536577
0003c0 74 6f 66 3d 65 9d 19 bd b2 3e b1 3d f7 56 64 be
       0.056258634 -0.03750362 0.08654536 -0.222988
0003d0 94 9a 15 3e f7 33 c7 3d 5f 06 38 3d b6 40 e6 bb
       0.14609748 0.097267084 0.04492795 -0.007026757
0003e0 23 99 40 bb ff 45 4a 3b 34 63 af 3c 9f 4d 2f bc
       -0.0029388152 0.0030864475 0.021409608 -0.010699659
0003f0 68 bd 36 3d 9c 73 0f bd c9 90 bd 3e a9 55 9b 3d
       0.044614226 -0.035022363 0.37024525 0.07584698

rnn.bias_ih_l0 f4 [64]
000000 24 42 dc 3d 82 1f a0 bd 25 71 ec 39 31 10 b5 bc
       0.10754803 -0.0781851 0.00045097727 -0.022102447
000010 19 92 72 3d d7 b6 c8 bc f8 ea 6b bd 32 94 88 bc
       0.05922136 -0.024501247 -0.05759713 -0.016672228
000020 85 1d 3b bc 53 7f 66 bc 6a f7 91 3d 21 6e 0f 3e
       -0.011420612 -0.014068442 0.071272686 0.14006855
000030 0d 2e 16 bd 65 37 ec bc 6e e4 50 bd 83 61 ee 3d
       -0.03666501 -0.028835008 -0.050999098 0.11639693
000040 4c f5 d0 3d 68 7d 6d bd da 5b 67 3d 7a 5c 17 3e
       0.10203037 -0.057980925 0.05648408 0.14781371
000050 83 cb 1d 3e 3d 87 48 3d c9 b4 b4 3d fe 9d 85 3d
       0.15409665 0.0489571 0.088235445 0.06524275
000060 5f dc cb 3c 73 7e 79 3d c4 3e dc 3d ff 83 41 3d
       0.024885355 0.060911607 0.10754159 0.047245022
000070 ef af f7 3d d8 a4 e8 3d 20 64 b8 3c 6d 06 17 3e
       0.120941035 0.113595665 0.02250868 0.14748545
000080 c8 ad 55 bc ec f6 81 bc 7e 25 0a 3e 04 a1 89 bd
       -0.013041921 -0.015864812 0.13490865 -0.067201644
000090 18 a7 0c bd 88 e4 68 bd 3d cc 91 3d 24 20 1a 3e
       -0.03433904 -0.05685857 0.071190335 0.15051323
0000a0 f0 28 d7 bd b5 65 10 bc ea fb 3f bd 3e 69 ae 3d
       -0.10505855 -0.008813311 -0.046871103 0.08516167
0000b0 06 c5 18 3e aa 97 f9 3d 27 6d a9 bd 1f 37 55 3d
       0.14918908 0.12187131 -0.08272772 0.05205452
0000c0 df ff 6d 3b e3 e0 0b be 1e a2 d9 3d e3 7c 83 be
       0.003631584 -0.13660006 0.106266245 -0.25681219
0000d0 c0 ea 8b 3c 24 23 bc bc 12 d2 5b 3c 4f f2 11 3e
       0.017079711 -0.022965975 0.013416784 0.1425259
0000e0 50 ab 04 3e 66 e6 e9 3d b1 e3 75 bd 5a 28 0c 3e
       0.12955976 0.11420898 -0.060031597 0.13687268
0000f0 9f 55 e2 bd 97 78 05 3d e6 8b 2f be 70 be 68 3d
       -0.11051487 0.032585707 -0.17143211 0.05682224

rnn.bias_hh_l0 f4 [64]
000000 bf a0 2d bb 1a 69 c0 3d 03 1f c6 3d b2 4d 84 bd
       -0.0026493517 0.093950465 0.09673884 -0.06460132
000010 3f a3 85 3d cb 68 90 bd b4 82 18 bd 83 de 1f 3d
       0.06525277 -0.07051238 -0.037234023 0.039030563
000020 f6 5a c5 bb 7e 3e 8f 3c ff 8f 75 bc 3b 11 42 bd
       -0.0060228063 0.017485853 -0.014987945 -0.047379714
000030 99 dd f1 3c c8 2b 10 3e 50 9c 77 3d 65 c5 c9 bd
       0.029524611 0.14079201 0.060451806 -0.09852103
000040 14 af b6 3c 7c 2c 48 bd 93 a8 97 3d 50 c1 45 3c
       0.02230028 -0.04887055 0.074052 0.012070015
000050 03 43 9b bc 3b 96 91 bd 6d 9b 87 3d 75 98 d2 3d
       -0.018952852 -0.07108732 0.06621442 0.10282985
000060 31 6f 05 3c 9e 09 68 3c 49 cc be 3c bf d7 1c bd
       0.008144186 0.014162449 0.02329077 -0.03829169
000070 0b 89 cd bc 42 a6 b5 bc 72 93 4f 3c e5 b1 04 3e
       -0.025089761 -0.022174004 0.012669431 0.12958486
000080 5f 2b ab 3d ce 11 d7 3d c3 c2 8b 3d 70 7b 22 3e
       0.08357882 0.10501443 0.06824257 0.158674
000090 22 7b 01 3e 46 e4 ad bd a3 d2 5a 3d bf 3a 8e 3c
       0.12644628 -0.08490805 0.053423535 0.017361997
0000a0 05 4a d0 3c a8 d5 0d 3e 48 e2 39 3e 04 38 bf 3d
       0.02542592 0.13851035 0.18152726 0.09336856
0000b0 75 15 ce 3a d8 bb 8f bd 38 66 00 3e 31 0b e2 3d
       0.0015722947 -0.0701825 0.12538993 0.11037291
0000c0 07 42 b3 3d 5f fc b7 bd 32 77 b6 3d c9 98 8d be
       0.08752828 -0.08983683 0.089094535 -0.27655628
0000d0 db d5 c5 bd bd 89 bc 3d 97 2b ff 3d 47 7b af bd
       -0.0965993 0.09205959 0.12459486 -0.08568435
0000e0 17 38 db bb a7 16 8b 3d 39 8d 8c 3d fb e9 6d bc
       -0.006690036 0.0679143 0.068628736 -0.014521117
0000f0 37 e1 ec bd f6 a8 a6 3d 43 71 a8 bd 48 e1 6d 3d
       -0.11566394 0.081376955 -0.08224728 0.058076173

out.weight f4 [2, 64]
000000 69 c6 45 3d c2 7b 0c 3d 6b f1 12 be ed 1c b1 bd
       0.04828492 0.034297712 -0.14349906 -0.08648095
000010 2d 02 36 3d 92 9e 91 3e 3a 86 1e be 54 44 d5 3c
       0.04443567 0.28441292 -0.15480891 0.026033558
000020 54 3c 4c 3e 06 ea 8a bc bd 51 4a 3e 2c 1a b0 3e
       0.19944888 -0.016957294 0.19757743 0.34394968
000030 9a 55 72 3e a6 4c 46 be f4 e1 9b 3d 93 22 4a 3d
       0.23665467 -0.19365177 0.076114565 0.04934938
000040 46 6e 82 3d af 4e ae bd 07 00 03 3e ed f9 1f be
       0.06368689 -0.085111015 0.12792979 -0.15622683
000050 26 7f 5c bd 2a 42 76 bd 17 7d 17 3d 44 96 81 bd
       -0.053832196 -0.060121693 0.03698453 -0.06327489
000060 cc 41 d0 3d ef 91 33 bd 6c b6 a4 3d 88 c2 52 bd
       0.101688 -0.043840345 0.08042607 -0.05145505
000070 c3 f6 68 3e 0f bb 90 bc fe 28 21 3d 01 15 4b 3d
       0.22750382 -0.017667321 0.039345734 0.049580578
000080 52 dd e0 3d 70 ba a1 3e 39 f9 b3 bd ac 8f 7f be
       0.109797135 0.31587553 -0.0878777 -0.2495715
000090 53 92 ea bc 86 30 ac bd fd f9 ab 3d fc 56 83 bd
       -0.028634226 -0.084076926 0.08397291 -0.06413075
0000a0 27 e3 7b 3e 59 06 3d be d7 d1 03 be 1e 59 21 bc
       0.2459837 -0.18459453 -0.12873016 -0.009847907
0000b0 2b 43 e9 be 11 d2 82 3e 91 77 ce 3d e4 9e d2 bb
       -0.45559058 0.25550893 0.10081399 -0.0064276326
0000c0 65 4b 3b bf 1a df c6 3c 78 c7 80 3e 5f 44 ac 3f
       -0.7316192 0.024276305 0.25152183 1.3458365
0000d0 60 06 49 be 3d 7c a5 3e cc 6d d0 be a8 94 0b 3d
       -0.19631338 0.3232135 -0.40708768 0.034077317
0000e0 ef cb 14 3e 00 92 bc bc 64 c1 6f be 7a 41 20 3e
       0.1453092 -0.023018837 -0.23413616 0.15649977
0000f0 84 3f aa 3c cd 53 49 bd b3 e1 b8 bf 32 7d 82 be
       0.02078224 -0.049152184 -1.4443878 -0.2548614
000100 49 35 15 3f e2 73 44 be e9 45 59 3d 37 61 c4 bb
       0.5828443 -0.19184831 0.053045187 -0.005993034
000110 c9 01 d9 3d d1 65 21 bf 5a b1 75 be 60 fa 4d bf
       0.105960436 -0.63045985 -0.23993436 -0.80460167
000120 a9 fa 9a bd 66 21 f5 bc 6e a6 1e be 1f 38 89 3d
       -0.07567341 -0.029923152 -0.15493175 0.067001574
000130 b4 e8 97 3d 2e 4d 89 bd c2 6a b1 3e d4 f2 01 be
       0.074174315 -0.06704174 0.34651762 -0.12690288
000140 c7 9d ba 3d e1 f8 61 3d 52 45 0b 3f d7 5d fd bd
       0.09112125 0.05516899 0.5440265 -0.12371414
000150 b3 be e4 3e 28 e7 0a bd 83 9d e7 3e 2b fe 9b 3e
       0.44676742 -0.033911854 0.4523736 0.30467352
000160 8e ea f3 bd 5b d5 c0 3d 53 78 11 3d 51 fd 2e be
       -0.11909972 0.09415694 0.03551514 -0.1708882
000170 19 f8 1e be d9 7c b0 be d8 29 15 3e 70 5a 2d bd
       -0.15524329 -0.3447025 0.14566743 -0.042322576
000180 9b de 29 3a 7e 55 be 3a 49 35 cd 3e c7 1d 8b bc
       0.0006480009 0.0014521328 0.40079716 -0.016981972
000190 93 38 b6 bd c2 0b e9 bd c4 6a 70 be 81 c0 5a be
       -0.088975094 -0.11379196 -0.23478228 -0.21362497
0001a0 05 27 34 bc 47 21 89 bd 42 57 fd 3e 9d 54 17 3d
       -0.010995631 -0.066958 0.49480635 0.036945928
0001b0 b5 80 66 bc 5e cb 26 bd a8 63 6a bc 77 d8 ac be
       -0.014068772 -0.04072129 -0.014305986 -0.337589
0001c0 a5 1f 1d 3c 29 73 8e bd 4b 41 3b bc b9 9a c2 bb
       0.009590064 -0.06955559 -0.011429141 -0.0059388545
0001d0 ac 22 bc bf 31 fe 24 bd ca bd de 3d eb 04 51 3d
       -1.4698081 -0.04028148 0.10876043 0.05103008
0001e0 d4 f8 a7 be 9c 53 94 3d 6f 34 a7 bd 57 9e 94 3d
       -0.32807028 0.0724251 -0.08164298 0.072567634
0001f0 3c cd 5a bd 1d 45 06 3e 01 b9 51 3d 5d 91 b8 bd
       -0.053418383 0.13112302 0.051201824 -0.09012101

out.bias f4 [2]
000000 75 f4 82 bd e9 bf 9b 3c
       -0.06394283 0.019012408
