rnn_weights_3/weights_32_uniform_g0.1_relu_ready_set_go.pt (torch, 7772 bytes, 5 tensors)

rnn.weight_ih_l0 f4 [32, 2]
000000 c2 c5 02 3e 90 ea f3 bc aa 6a d9 3d 90 31 13 3c
       0.12770751 -0.029774934 0.10616048 0.008983985
000010 1d e2 84 bf 7c c5 42 bf ca 7b 16 3d 86 41 d6 3d
       -1.0381504 -0.7608259 0.03673915 0.10461716
000020 e2 e8 67 bf 3d 27 cf bf e4 67 24 3d 08 c8 06 bd
       -0.90589726 -1.618385 0.04013814 -0.03290561
000030 b6 d3 b5 bd a8 e5 42 3d cd cd 30 be 15 b9 1b be
       -0.08878271 0.0475823 -0.17266007 -0.15207322
000040 0f e4 a9 bd 5e 19 5b bd ce 6b 03 3e 7b 59 fd 3d
       -0.08295452 -0.05349099 0.12834093 0.12370583
000050 ee 66 97 3d 8d fa 89 be 1c 32 a0 bf 31 cb 91 3e
       0.07392679 -0.26948968 -1.2515292 0.28475335
000060 70 ae 5f bd 40 1d 4e bb d6 fc 56 3e 26 2d d8 3d
       -0.054609716 -0.003145054 0.20994887 0.105554864
000070 d8 de a7 be 60 40 d4 3e 1c f7 a4 bf 18 3b 41 bd
       -0.32787204 0.41455364 -1.2887912 -0.047175497
000080 a8 29 dc bc ee d2 ad 3d d2 7b f1 3d a4 6f fd bd
       -0.026875332 0.08487497 0.11791195 -0.123748094
000090 34 67 2b 3f 2f 57 a3 3e a1 90 86 bd ed a2 0a 3e
       0.6695435 0.31902453 -0.065705545 0.13538714
0000a0 91 c1 2a 3e 57 3e fa bd 97 74 09 bf 19 09 c0 3e
       0.16675402 -0.12218922 -0.53693527 0.3750694
0000b0 f0 62 bd 3c e3 0a 33 be 4f ba 6f 3d 74 9c b3 bd
       0.023118466 -0.17484622 0.058527287 -0.087700754
0000c0 9e 52 97 be 88 33 62 be 60 15 0c bd c6 9c 22 3c
       -0.2955522 -0.2208997 -0.034200072 0.009925073
0000d0 cc ec d3 3e 19 3a 8e bd ee 7e 9a 3d 68 88 84 bd
       0.413916 -0.06944675 0.07543741 -0.0647133
0000e0 5e 4c 41 bf 45 76 8e bf e5 a8 a5 bd 0a d9 0b be
       -0.7550715 -1.1129843 -0.08088855 -0.13657013
0000f0 69 41 9d bf f5 3b c5 bf e0 05 84 bf 1b 0a e2 bf
       -1.2285587 -1.5408922 -1.0314293 -1.7659334

rnn.weight_hh_l0 f4 [32, 32]
000000 f2 79 f4 bb ec 19 90 bc 4c aa 4a bc 68 76 f1 bb
       -0.007460826 -0.017590486 -0.0123697035 -0.0073688515
000010 cb 84 6c bb 76 32 22 bc b5 26 5e 3c bf bf 30 3b
       -0.0036089893 -0.009899726 0.013559033 0.0026969758
000020 69 c2 05 ba ba 75 e2 3b 0f 5c 4a 3a 9e 67 d2 ba
       -0.0005102517 0.0069110068 0.0007719406 -0.0016052609
000030 4c f5 82 3a 95 b3 d2 3b 4c 75 60 bb 57 37 5d bc
       0.0009991317 0.0064300993 -0.0034249602 -0.013501964
000040 92 c0 80 3c f1 e4 8a bc a2 d7 67 bc b9 07 b8 ba
       0.015716825 -0.01695487 -0.014150532 -0.0014040387
000050 c9 c5 a6 bc da 8b 13 bb d5 2e 84 bc bd 7c dd 3b
       -0.020357983 -0.0022513778 -0.016135613 0.0067592547
000060 2f d0 19 bc b7 58 a3 bc bb ba 0f bc 86 67 7d bc
       -0.009388014 -0.019939763 -0.008772547 -0.015466576
000070 37 2a 69 3c 9d 8b 90 bc 1e 53 23 bb c4 0e 64 3c
       0.014231256 -0.017644698 -0.0024921368 0.013919536
000080 6e 0b 42 3b 03 e3 0b bd b0 06 ec bc b2 b0 b7 bc
       0.0029608863 -0.034152042 -0.028811783 -0.022423122
000090 31 0a b6 bc ad e7 75 bc 82 a2 18 bc 10 44 6a bc
       -0.022221657 -0.015008849 -0.009316089 -0.014298454
0000a0 b4 8e 7b bb 94 c5 12 bc d0 4b 51 bc ad 03 64 bc
       -0.0038384618 -0.008958239 -0.012774423 -0.013916892
0000b0 be ae 80 bc 4a 04 69 3c 9b 1c 2c bd 60 18 2d bd
       -0.015708324 0.014222214 -0.042019468 -0.042259574
0000c0 cb 08 4f bc 03 10 16 3b a9 17 10 bd 97 03 08 3c
       -0.012636374 0.0022897727 -0.035178814 0.008301637
0000d0 a6 a6 a8 bc 77 0d cc bc ab ee 60 bc 79 d6 a2 bc
       -0.020587277 -0.024908764 -0.013728778 -0.01987766
0000e0 62 c4 12 bd 98 3c 05 3c ce 60 73 bc 58 86 81 3c
       -0.035831816 0.008132122 -0.014854623 0.01581113
0000f0 0b 85 08 bd 34 9d 8e 3b 9e d1 5a bc dd 93 03 3c
       -0.033330005 0.004352236 -0.013355641 0.008030859
000100 09 a1 94 3c b1 54 41 bc 0d 7c c6 3d 36 d7 dd bc
       0.018143194 -0.011799977 0.096916296 -0.02708016
000110 8c 3a 10 3e c0 4b ec bc 30 9b ca bb c5 bc 8a 3c
       0.14084834 -0.028844714 -0.0061830506 0.016935715
000120 37 fc 16 3d 45 2a 90 bc eb f7 c6 bd 36 f9 14 3e
       0.036861625 -0.01759828 -0.09715255 0.14548191
000130 81 70 2c 3c 59 97 c2 be 1a 77 06 3e 8e 43 e9 3d
       0.01052487 -0.38006094 0.13131371 0.11389838
000140 ce c4 80 bc 57 91 29 bc 9b 8d 5f bf 73 76 40 bc
       -0.015718844 -0.010349593 -0.8732545 -0.0117469905
000150 eb bf 95 be c0 4c 92 bd 0f ae bc 3d c0 29 aa be
       -0.29247984 -0.07143545 0.092128865 -0.33234978
000160 1e 32 dc bd 0f 98 8f ba 98 45 34 be 83 58 d6 3b
       -0.107517466 -0.0010955351 -0.17604673 0.006541313
000170 ee 3d 19 3e 72 40 6e 3c aa 7d 28 3e 97 a9 51 3d
       0.1496503 0.014541732 0.16454187 0.051187124
000180 6d ef 2f 3c af c5 44 bc ba d5 46 bd f1 44 78 bb
       0.010738236 -0.012010022 -0.04854367 -0.003788289
000190 5c e9 2a bd 56 39 66 bc a3 fd 00 bc a4 d4 2d bc
       -0.041726455 -0.014051756 -0.007872972 -0.0106097795
0001a0 8f c3 85 3c d2 3a 41 ba a4 ac a0 bc 03 60 f9 bc
       0.016328601 -0.00073711306 -0.019613571 -0.03044129
0001b0 af 4b 55 3c b0 eb de bc 79 16 64 bd 40 a1 61 bd
       0.013018533 -0.027211994 -0.055685494 -0.05508542
0001c0 fa 79 69 ba 2e 26 49 bc 12 e1 7e bd 48 ba 87 bc
       -0.00089064206 -0.012277169 -0.062226363 -0.016568318
0001d0 44 e3 3f bd c6 71 e8 bc 80 9c 62 bd 8c 81 75 3b
       -0.046847597 -0.028374564 -0.05532503 0.003746125
0001e0 00 05 5f bd 23 ff 14 3c eb 1c e8 bc 28 54 d8 3a
       -0.054448128 0.009094032 -0.028334102 0.0016504573
0001f0 34 73 a7 bc 65 ec 23 3c 8f 8d 19 bd 63 d7 49 3c
       -0.020440675 0.010005091 -0.037488516 0.012319419
000200 77 79 39 ba ed 35 6f bb 6f 60 49 3e e1 0f 1d bd
       -0.00070752896 -0.0036500648 0.19665693 -0.03834522
000210 36 8f ed bd 3d af 25 bd 5b 10 7d bb 33 18 89 bc
       -0.11599581 -0.040450323 -0.0038614485 -0.016735172
000220 e0 c9 94 bc 19 5f 8c bc 08 ab d8 be eb 9d 68 3d
       -0.018162668 -0.01713519 -0.42317986 0.056791227
000230 95 83 ff ba 46 53 43 be f0 91 d5 3d 6b 31 04 be
       -0.001949417 -0.19074735 0.10428226 -0.12909476
000240 7b 81 d4 3a bd e9 a7 ba 40 a8 dd 3e 9b 88 7b bc
       0.0016212905 -0.0012810748 0.43292427 -0.0153523935
000250 b3 96 83 3d af e5 d6 3e a6 26 8f 3e b7 b7 10 be
       0.06425228 0.4197211 0.27959174 -0.14132582
000260 42 e1 7e be 0f 75 1d 3a 41 f3 bb be c6 9f ca 3a
       -0.24890617 0.0006006518 -0.36709026 0.0015458993
000270 59 c8 60 3e 90 2f 3f 3c ff 66 89 3d 23 ca 09 3d
       0.21951427 0.011669055 0.06709098 0.03364004
000280 15 a9 f7 bb f8 c8 19 bc a0 37 eb bc 1d ee 80 bc
       -0.007557998 -0.009386294 -0.028713048 -0.015738541
000290 7a b0 ef bc d6 e6 af bc be e6 8f 3b 17 67 1b bc
       -0.029258955 -0.021472376 0.0043915203 -0.009485028
0002a0 97 bb dd 3b e7 4b 78 3c d1 75 06 b9 6e cd c2 bc
       0.006766747 0.015154815 -0.00012823126 -0.023779597
0002b0 aa e5 83 3b 1d 39 2c 3c d5 8a d2 bc 94 43 f2 bc
       0.004025181 0.010511664 -0.025700966 -0.02957324
0002c0 be e8 43 bc aa 87 86 b9 c0 09 aa bc 0c c2 97 bb
       -0.0119573455 -0.0002565955 -0.020756602 -0.0046312865
0002d0 a3 7f 90 bc 29 44 f6 bc e7 15 01 bd ae 29 22 bc
       -0.017638987 -0.030061798 -0.03151503 -0.0098976325
0002e0 a5 c8 32 bc ef 65 84 3a ff ea 91 bc 92 93 7f bb
       -0.010912095 0.0010101179 -0.01781225 -0.003899787
0002f0 e4 f8 c7 bc a3 7b 44 3c 39 3b dd bc f2 ee 1f bd
       -0.024410672 0.011992368 -0.027005779 -0.039046235
000300 eb e5 53 bc 10 96 4b bc 16 d2 05 3b 2a 40 03 3c
       -0.012933235 -0.012425914 0.002041941 0.008010903
000310 e2 a4 d7 3b a3 a7 bd 38 d6 6d 4e 3b bf 5a b5 3b
       0.006580935 9.043447e-05 0.0031498573 0.0055344994
000320 ef 12 85 bc 3a 2d 64 ba 47 d8 52 3c 30 e9 8d bb
       -0.01624438 -0.0008704249 0.012868947 -0.0043307766
000330 f4 46 8c bc 0b b2 f9 3b d8 ad 51 3c af 7b e1 3a
       -0.017123677 0.0076201013 0.012797795 0.0017202998
000340 60 8d c0 3a df 7f 26 bc 06 9c 8d 3a 52 6e a3 ba
       0.001469057 -0.010162323 0.0010803945 -0.0012468791
000350 a6 ab 5c 3c dd b9 c4 bb 7b 62 1a bc c0 b2 40 bc
       0.013468659 -0.006003602 -0.009422894 -0.011761367
000360 87 e0 83 3c 35 70 63 3c 82 c5 67 bc 30 b8 30 bc
       0.016098274 0.013881733 -0.014146211 -0.010786101
000370 58 b4 15 bc 14 f1 94 bb b3 98 1b bc b4 ba e2 3b
       -0.009137236 -0.0045453403 -0.009496856 0.0069192294
000380 12 e0 69 3b b3 bf f8 bb b3 b0 21 bb 89 cd 17 3c
       0.0035686535 -0.0075912117 -0.0024671971 0.009265312
000390 27 e1 27 3a 70 58 e1 3b 54 fd ca 39 f8 81 9f 3b
       0.0006404095 0.0068769976 0.00038717187 0.0048677884
0003a0 14 d7 5e 3c 22 80 1e 3c 93 92 89 3c 01 0b 86 3c
       0.013601083 0.009674104 0.016793525 0.016362669
0003b0 93 7a b8 bb 35 3d 10 bc 76 fc 95 3b 6e 6c 5b bc
       -0.0056298464 -0.008803655 0.004577215 -0.013392551
0003c0 6a 47 0f 3c ad bc 53 3c ce e9 45 bc 01 67 26 bc
       0.008745054 0.012923402 -0.012079669 -0.010156394
0003d0 8f ba 5b 3c dc 71 07 3b ab 93 2f bb 8a 67 54 3c
       0.013411178 0.002066723 -0.0026790898 0.012964139
0003e0 4b 15 36 3c 89 d6 8c bc 04 9f 9c bb 6a dd 53 bc
       0.011113475 -0.017192142 -0.0047796983 -0.012931207
0003f0 c1 2c d9 bb 34 0c ff 3b ec c4 a8 3a f5 c1 c0 bb
       -0.0066276495 0.007783437 0.001287607 -0.0058824965

rnn.bias_ih_l0 f4 [32]
000000 9f 96 06 be b7 26 9b bb 79 cd 81 3d 9e 42 52 be
       -0.13143395 -0.00473484 0.06338019 -0.20533225
000010 19 c3 00 3e 77 bc 89 bc 88 d7 01 be 18 44 2d be
       0.12574424 -0.0168135 -0.12679875 -0.16920507
000020 98 9f ae 3c 99 05 10 bd bb 59 01 3e 8c 2b 8e 3d
       0.021316335 -0.03516159 0.12631886 0.069419
000030 94 19 9f 3b a0 ca 32 be 6c 01 26 3e 68 c8 37 3e
       0.004855344 -0.17460108 0.1621148 0.17947543
000040 8e 9b 6e bd 40 e7 bc bb db 29 75 be 7f c6 c4 bd
       -0.058253817 -0.005764872 -0.23941748 -0.096081726
000050 ae be 0c 3e 72 55 07 be 0d 96 33 3d eb 06 31 bc
       0.13744614 -0.13216189 0.04384427 -0.010804872
000060 b3 fe c5 3d 2a 82 15 be 7c f7 a5 3e 88 d0 1f be
       0.09667721 -0.14600435 0.32415378 -0.15606892
000070 4c a4 97 bc 90 8f 6e 3c 67 6f 98 bc 21 64 73 3d
       -0.01851096 0.014560595 -0.018607808 0.059421662

rnn.bias_hh_l0 f4 [32]
000000 98 45 62 bc 53 82 c9 bd f7 82 d2 3d 9c 89 aa 3d
       -0.013810538 -0.098393105 0.10278886 0.08327028
000010 3f 87 81 3d 90 3a 37 be 56 ee 74 bd 79 4e e6 bd
       0.06324624 -0.17893434 -0.059797607 -0.11245436
000020 60 71 bc bd 5c 10 c5 bd 07 ba 12 3e 9c 52 47 3e
       -0.09201312 -0.09622261 0.14328776 0.19465107
000030 55 22 20 bd b4 23 ad bd d6 a8 3b 3d eb 8b 3f 3d
       -0.03909524 -0.084540755 0.04581531 0.046764296
000040 04 0f 8f bd a2 8e 06 be 2f bb c2 be c3 94 30 be
       -0.06985286 -0.13140348 -0.38033435 -0.17244248
000050 de 73 0c be 64 b7 b1 3c b3 68 6a 3d 96 be e2 bd
       -0.13716075 0.021693893 0.057228755 -0.11071508
000060 9f ee d5 3d f8 5e 08 3e 89 07 85 3d 20 2a db bd
       0.10445904 0.13317478 0.06495578 -0.10701394
000070 db f5 01 3d 12 8b a4 bd c2 68 b6 3b 73 cb 3a be
       0.031728607 -0.08034338 0.0055666873 -0.18241672

out.weight f4 [1, 32]
000000 4c e8 bc bc fa 7f c9 3c 81 e9 5d be a5 fe 05 3e
       -0.023059987 0.024597157 -0.21671106 0.1308542
000010 73 93 c9 3e c7 7b f4 3d aa e1 2d be 2e 4b a7 3d
       0.39370307 0.11937671 -0.16980615 0.08168636
000020 98 3f 89 bc 4e a3 d6 3d c3 76 20 bf bf 81 98 3d
       -0.016753957 0.10480367 -0.62681216 0.07446622
000030 3d 75 a2 bd 87 c4 8f 3f f5 d4 8e be a6 2b d8 3e
       -0.07932518 1.123185 -0.27896848 0.422208
000040 10 9d 9a 3c 48 eb c9 bc 0e 3b a2 3e 07 e7 99 bd
       0.018873721 -0.024648324 0.3168568 -0.07514768
000050 da c8 10 bf a3 58 ea bd 6c 9a 97 be 5b 58 88 bf
       -0.56556475 -0.11442687 -0.29610002 -1.0651964
000060 4c 59 96 3e 00 81 cf bd eb 8f 17 3d f0 53 2b 3d
       0.29365003 -0.10132027 0.037002485 0.041828096
000070 b8 dd 0d be 9a 1b 56 bd 0e ad f9 bd 98 83 83 3e
       -0.1385411 -0.052272417 -0.12191211 0.25686336
