rnn_weights_3/weights_128_uniform_g0.9_relu_integrator.pt (torch, 70610 bytes, 5 tensors)

rnn.weight_ih_l0 f4 [128, 1]
-6.924341e-05 0.106225014 0.011563306 0.13928683 0.07996349 0.003389823 -0.03504591 -0.037378665
0.12062167 -0.09935907 -0.035536308 -0.01869837 0.103853576 0.056319904 -0.11228423 -0.09074625
0.05247121 0.08964878 -0.08701051 0.12735516 -0.09587004 -0.017710323 0.090089865 0.099118136
0.0861899 -0.054954287 -0.035627283 0.016810857 0.07567217 0.044229977 0.028623648 -0.0076472834
0.010852926 0.08898071 0.08402456 -0.10722097 0.078067854 0.0162487 -0.08857469 0.0898195
0.010404956 0.026133087 0.112345636 -0.06971524 -0.015971594 0.084508754 -0.04699544 -0.1060084
-0.020010464 -0.10405695 -0.023833465 -0.0675215 0.14066346 0.041416865 -0.106440656 0.055107027
0.124769755 -0.098286495 0.12850468 0.015190633 -0.08024799 -0.08757784 0.13093092 -0.11055385
-0.059190705 -0.0027043168 -0.10415934 0.0894334 -0.12946004 -0.053632267 0.028893577 -0.050490946
-0.12220667 0.056048512 0.06044278 -0.0804198 -0.12592547 0.052775204 -0.048917707 0.07993663
0.09028918 -0.030628815 0.057870414 0.013355241 -0.10232389 0.03376944 0.0031406959 0.042810794
0.09208646 0.040994253 -0.037840325 0.011337069 0.13093847 0.054968003 -0.1277929 -0.09198439
0.084867254 -0.018946432 0.14521696 -0.07635453 -0.10017429 0.018295903 0.042461075 0.09723032
-0.093323104 0.11442355 0.0834579 -0.0698933 -0.04738473 -0.04360819 -0.022787929 -0.095380925
0.060707465 0.03657244 0.06903927 -0.08954098 0.09968351 0.07206673 -0.027300198 -0.05076406
0.011719488 -0.009072921 -0.09943747 0.10248547 0.0974241 -0.103872955 -0.020731004 -0.04199179
00000000: c636 91b8 808c d93d 0574 3d3c 35a1 0e3e
00000010: e6c3 a33d cb27 5e3b 4d8c 0fbd 5f1a 19bd
00000020: 7e08 f73d c57c cbbd 858e 11bd 532d 99bc
00000030: 2fb1 d43d b3af 663d 46f5 e5bd 2bd9 b9bd
00000040: 0dec 563d c899 b73d 9132 b2bd 6469 023e
00000050: 8357 c4bd 3d15 91bc 0981 b83d 73fe ca3d
00000060: 5584 b03d bf17 61bd eaed 11bd ecb6 893c
00000070: 03fa 9a3d 7e2a 353d 247c ea3c 1096 fabb
00000080: 79d0 313c 853b b63d 1215 ac3d ab96 dbbd
00000090: 0ae2 9f3d fe1b 853c a666 b5bd 49f3 b73d
000000a0: 8c79 2a3c 0e15 d63c 7815 e63d ddc6 8ebd
000000b0: dcd6 82bc ed12 ad3d 4a7e 40bd ef1a d9bd
000000c0: fcec a3bc cf1b d5bd 663e c3bc b648 8abd
000000d0: 150a 103e bba4 293d 8ffd d9bd e8b7 613d
000000e0: 4987 ff3d 6e4a c9bd bb96 033e 22e2 783c
000000f0: 0f59 a4bd 035c b3bd c112 063e 0f6a e2bd
00000100: f471 72bd e83a 31bb 7e51 d5bd dc28 b73d
00000110: 2c91 04be 82ad 5bbd 39b2 ec3c 98cf 4ebd
00000120: 7e47 fabd 2093 653d d992 773d 23b3 a4bd
00000130: 9bf2 00be d02a 583d ef5d 48bd d1b5 a33d
00000140: 89e9 b83d 48e9 fabc 8709 6d3d f1cf 5a3c
00000150: 308f d1bd d351 0a3d 22d4 4d3b 5f5a 2f3d
00000160: d397 bc3d 97e9 273d 75fe 1abd 1dbf 393c
00000170: bc14 063e 2126 613d 24dc 02be 5062 bcbd
00000180: e2ce ad3d 8c35 9bbc c1b3 143e c45f 9cbd
00000190: 2e28 cdbd 4ae1 953c aaeb 2d3d b120 c73d
000001a0: 2f20 bfbd e556 ea3d faeb aa3d 3824 8fbd
000001b0: 7e16 42bd 809e 32bd c0ad babc 1357 c3bd
000001c0: 64a8 783d fccc 153d 7664 8d3d 4361 b7bd
000001d0: de26 cc3d b997 933d aaa4 dfbc faed 4fbd
000001e0: 1803 403c 97a6 14bc dfa5 cbbd e7e3 d13d
000001f0: 4986 c73d 58bb d4bd 11d4 a9bc 95ff 2bbd

rnn.weight_hh_l0 f4 [128, 128]
0.04858011 -0.061963152 0.024627853 -0.027344339 -0.06360517 0.061700653 0.04530851 0.06330753
-0.008847375 0.01969827 0.051895004 0.0037940012 -0.05321446 -0.03516849 0.05614748 -0.07627677
-0.01945217 0.021880353 0.05371643 0.05569709 0.051180277 -0.04591268 -0.07219885 -0.049545396
0.0024213456 -0.08058102 -0.0244923 -0.019681541 -0.011789761 -0.071596175 -0.05282822 -0.039493926
0.05960903 -0.062335335 -0.025836276 0.039215382 0.031437185 -0.03578107 0.07089153 0.044249598
0.07014409 0.048588686 -0.06963135 -0.00068473973 0.045580022 -0.036590002 -0.06285449 0.036037408
0.007061985 -0.039562203 0.002296926 0.034674622 -0.03136997 0.04460449 -0.03909518 0.07243939
0.04282622 -0.07233305 -0.078208566 -0.0350695 0.04431084 -0.018384231 0.027738467 0.01878444
-0.027873391 0.049636528 -0.07253558 0.025762498 0.017595267 0.013994507 0.0053361002 0.032898962
-0.05835754 -0.05571815 0.024298305 0.0090143485 -0.045978688 -0.017994748 0.068436995 0.055303097
-0.072704576 0.006168276 -0.0164765 -0.034548603 0.04676899 0.06510171 -0.06373735 0.052808985
-0.0010784395 -0.0014649826 -0.0316572 0.0659933 -0.053385917 0.06479969 -0.04762006 -0.0817156
0.012567741 0.07012385 0.074348845 -0.022967894 0.014051328 -0.0068750815 -0.054819133 0.009120952
-0.07875083 0.024732906 -0.058695093 0.02138716 -6.883918e-05 -0.009257052 -0.019189704 -0.06658239
0.077844635 -0.007899383 0.06480643 0.008788667 -0.056809273 -0.022799633 -0.012030413 0.034711502
0.06074578 0.043127798 -0.024202514 0.038084466 -0.01567181 0.014588451 -0.053447064 0.070217974
0.06932085 0.0025138517 0.02811601 -0.025508324 0.08233243 0.05382753 -0.021653585 0.07753692
0.10583603 -0.03361678 -0.024407376 -0.009488279 -0.03020399 -0.012240103 -0.050704718 0.046272114
-0.055766456 0.028663924 0.044436656 -0.04141529 0.036151163 0.055945657 -0.04271104 0.06299125
-0.07577919 0.080256246 -0.052003834 -0.054380182 -0.057931863 0.069845475 -0.043876536 -0.047061384
0.091000214 -0.003229779 -0.013226092 0.0019109267 -0.008147548 -0.05851748 0.01818353 -0.002120114
0.05864102 0.00267113 -0.018652955 -0.01954534 -0.04448506 -0.018495146 -0.031055022 0.03734971
-0.02471779 -0.067702234 -0.022874888 -0.043198597 0.08341761 -0.053836897 0.008193185 0.012785569
0.079292215 -0.017442793 0.07524385 0.04389762 0.08575714 -0.058594264 0.08225691 -0.03160745
0.011841931 0.09112902 0.023207884 0.06848832 -0.014160862 0.008429429 -0.05839102 0.07013483
0.008237386 0.031739652 0.042814065 -0.046280928 0.050048012 -0.057253372 0.023703063 -0.024794798
0.025310095 0.054420177 0.012216091 -0.064142056 0.05778871 0.043792047 -0.054815512 0.07783558
-0.005735173 -0.029696062 0.026749935 0.1784936 0.05512661 0.037633296 0.023596708 0.06902701
0.044030476 0.04486001 -0.016924543 -0.06715195 0.06860489 -0.043163415 -0.031688392 0.011453091
0.030351974 0.09023361 0.0189241 0.072783865 0.052864898 0.00059166923 0.0684635 0.03802745
0.0064645866 -0.06988196 0.017145878 0.058057178 -0.028431112 0.08097598 -0.031138767 0.00975859
0.05675419 0.06559141 0.04344488 0.047323864 0.0148092285 -0.024092989 0.051789165 0.060819983
00000000: f0fb 463d 13cd 7dbd 5ac0 c93c 3c01 e0bc
00000010: 6d43 82bd d3b9 7c3d 6b95 393d 61a7 813d
00000020: 95f4 10bc 445e a13c db8f 543d c7a4 783b
00000030: 68f7 59bd d60c 10bd e6fa 653d ff36 9cbd
00000040: 285a 9fbc 6d3e b33c c205 5c3d a222 643d
00000050: 69a2 513d ef0e 3cbd fedc 93bd 1df0 4abd
00000060: 70af 1e3b a907 a5bd 13a4 c8bc 2f3b a1bc
00000070: d729 41bc 04a1 92bd 6762 58bd 62c4 21bd
00000080: 9928 743d 5653 7fbd 99a6 d3bc 4fa0 203d
00000090: 47c4 003d 2c8f 12bd 942f 913d 113f 353d
000000a0: b4a7 8f3d ee04 473d e29a 8ebd 1b80 33ba
000000b0: 1eb2 3a3d 66df 15bd dbb9 80bd f69b 133d
000000c0: 3968 e73b fa0b 22bd 0688 163b fa06 0e3d
000000d0: cc7d 00bd 33b3 363d 4422 20bd 1a5b 943d
000000e0: 8c6a 2f3d 5a23 94bd d02b a0bd 09a5 0fbd
000000f0: 497f 353d 879a 96bc c83b e33c d3e1 993c
00000100: bd56 e4bc ac4f 4b3d 898d 94bd e00b d33c
00000110: f323 903c 3749 653c 74da ae3b 10c1 063d
00000120: 5108 6fbd b738 64bd 3d0d c73c ebb0 133c
00000130: 2654 3cbd b969 93bc b228 8c3d 8085 623d
00000140: 23e6 94bd 401f ca3b baf9 86bc d682 0dbd
00000150: d790 3f3d 0c54 853d ba88 82bd 3c4e 583d
00000160: 6d5a 8dba a904 c0ba fbaa 01bd 7f27 873d
00000170: 31ab 5abd b3b5 843d 410d 43bd 825a a7bd
00000180: ede8 4d3c 189d 8f3d 3544 983d 2a27 bcbc
00000190: 8b37 663c 5d48 e1bb 078a 60bd 0c70 153c
000001a0: 1d48 a1bd aa9c ca3c 446a 70bd 2034 af3c
000001b0: c15d 90b8 e4aa 17bc ba33 9dbc 595c 88bd
000001c0: 026d 9f3d 6a6c 01bc 3cb9 843d 57fe 0f3c
000001d0: d7b0 68bd 4cc6 babc 361b 45bc a62d 0e3d
000001e0: 91d0 783d c6a6 303d 5a44 c6bc 75fe 1b3d
000001f0: 2b62 80bc 6604 6f3c 4feb 5abd 71ce 8f3d
00000200: 17f8 8d3d 6fbf 243b 8c53 e63c d5f6 d0bc
00000210: e89d a83d 427a 5c3d dc62 b1bc adcb 9e3d
00000220: 8fc0 d83d c0b1 09bd faf1 c7bc ba74 1bbc
00000230: 5c6e f7bc b78a 48bc c0af 4fbd d487 3d3d
00000240: 5e6b 64bd 9bd0 ea3c 3603 363d 14a3 29bd
00000250: 3e13 143d 4627 653d c5f1 2ebd 8e01 813d
00000260: 1f32 9bbd 635d a43d f901 55bd c1bd 5ebd
00000270: f649 6dbd 250b 8f3d e2b7 33bd 70c3 40bd
00000280: 525e ba3d b3aa 53bb 40b2 58bc 0f78 fa3a
00000290: 4b7d 05bc 06b0 6fbd a0f5 943c 9cf1 0abb
000002a0: 9131 703d 200e 2f3b 15ce 98bc 8d1d a0bc
000002b0: f735 36bd 2283 97bc 1a67 febc 02fc 183d
000002c0: f67c cabc 78a7 8abd 1e64 bbbc 03f1 30bd
000002d0: dad6 aa3d 1484 5cbd b53c 063c 907a 513c
000002e0: f563 a23d 30e4 8ebc 7319 9a3d fecd 333d
000002f0: 70a1 af3d 8a00 70bd 5076 a83d d076 01bd
00000300: a904 423c daa1 ba3d 761e be3c 9b43 8c3d
00000310: f602 68bc 961b 0a3c 6c2b 6fbd daa2 8f3d
00000320: 1af6 063c 7001 023d cd5d 2f3d 1291 3dbd
00000330: 25ff 4c3d 8382 6abd ed2c c23c 761e cbbc
00000340: 1e57 cf3c b1e7 5e3d 0026 483c e95c 83bd
00000350: dbb3 6c3d 4a5f 333d 3b86 60bd 4368 9f3d
00000360: 1eee bbbb 2845 f3bc ae22 db3c 07c7 363e
00000370: 71cc 613d 5f25 1a3d e24d c13c 085e 8d3d
00000380: 4d59 343d 21bf 373d 57a5 8abc f686 89bd
00000390: b880 8c3d 1fcc 30bd b0cb 01bd bfa5 3b3c
000003a0: b4a4 f83c 66cc b83d b706 9b3c b50f 953d
000003b0: dd88 583d 401a 1b3a 9736 8c3d acc2 1b3d
000003c0: e2d4 d33b 461e 8fbd 8375 8c3c 5dcd 6d3d
000003d0: 5de8 e8bc bcd6 a53d ba16 ffbc 7ee2 1f3c
000003e0: 1577 683d ca54 863d 42f3 313d abd6 413d
000003f0: 68a2 723c a95e c5bc e020 543d 601e 793d

rnn.bias_ih_l0 f4 [128]
-0.060005393 0.044544246 0.0061323927 -0.011702464 0.06909481 -0.024823941 0.028842846 0.007819658
-0.049825687 0.08824306 -0.07937379 0.045959976 0.053849574 -0.041710686 -0.039168555 -0.07168697
0.01361525 0.018641384 -0.0036568018 0.056007314 -0.024218673 -0.004184083 0.054929554 0.0041386443
0.030202853 -0.043028533 -0.047869347 0.0074692136 -0.02424978 -0.0029016873 -0.017139398 -0.030785553
-0.08786721 0.047949202 -0.023094865 0.018300803 -0.009787007 -0.086356126 0.028094068 0.028497051
-0.01410332 -0.0008577391 0.054006968 0.057220455 -0.022250477 0.04690411 0.049439553 -0.045942985
0.00256992 0.09047899 -0.06576347 -0.008717033 -0.0023783343 0.02558135 -0.059987478 0.05493959
-0.08894907 -0.024423035 -0.018446092 -0.017872475 -0.043140676 -0.006136327 0.020857112 -0.0050784624
-0.055664953 0.035237618 -0.03958248 0.0011697953 0.039663695 0.05786631 -0.011030965 0.064056434
-0.007175807 0.01053546 -0.02748553 0.020373084 0.007927592 -0.044068456 -0.057112124 -0.080809
-0.045246627 0.03286529 0.060555104 -0.07948357 -0.043184407 0.037243478 0.019903414 0.027421402
0.044354875 0.0003238781 -0.067495994 0.11865651 0.039351515 -0.008308499 0.07533819 0.014966594
0.047462076 -0.06509115 0.062036756 -0.032446418 -0.051631153 0.03827756 0.035349697 0.0447796
-0.06497896 0.010711895 0.06523905 -0.08934276 -0.035332188 -0.08217246 -0.07433995 -0.03881152
0.004783913 0.0032534823 0.005889791 -0.027484743 -0.01998392 -0.048269086 0.009727209 0.05063548
-0.11279598 -0.069074705 -0.076776676 0.048643358 0.028186746 0.042678334 0.059232976 -0.0850836
00000000: 37c8 75bd 0774 363d 3df2 c83b b1bb 3fbc
00000010: 9481 8d3d 945b cbbc d547 ec3c 061e 003c
00000020: 0516 4cbd c7b8 b43d ba8e a2bd 8740 3c3d
00000030: 5f91 5c3d d3d8 2abd 356f 20bd 9ed0 92bd
00000040: 7f12 5f3c d1b5 983c f4a6 6fbb ed67 653d
00000050: 3d66 c6bc a21a 89bb d0fd 603d 779d 873b
00000060: f96b f73c b03e 30bd a612 44bd 4ec0 f43b
00000070: 7aa7 c6bc 3c2a 3ebb ec67 8cbc fc31 fcbc
00000080: b9f3 b3bd 6266 443d 7131 bdbc 91eb 953c
00000090: af59 20bc 7bdb b0bd 8825 e63c a672 e93c
000000a0: 9d11 67bc e6d9 60ba 6936 5d3d ff5f 6a3d
000000b0: a246 b6bc 861e 403d 2181 4a3d b62e 3cbd
000000c0: 1a6c 283b 0c4d b93d 00af 86bd e3d1 0ebc
000000d0: d4dd 1bbb fb8f d13c 6eb5 75bd 5608 613d
000000e0: ee2a b6bd d112 c8bc 421c 97bc 4c69 92bc
000000f0: 47b4 30bd 3e13 c9bb 89dc aa3c 3b69 a6bb
00000100: ef00 64bd 5255 103d 3d21 22bd d153 993a
00000110: 6676 223d 3905 6d3d 38bb 34bc 0530 833d
00000120: 0823 ebbb ec9c 2c3c 5629 e1bc 74e5 a63c
00000130: bbe2 013c 2081 34bd 67ee 69bd 307f a5bd
00000140: 8754 39bd c19d 063d a108 783d 48c8 a2bd
00000150: 22e2 30bd 9e8c 183d 7c0c a33c d9a2 e03c
00000160: 75ad 353d 2fce a939 573b 8abd 2f02 f33d
00000170: 0e2f 213d 5f20 08bc e94a 9a3d 7236 753c
00000180: 9867 423d 824e 85bd 411a 7e3d 89e6 04bd
00000190: 307b 53bd eec8 1c3d d8ca 103d d06a 373d
000001a0: b013 85bd f280 2f3c 0d9c 853d 56f9 b6bd
000001b0: 7cb8 10bd 094a a8bd 8b3f 98bd d4f8 1ebd
000001c0: 5fc2 9c3b 6038 553b 26ff c03b af27 e1bc
000001d0: 51b5 a3bc ceb5 45bd df5e 1f3c 2667 4f3d
000001e0: 9401 e7bd 0a77 8dbd 173d 9dbd 423e 473d
000001f0: e4e7 e63c 7acf 2e3d 479e 723d 4f40 aebd

rnn.bias_hh_l0 f4 [128]
0.010349116 -0.043178234 -0.013618106 0.016021423 -0.002936274 -0.09199288 -0.037699975 -0.0051562646
-0.04403094 -0.011254063 -0.057008855 -0.07337583 -0.07221388 0.026988797 -0.0020198007 0.0466876
-0.065228105 0.04051632 0.041594014 0.013362805 -0.062418602 -0.057426475 0.06504368 -0.035462756
0.04691299 -0.016483346 -0.07112323 -0.03397416 -0.056591623 -0.06272318 -0.052170165 -0.048868977
0.027333684 0.03191196 0.036635116 -0.010897964 -0.020953491 0.05142616 -0.034580924 -0.003985661
0.07253573 -0.015901195 -0.016619558 -0.020897282 0.053983454 0.0013715363 -0.033772197 0.0058159535
0.056571763 -0.013301646 -0.041535318 0.013040838 0.026581734 -0.021244029 -0.028627539 0.0004933674
0.07562786 -0.061616138 0.051081285 -0.058556326 -0.060182545 -0.011160819 0.076881506 -0.0816311
0.0859426 0.0075505907 0.046684597 0.05900387 0.04484074 -0.04964998 -0.07062188 -0.026466424
0.09557651 0.053686522 0.01369542 0.033153422 0.04853786 -0.03737832 -0.076843664 -0.06864694
0.07230816 -0.049137216 0.021680197 0.069449514 0.08332896 0.014982542 -0.044749312 0.07590356
0.027428709 -0.013043726 0.080547675 0.015807685 -0.003558181 -0.03477449 0.053000994 0.083285876
0.04714375 -0.02290713 -0.0077766 -0.007290665 0.0105440365 -0.10297885 -0.04418817 0.067183204
0.0275445 -0.07129402 -0.085239 0.060024455 -0.087844 0.0736222 0.018151512 -0.08564489
-0.049225885 -0.081805356 -0.009362153 -0.075442985 0.062526904 -0.022174336 -0.012130658 0.06909492
-0.10323173 0.012577023 -0.014782063 -0.06696977 -0.028863387 0.027323948 -0.026755473 0.011239099
00000000: 578f 293c a9db 30bd 7a1e 5fbc 5c3f 833c
00000010: 816e 40bb c366 bcbd 4a6b 1abd e2f5 a8bb
00000020: c959 34bd f662 38bc 1e82 69bd 1146 96bd
00000030: dfe4 93bd 9c17 dd3c a25e 04bb 7f3b 3f3d
00000040: 5096 85bd 71f4 253d 7c5e 2a3d abef 5a3c
00000050: a6aa 7fbd 0638 6bbd 9f35 853d 6541 11bd
00000060: d627 403d 1508 87bc 0ea9 91bd 7d28 0bbd
00000070: 9ecc 67bd 0375 80bd 62b0 55bd d62a 48bd
00000080: e4ea df3c 1eb6 023d b40e 163d 608d 32bc
00000090: a8a6 abbc 3da4 523d baa4 0dbd 269a 82bb
000000a0: 9d8d 943d 3943 82bc bd25 88bc c730 abbc
000000b0: c11d 5d3d 1fc5 b33a b754 0abd c193 be3b
000000c0: cbb7 673d 26ef 59bc f020 2abd 3da9 553c
000000d0: f0c1 d93c f507 aebc 4d84 eabc 5355 013a
000000e0: c8e2 9a3d 3461 7cbd 9c3a 513d c2d8 6fbd
000000f0: f981 76bd dedb 36bc 0d74 9d3d 352e a7bd
00000100: ad02 b03d f26a f73b 5938 3f3d 0bae 713d
00000110: ecaa 373d c75d 4bbd 34a2 90bd 1dd0 d8bc
00000120: 9ebd c33d 66e6 5b3d c162 603c e2cb 073d
00000130: a3cf 463d 021a 19bd 3660 9dbd c496 8cbd
00000140: 4d16 943d 1b44 49bd ab9a b13c 8c3b 8e3d
00000150: 60a8 aa3d 5679 753c 0e4b 37bd 5373 9b3d
00000160: 2cb2 e03c 5ab5 55bc 2ef6 a43d 1e7f 813c
00000170: 5f30 69bb b26f 0ebd 9217 593d c991 aa3d
00000180: ce19 413d bca7 bbbc d9d2 febb 88e6 eebb
00000190: e5c0 2c3c 93e6 d2bd a8fe 34bd 5997 893d
000001a0: 01a5 e13c 9902 92bd c991 aebd 34dc 753d
000001b0: 8ee7 b3bd 3cc7 963d 7bb2 943c 9766 afbd
000001c0: 15a1 49bd 9189 a7bd b763 19bc da81 9abd
000001d0: 1b0e 803d f4a6 b5bc abbf 46bc a381 8d3d
000001e0: 286b d3bd dc0f 4e3c 7730 72bc 7227 89bd
000001f0: e972 ecbc 79d6 df3c 4b2e dbbc 3324 383c

out.weight f4 [1, 128]
-0.03183879 0.021287931 -0.023063462 -0.069310404 -0.040276747 0.06511656 -0.09317871 -0.059849285
0.06666783 -0.010129131 0.027283477 -0.014914861 -0.0073246895 -0.040968183 -0.076040685 -0.05340811
-0.05071226 0.073142074 -0.050079454 0.06552486 -0.06683246 -0.018913893 -0.011705392 0.045993827
-0.068216145 0.046931006 -0.021416595 -0.032615047 -0.060238965 0.05788725 0.051590756 0.005347982
-0.082659796 0.016910186 -0.020633988 -0.087931946 0.05795383 0.056397982 0.044057295 0.054623216
-0.042129803 -0.015362208 0.02242428 0.02857494 -0.08414722 0.074768215 0.00940078 -0.0012726382
0.029442267 -0.029184489 0.050246116 0.027756931 0.06441736 -0.0007359673 -0.06426436 0.10309523
-0.016722405 -0.051123876 -0.009512322 -0.05784961 -0.056001052 -0.08013251 0.013728716 -0.07278983
-0.0638542 0.06640249 -2.767215e-05 0.07001253 -0.018160934 0.022758728 0.009685292 0.07716263
0.0274693 -0.023270242 0.06840497 0.027006632 -0.055174902 -0.06147237 -0.065299146 0.044572942
0.037574884 -0.017759493 0.0037021239 -0.014866524 -0.06168975 0.072944336 0.027075564 0.014324311
0.00019192696 -0.047460046 0.067111835 0.12996127 -0.0038363894 -0.06239984 -0.044591803 -0.02978137
0.024706978 -0.016403407 0.041025188 -0.010155513 0.029010393 -0.019037684 0.02477405 0.027946252
-0.01942248 0.030683197 0.063600175 0.03037697 -0.052782066 0.070943974 -0.003834361 -0.012960742
-0.024687303 -0.0062796474 0.021946643 0.009958678 0.050302204 -0.06583446 0.021911126 -0.038075868
-0.016535783 0.049519952 -0.08559628 0.056360193 0.07136504 -0.035281807 0.008806372 -0.0636641
00000000: 6469 02bd 0764 ae3c 96ef bcbc 9df2 8dbd
00000010: 3bf9 24bd d55b 853d 7bd4 bebd 8624 75bd
00000020: 2589 883d a8f4 25bc 9981 df3c 765d 74bc
00000030: f303 f0bb 41ce 27bd 38bb 9bbd 76c2 5abd
00000040: a9b7 4fbd 83cb 953d 1d20 4dbd e631 863d
00000050: 75df 88bd 4ff1 9abc f9c7 3fbc 0664 3c3d
00000060: e8b4 8bbd ba3a 403d db71 afbc 5b97 05bd
00000070: 22bd 76bd 2e1b 6d3d d450 533d 203e af3b
00000080: 8a49 a9bd 3b87 8a3c 9c08 a9bc aa15 b4bd
00000090: ff60 6d3d 9201 673d 6c75 343d 98bc 5f3d
000000a0: 4d90 2cbd c5b1 7bbc 20b3 b73c fe15 ea3c
000000b0: 6155 acbd 1420 993d bb05 1a3c a7ce a6ba
000000c0: e930 f13c 4f14 efbc dfce 4d3d 8162 e33c
000000d0: 40ed 833d eeed 40ba 089d 83bd 9823 d33d
000000e0: 6dfd 88bc 4567 51bd 92d9 1bbc b6f3 6cbd
000000f0: 5c61 65bd 831c a4bd 69ee 603c d612 95bd
00000100: fec5 82bd 07fe 873d 7d21 e8b7 bb62 8f3d
00000110: 3dc6 94bc 8370 ba3c 0faf 1e3c 7107 9e3d
00000120: 4c07 e13c 3ca1 bebc e817 8c3d 033d dd3c
00000130: 14ff 61bd 74ca 7bbd 8fbb 85bd 1e92 363d
00000140: 1fe8 193d 5b7c 91bc 559f 723b b992 73bc
00000150: 64ae 7cbd d763 953d 93cd dd3c 84b0 6a3c
00000160: 0040 4939 7765 42bd ee71 893d 9114 053e
00000170: ef6b 7bbb fa96 7fbd e5a5 36bd 0ff8 f3bc
00000180: 4a66 ca3c 7060 86bc 070a 283d 4f63 26bc
00000190: 34a7 ed3c ebf4 9bbc f3f2 ca3c 8aef e43c
000001a0: e51b 9fbc 545b fb3c cf40 823d 20d9 f83c
000001b0: 0232 58bd 134b 913d e749 7bbb 4b59 54bc
000001c0: 073d cabc 80c5 cdbb 72c9 b33c b929 233c
000001d0: af09 4e3d 38d4 86bd f67e b33c 71f5 1bbd
000001e0: 0d76 87bc 6fd5 4a3d 1a4d afbd f2d9 663d
000001f0: d627 923d a883 10bd 9a48 103c 5362 82bd
