rnn_weights/best_failed_weights_32_random_g0.5_tanh_ready_set_go.pt (torch, 7247 bytes, 5 tensors)

rnn.weight_ih_l0 f4 [32, 2]
00000000: 4dba d6bd 1240 143e 3e43 803e bd20 bdbd
00000010: 276b b6bd 1d01 c73e 3cbf 363d 4d02 28bd
00000020: 8b9d 4abe 5c33 5d3c d5ce abbe 3768 253e
00000030: b806 263e 3e41 3e3e 30b0 bc3e 1442 cf3e
00000040: afb1 333e febd 2dbe 3752 b53e 146d 6cbc
00000050: b793 b9be 7b4f 863e 9df7 c6be a8a3 b23d
00000060: 394b 163f d885 e4bc fdb8 993d 4690 c43e
00000070: 594b 183e f190 5f3e 0d16 fdbe 7f9c 833d
00000080: 0f79 c0be 5581 2cbe 5ea8 13bd ba5c eebd
00000090: f32f 92bd 91e3 aabe 9307 f7be 3ab0 07be
000000a0: b8da e33d 0160 bc3e 2483 763a 2e0c dabd
000000b0: 3e52 fe3e 7f15 9d3e 7038 ec3d 3431 09be
000000c0: 0061 8cbe 045a 6dbe 67b7 063e 0012 e73e
000000d0: 027e 59be fa2e 9f3c a26a 073f 4b92 123e
000000e0: 7b9b a9be 3800 d1bd 2558 7c3e 2248 123e
000000f0: d1f3 813e e8a7 83bd 4376 d1be 11db 6fbe
-0.10484753 0.14477566 0.25051302 -0.0923476 -0.089071564 0.38868037 0.04461597 -0.04101782
-0.1978666 0.013501015 -0.33556238 0.16153036 0.162135 0.18579575 0.3685317 0.404801
0.1754825 -0.16967008 0.35414287 -0.014430303 -0.3624551 0.26232514 -0.3886079 0.08722621
0.5870853 -0.027895853 0.07505987 0.38391322 0.14872493 0.21832635 -0.49430886 0.06426334
-0.3759236 -0.16846211 -0.03604924 -0.1163878 -0.07138052 -0.33376744 -0.48247966 -0.13250819
0.11125702 0.36791995 0.0009403697 -0.10646854 0.4967212 0.30680463 0.11534202 -0.13397676
-0.27417755 -0.2317887 0.131559 0.4513092 -0.21239474 0.01943158 0.52897084 0.14313619
-0.33126435 -0.1020512 0.24643 0.14285329 0.2538133 -0.0642851 -0.4091054 -0.23423411

rnn.weight_hh_l0 f4 [32, 32]
00000000: 450d 5f3e 4ac9 133d 9344 77bc 1a9c 943d
00000010: d1a5 623d 3334 ebbc c7da 023e a51f 22bd
00000020: 0233 953c ef20 4b3a 6b01 15be d5f1 caba
00000030: b6e7 febd b9a1 91bc 21b7 ef3d 5f1c a4bd
00000040: 714b b13d b404 033c 6338 403d 5e9f 323e
00000050: 3c4e 823e d8d9 373d 9a48 5ebe 4850 073e
00000060: 56aa df3b 036f 993a 8561 a73c b80f c8bd
00000070: 5a02 fdbc 75cd b0bd 521f 54bd ba9e b33d
00000080: d905 883e d21e 34bc 02cb 94bc 8f60 bebc
00000090: 23fd 873e c0eb 20be d725 31bc 4863 053c
000000a0: 4c99 3dbd bc6c 82bd 1cb9 79bd aa63 703e
000000b0: 575e 55be b75a 4dbd f1d5 5bbe 07c0 b73d
000000c0: e0dc 3a3e 1b0f 0d3e 9f88 86bd a8a5 9f3d
000000d0: 36f9 1a3e 086e bf3c 9a46 4b3d 6457 483d
000000e0: 8a26 dabd d1da 08bd 0b26 54bd 3e68 1b3e
000000f0: ca7f 92be 7c26 5abc 5559 a73e 1509 413d
00000100: db1b e1bb 632f 0a3e 34f9 b33e c3bf 173e
00000110: 81f6 9e3c 3ced ae3d e2c0 983d 8d31 16bd
00000120: ed82 5bbe 8cf0 0cbe defe f73d 3798 9f3e
00000130: c609 68be 2a42 613e ab34 1a3d 8b2e 1f3e
00000140: 0a20 c3bc 673d c23c 56ee 9bbe e7a3 d53e
00000150: 7c06 b8bd f294 aa3d adcd 5e3d f990 4fbe
00000160: ff98 adbd 130e c43b bd29 08bc f470 03bc
00000170: 5d36 c5bb 75ec 583d acb3 313c 4600 773c
00000180: 258b ab3d 63be f13c e950 a13e ad88 e43e
00000190: 9a9d 593e a91d 143e b07c c73d 2529 a6bd
000001a0: 6e1f 5abe b822 cfbd 344e c43e 03b6 393f
000001b0: aaab 8dbe 499c f13d 10e1 5fbe f0ca a43e
000001c0: 9508 0bbc 649d 6b3e a1b2 17be c741 023f
000001d0: 4709 45be 46b1 a23e 6927 02be d042 ae3d
000001e0: 2a77 39bd 7ea9 43bd 5979 23be 9e7e f4bd
000001f0: bc7b 003d 69a2 b83d 42a8 cebd 86d5 1dbe
00000200: b635 d83d 5be7 3abd 5d15 483d 7ca2 693e
00000210: 8d47 f83d af99 abbb 9250 a33c f423 36bd
00000220: 5787 b83d 8029 60bd 8f26 0f3e 8860 ce3d
00000230: 7276 00be 82a6 27be 35e9 113e c509 2abd
00000240: 8448 413e 1b27 523e df78 9cbb 87e5 2fbc
00000250: 04e9 6a3e 560c ab3d 28bb 85bd f25d a8bd
00000260: 87e9 e63c 5850 913d 3586 3f3d adce 933e
00000270: e4ec 233d ab7e 23bc 38ba 143e 95ef 11bd
00000280: e8c3 19be 6954 b83d 4e26 733e 9f92 42be
00000290: 1ba6 6bbe 3a8f 09bc 8493 cd3d 3f46 6c3d
000002a0: d6d1 c2bd 324b 9ebd 7f6f 4d3e f175 043e
000002b0: ce12 b6bd 3d36 c93d e3d5 35bd 0ec6 17bd
000002c0: 03b6 68bd e411 a93b f8f5 e5bd 6939 05bd
000002d0: a13e fcbc 2b18 363d 3a31 6cbd b119 88bd
000002e0: b8d4 1ebe 4936 c53c a371 a83d 0c53 87bd
000002f0: 04be 6fbb 4cde 983c 7069 3a3d eb93 5dbb
00000300: 52ab bcbc 0af7 973d a955 023a f576 6f3d
00000310: dc56 39bd 1cea a63d a77f a33d 0625 913e
00000320: f521 4f3e 4663 2d3c 0819 0ebe 2229 323e
00000330: cda5 89bc 0eb8 99bd 5277 a4bc df58 003e
00000340: 2afa 3dbe 4171 343e 21de d0bd 892c 0eba
00000350: 9719 2abd af6c 763c b8b1 1b3d 223c 33bd
00000360: be75 74be f15f c23d 9f20 74be 8d39 103d
00000370: bb86 5bbe 1166 403e 2f92 e1bd 216e 5ebe
00000380: 2b17 cf3d 7447 853d 1834 eebd 164e e73b
00000390: 19f4 80bd f6b9 cebd d588 05bb 5485 023e
000003a0: f83b da3d b68c e73d f07b ccbd f64c 1ebe
000003b0: 9169 ae3d bd01 51bc 2a19 73bd 2863 9fbd
000003c0: 91ce 0bbe 7c5f 8cbd 15db 6f3e a628 debd
000003d0: 6dea 343d a95e 543d fd7d 053e 2b2a 1d3e
000003e0: 0b3e f7bd a0b8 053e abfb 9cbd d519 783e
000003f0: 6856 c4bc 196b 2abd 5e44 acbd e730 10be
0.21782406 0.036080636 -0.015092033 0.072563365 0.055333916 -0.028711414 0.1277877 -0.03958096
0.018212799 0.0007748743 -0.14551322 -0.0015483449 -0.12446539 -0.01777731 0.11704851 -0.08013224
0.086569674 0.007996727 0.046928775 0.17443606 0.25450313 0.044885486 -0.21707383 0.13214219
0.0068257255 0.0011706058 0.020432243 -0.09768623 -0.03088491 -0.08632938 -0.051787682 0.08770509
0.2656696 -0.010993676 -0.018163208 -0.023239402 0.26560315 -0.15714931 -0.010812244 0.008141346
-0.046288773 -0.06368396 -0.06096755 0.23475519 -0.20836769 -0.05013534 -0.21468331 0.08972173
0.1824832 0.13775294 -0.06569027 0.07795268 0.15134129 0.023367897 0.049627878 0.048911467
-0.10651882 -0.033411805 -0.051794093 0.15176484 -0.2861312 -0.013314839 0.32685342 0.047127802
-0.0068697757 0.13494639 0.35151064 0.14819245 0.019404652 0.085413426 0.074586645 -0.03666835
-0.21436663 -0.13763636 0.12109159 0.31170818 -0.22659978 0.21997896 0.037647884 0.15545098
-0.023818988 0.02371092 -0.30455273 0.4172661 -0.08985612 0.0832919 0.054395366 -0.20270146
-0.08476447 0.005983123 -0.008310732 -0.008022536 -0.0060184435 0.052959878 0.01084606 0.015075749
0.08376149 0.029509729 0.31507042 0.44635525 0.21251526 0.1446444 0.09740579 -0.081133164
-0.21301052 -0.10114044 0.38340914 0.7254335 -0.27670032 0.11797387 -0.21863198 0.3218608
-0.008485933 0.23009259 -0.14814235 0.5088162 -0.1924182 0.31775874 -0.12710346 0.08508837
-0.04527966 -0.047769062 -0.15964259 -0.11938213 0.031368002 0.09015352 -0.100906864 -0.15413484
0.105571195 -0.045630794 0.0488485 0.22815889 0.12123022 -0.0052368264 0.01993588 -0.04446788
0.09010189 -0.054727077 0.13979553 0.100770056 -0.12545183 -0.16372111 0.14249118 -0.041513223
0.18875319 0.2052273 -0.004775151 -0.010735876 0.22940451 0.08351962 -0.06529838 -0.08221044
0.028187526 0.070954025 0.04675885 0.2886862 0.04002084 -0.0099789305 0.14524162 -0.035628874
-0.15016139 0.09000475 0.23745081 -0.19001244 -0.23012583 -0.008395964 0.10037902 0.05768418
-0.09512679 -0.07729186 0.20062064 0.12935616 -0.088903055 0.09824798 -0.04439343 -0.037054114
-0.056814205 0.0051596034 -0.112285554 -0.032525454 -0.030791583 0.044456642 -0.057664134 -0.06645525
-0.15510833 0.024073737 0.082247995 -0.06607637 -0.0036581764 0.018660687 0.04551071 -0.003381009
-0.02303091 0.07420166 0.0004971871 0.058463056 -0.04524885 0.081501216 0.07983332 0.2834856
0.20227797 0.010582751 -0.13876736 0.17398503 -0.016802693 -0.07505809 -0.020076428 0.12533902
-0.18552461 0.17621328 -0.10198618 -0.00054235064 -0.04152831 0.015040561 0.038011283 -0.04375852
-0.2387304 0.094909556 -0.23840569 0.035211135 -0.21438114 0.18788935 -0.110142104 -0.21721698
0.10111841 0.06507769 -0.1163103 0.007058869 -0.06296558 -0.10094063 -0.0020375748 0.12746173
0.106559694 0.11306135 -0.09984577 -0.15459046 0.08516229 -0.012756762 -0.05935017 -0.077825844
-0.13653018 -0.0685415 0.23423417 -0.10847597 0.04416888 0.051848087 0.13036342 0.15348117
-0.12072381 0.1305871 -0.07665189 0.24228604 -0.023966983 -0.041606043 -0.084114775 -0.14081155

rnn.bias_ih_l0 f4 [32]
00000000: b89a 32be 7dd2 08bd 3ebb 243d 5cdb 183d
00000010: e898 66be d87e 61bd b66e 89bd d1f3 36bc
00000020: 582b 3a3c 9e9f be3d d55c 61bd a8de fa3d
00000030: 310c 323e e3dc 64bc fab6 b0bd e15a a43d
00000040: 8df9 1dbe 596e 393e cc89 073d 154d e7bd
00000050: 8b67 d7bd 7133 b33d 8aff f5bd 84c8 4bbe
00000060: d9c7 1bbd 52e1 9abd ca57 323c 1991 97bd
00000070: dac1 ae3d 2e12 003e 5071 57be 06fe d33d
-0.17441833 -0.033403862 0.04021763 0.037318572 -0.22519267 -0.05505261 -0.067105696 -0.011166529
0.011362873 0.09307788 -0.055020172 0.122494996 0.17387463 -0.013968679 -0.0862865 0.08025146
-0.15427227 0.181085 0.033090398 -0.11293999 -0.10517796 0.08750046 -0.12011631 -0.1990071
-0.038032386 -0.07562508 0.010885188 -0.07400722 0.08533068 0.12506935 -0.21039319 0.103511855

rnn.bias_hh_l0 f4 [32]
00000000: 7d9a 4dbe 2d40 403d 2a6e 12be 9f4e 463c
00000010: 0029 14be c2f7 3a3e d780 f9bc 18b4 4a3e
00000020: 8cec 46bd bdb3 a6bd 0603 b5bc de37 19be
00000030: 7d1a ea3c 7665 153e a0f0 5a3d c55a a43d
00000040: 24dd 4abd 903e 0ebd 57bc 153c af65 c43d
00000050: 64fe 0cbe 09dc 233d 2493 b03d 612e 62bd
00000060: 7b6a 98bd d418 12be b1e5 a93c 081d 84bd
00000070: 7388 313d 647b c63d e64f 15be 3639 483c
-0.20078464 0.046936203 -0.14299837 0.012103706 -0.14468765 0.18258575 -0.030456943 0.19795263
-0.048565432 -0.08139751 -0.022096168 -0.14962718 0.028577084 0.14589486 0.053452134 0.080251254
-0.049527302 -0.034727633 0.009139142 0.09589707 -0.13768917 0.040004764 0.08621815 -0.05522001
-0.074421845 -0.14267284 0.020739408 -0.0645085 0.04334302 0.09691504 -0.1458126 0.012220671

out.weight f4 [1, 32]
00000000: 1071 823d 59bd 5fbc 8d0b d63c 001f 46bd
00000010: 8934 023d 7804 12be a584 2dbd 5bb6 ffbd
00000020: 45b6 34bd 24db 053d 6366 313c 2c7b be3d
00000030: a0d6 38be 81a8 2dbd afa5 d3bb cb31 18be
00000040: 98a5 f1bd 53ac 1cbf aee4 2abe 1f71 3abe
00000050: 4e95 45bd 28ef 65bd 86a1 a9bd 14bb 2ebd
00000060: f44e 68bd 5ad2 16bf 5951 15be aee1 0dbe
00000070: a6c4 a3bd c204 10bb 6fcd 103d d98d 983d
0.06369221 -0.013655984 0.026128555 -0.048369408 0.031788383 -0.14259517 -0.042362828 -0.124859534
-0.04411914 0.032679692 0.010827634 0.09300837 -0.18050623 -0.042397026 -0.00645896 -0.14862745
-0.117991626 -0.61200446 -0.16688797 -0.18207215 -0.04823809 -0.05613628 -0.08282761 -0.04265888
-0.05671592 -0.5891472 -0.14581813 -0.13855621 -0.07996492 -0.0021975492 0.035352167 0.0744893
