rnn_weights/best_failed_weights_128_random_g0.5_tanh_delay_discrimination.pt (torch, 70734 bytes, 5 tensors)

rnn.weight_ih_l0 f4 [128, 2]
000000 3c fc 0a be 56 16 81 3e be ff ad 3d 94 78 d4 3d
       -0.13572782 0.25212353 0.084960446 0.10374561
000010 02 a1 e1 bb 32 b3 c3 3e 5e 34 5e 3d d0 cb 6c bd
       -0.0068856487 0.38222653 0.05424916 -0.05781156
000020 90 ba 3f 3c b8 91 a5 3e 7f 4c 22 bd 71 75 d6 bd
       0.011702195 0.32337737 -0.039623734 -0.10471619
000030 d5 f9 38 bd 32 4d 7e 3e 77 2f 9a 3d 46 e3 6b be
       -0.045160133 0.24834135 0.075285845 -0.23035917
000040 01 ea 97 3d d5 a3 14 be 12 da a0 bd 85 f4 fe bd
       0.074176796 -0.14515622 -0.078540936 -0.12448982
000050 32 d7 e9 bb de f2 86 be a4 db b4 bb bf c6 ff bd
       -0.007136249 -0.26357168 -0.0055193473 -0.1248908
000060 b3 47 99 3d 92 cc f9 bd f6 1d a9 3c 68 54 88 bd
       0.07484379 -0.12197222 0.02064417 -0.06656724
000070 48 6e aa 3b 71 15 ca 3d 70 d6 a9 3d 14 6e 43 be
       0.005201135 0.09867371 0.08292854 -0.1908496
000080 9b 12 bc 3d 08 5a 89 3d b0 36 5b 3c b5 c7 31 3d
       0.09183236 0.06706625 0.013379738 0.043403346
000090 38 58 31 3c 69 5e 2f bd 1e 66 4f 3d 83 cb 1e 3b
       0.010824256 -0.042814646 0.050634496 0.002423019
0000a0 46 92 ed bd ba 8b bb bd 3a d1 24 3c 58 2d 05 3d
       -0.11600165 -0.0915751 0.010059649 0.032513946
0000b0 44 52 e5 3c 1b 70 2a 3d 60 83 b3 3d 2b 3e 85 be
       0.027993329 0.04161082 0.08765292 -0.26023993
0000c0 47 09 53 bd 8a 8c 1e bd 6e d6 d8 3d d4 aa dc 3d
       -0.05152252 -0.038708247 0.10587774 0.107747704
0000d0 0e f2 c0 bd 94 9d e7 bd f4 25 86 bc 5c 81 3c be
       -0.09421168 -0.113093525 -0.01637552 -0.18408722
0000e0 b1 0a db bc 20 9d 4a bc b4 4c aa bd d5 f8 9e 3b
       -0.026738496 -0.012366563 -0.08315411 0.0048514404
0000f0 a2 cd 86 3d 06 c1 2d be 94 d8 b4 3b 79 e8 6b 3e
       0.0658219 -0.16968164 0.005518982 0.230379
000100 f4 2b c9 3d 4f 04 02 bc 75 73 b7 bc 87 9c 42 be
       0.098228365 -0.007935598 -0.022393921 -0.19005023
000110 df d2 af 3d dc f2 74 be 33 45 79 bd 2b d1 fb 3d
       0.08585142 -0.23920768 -0.06085701 0.12295755
000120 88 9f 0b 3d 44 6c bf bd 62 01 c1 bd 36 13 00 be
       0.034087688 -0.09346822 -0.09424092 -0.12507328
000130 5e 7e e0 bb 9b bd d0 3e ae e6 ca bb 37 da 63 bd
       -0.0068510016 0.40769657 -0.00619205 -0.055628028
000140 22 d8 91 3d 69 90 1f be e6 2e 06 3d 1d ec 74 be
       0.07121302 -0.15582432 0.03275957 -0.23918195
000150 0d f3 c1 3d 83 d1 bc bd 3a 0d a3 3d 30 9b a3 bd
       0.094701864 -0.09219649 0.07961507 -0.07988584
000160 4d fd 08 3d 81 1d 81 be 49 f7 e7 3c f1 dd 5f bd
       0.03344469 -0.25217822 0.028316157 -0.05465502
000170 74 1a cd bc 9e 45 88 3e b7 b0 5f bd d7 d9 84 3e
       -0.025037028 0.26615614 -0.054611888 0.2594745
000180 74 c8 f8 3c 45 58 bd 3d f8 3a 6c bd 50 c1 25 bd
       0.030369021 0.09245352 -0.057673424 -0.04046756
000190 2c 9f e0 3d 28 d3 31 be fc dc cc bd 44 58 86 3b
       0.109678596 -0.17365706 -0.10003087 0.0040998776
0001a0 e6 a2 12 be 6d 3d 98 3e 4f b3 b0 3d ba 3e 52 3d
       -0.14319953 0.29734364 0.086279504 0.051329352
0001b0 b1 e6 2c 3e 1f 5d 1b 3e 5f 1c e6 3d 30 5e 10 be
       0.16884877 0.15172242 0.1123588 -0.1409843
0001c0 dc 2b 29 bd d8 f2 80 3d 3f 1a 6b bb dc c4 65 3e
       -0.041301593 0.06296319 -0.0035873798 0.22438377
0001d0 64 43 b6 3c 2f ed 27 bf 77 96 41 be 00 72 28 3b
       0.022248931 -0.6559629 -0.18905054 0.0025702715
0001e0 fb 86 64 bd 52 0f 21 be d4 0b bc 3d ef fd 17 bc
       -0.05579279 -0.157285 0.091819435 -0.009276851
0001f0 98 04 11 bd c4 75 c4 be d1 d2 94 3c df 4b 16 be
       -0.03540477 -0.38371098 0.018166931 -0.1467738
000200 ec 2e 91 bd e3 d5 1a be d0 b6 02 bd 3d af 88 3d
       -0.07089028 -0.15120654 -0.031912625 0.06674049
000210 75 ae f8 3d b1 49 04 be 22 7b 19 3d 05 4b 89 be
       0.1214265 -0.12918736 0.037470944 -0.26815048
000220 0e 13 0f bd 06 98 9e be 63 cb 03 bd 3a aa 69 3e
       -0.03493028 -0.3097536 -0.032176387 0.22818843
000230 87 eb 78 bd 71 b1 84 be 06 bd 88 3d 25 ac f3 bd
       -0.06077149 -0.25916627 0.06676678 -0.11898068
000240 00 79 bb bd 45 21 53 3e 89 5d 2c bd cf 5d a0 bd
       -0.09153938 0.2061816 -0.04208139 -0.078303926
000250 2b fe ab b9 1c cb f2 bd 80 b7 52 3d 95 db 9b bd
       -0.00032805032 -0.11855146 0.05144453 -0.07610241
000260 f4 c8 6a 3d 44 77 4a 3e 17 b8 9a 3d 70 cb 06 be
       0.05732055 0.19772059 0.075546436 -0.13163543
000270 fd 26 dc bc 15 2a ac 3e f4 94 1a 3d 6c 9d ab be
       -0.02687406 0.33625856 0.03773971 -0.3351854
000280 16 d3 21 3d b6 5c b9 be 94 2c 94 bd 78 0d 82 3d
       0.039507948 -0.36203545 -0.07235065 0.06350225
000290 56 b7 d4 bd 63 b0 8c be 12 b0 88 bd e3 a4 86 be
       -0.10386531 -0.27478322 -0.06674208 -0.26297674
0002a0 72 d1 a9 39 a7 13 fd 3c 80 10 f5 bc 24 5e 5b 3d
       0.0003239024 0.03089316 -0.029915094 0.053556576
0002b0 2c fa 1c be 89 25 59 be b8 24 c6 bd 3a 91 9c be
       -0.15329808 -0.21205725 -0.09674972 -0.3057955
0002c0 f4 3b cf 3b af ba 2b bd f5 3f a8 bc f5 21 c6 bd
       0.0063242856 -0.041926082 -0.02053831 -0.096744455
0002d0 95 9c 32 3d 2b c1 4b be 74 d8 63 bd cc 58 c1 bd
       0.04360636 -0.19897906 -0.055626348 -0.09440765
0002e0 c4 50 7c 3d 07 46 9d 3e 72 93 47 bd bd 97 d7 be
       0.06160046 0.3071749 -0.0487246 -0.42107955
0002f0 37 02 dc 3d 35 03 ca bd b6 9b 9c bd b3 ba 0d 3e
       0.1074261 -0.09863893 -0.07646887 0.13840751
000300 4c 91 89 3d a0 92 23 be f5 23 fe bc 26 40 9e 3e
       0.06717166 -0.15973902 -0.031023005 0.30908316
000310 2b 09 79 3d 0b 73 6d 3d 71 64 a3 3c 18 4e 21 bd
       0.06079976 0.05797104 0.019945355 -0.039381117
000320 f1 52 1a 3e 99 5d 9e bb bd 7d 5f bd 94 a7 18 be
       0.15070702 -0.004832935 -0.054563273 -0.14907676
000330 52 1a 70 bd 90 f6 2d bc 84 25 f2 bd 45 f7 10 bd
       -0.05861885 -0.010617867 -0.11823562 -0.035392065
000340 30 08 15 3d 9e db 9d be 93 72 0e 3d aa 33 11 3e
       0.03638476 -0.30831617 0.034777235 0.14179865
000350 18 d7 60 3a f6 ba 8d be d7 cd 11 bd 7b aa 4c 3c
       0.00085769733 -0.27681702 -0.035596695 0.012491818
000360 39 43 f5 bd 4e 0c 01 3e c6 50 0c bd 83 42 80 bd
       -0.11975712 0.1260235 -0.03425672 -0.06262686
000370 26 34 7b 3d d4 12 5a 3e e1 12 8e bd ab 98 bd bd
       0.06132903 0.21296245 -0.069371946 -0.09257635
000380 09 43 37 3c 63 de 92 3d 8c 8e cb 3b 4e a1 37 be
       0.011185416 0.07171323 0.0062120613 -0.17932627
000390 40 aa f1 bd 45 ec 49 be 8e 69 3d 3c 3a 3a 59 3d
       -0.11800051 -0.19719036 0.011560811 0.053034045
0003a0 ba a7 a6 bd cb 82 30 be e3 9b 9e bd a8 a0 89 bd
       -0.0813746 -0.17237394 -0.07744577 -0.06720096
0003b0 75 4a e4 3c 9c d4 a2 3d 86 ac 91 bc a9 75 26 3e
       0.027867535 0.07950708 -0.01778246 0.16255821
0003c0 c4 6e d2 3d 8d 6e a3 3e 01 98 a7 bd a7 e5 94 bd
       0.10275033 0.3192028 -0.08183289 -0.07270365
0003d0 74 02 90 3d eb b4 48 3e bc 4e cf 3c f8 05 78 3e
       0.07031718 0.19600265 0.025306098 0.24221027
0003e0 65 5f 9c 3d 3a 45 79 3d 3b 1a 83 bc f1 7f 23 3c
       0.076353826 0.060857035 -0.016003719 0.009979234
0003f0 ec cc 90 bd 9d 84 09 bd 08 b8 9a bd 5b 71 2f 3e
       -0.07070336 -0.033573736 -0.075546324 0.17133085

rnn.weight_hh_l0 f4 [128, 128]
000000 77 8e 74 bd c0 7f fd bc e3 17 8b bd ef e4 2b 3d
       -0.059706178 -0.030944705 -0.067916654 0.041966375
000010 98 e9 8c 3c 9b 44 f0 3c 5a 28 d8 bb 3a 19 9a 3d
       0.01720123 0.029329589 -0.006596607 0.07524343
000020 05 39 55 3d 0a 26 ce 3d b7 b7 38 3c 59 1d 68 bd
       0.05205633 0.10065849 0.01127427 -0.056668613
000030 36 e1 6d bc d4 dc 7c bd 71 96 85 bd e6 d1 9b 3c
       -0.0145190265 -0.061734036 -0.06522835 0.019020986
000040 77 56 8d 3d b4 1d 78 bd 09 69 43 bd 1b da bd bb
       0.069012575 -0.060575202 -0.04770759 -0.0057938225
000050 86 49 39 3c a0 c1 e8 bb e0 2a 8c bb 32 37 d4 3d
       0.011309033 -0.00710316 -0.004277572 0.1036209
000060 1e 24 b6 3c 46 2d 62 bd 0c 84 ac 3b 76 6f cf 3d
       0.022234019 -0.055218957 0.0052647647 0.10128681
000070 ba 65 2a 3c 79 a6 98 3d 5f c2 0b bb 08 8e b2 bb
       0.01040023 0.07453627 -0.002132557 -0.0054490604
000080 c7 18 c1 bb ad 99 97 3d 5e 3e fe bc 4c f6 05 3d
       -0.0058928463 0.07402358 -0.031035598 0.03270559
000090 ca 5e 97 bd c9 19 b1 bc d6 5b df 3d 4f 74 e3 3c
       -0.073911265 -0.02161874 0.10906188 0.027765421
0000a0 9e 1d 97 bc f6 d4 e2 bc 29 c2 95 bb c4 ac db bc
       -0.01844674 -0.027689438 -0.004570265 -0.02681578
0000b0 e3 03 ea bc 4f 1b dd 3c cf 79 9a 3c cb d6 9b bd
       -0.028566306 0.02699056 0.018856911 -0.07609328
0000c0 93 b5 90 3d 10 c1 af 3c d2 47 c3 3c 71 b6 37 bc
       0.070658825 0.021454364 0.023837958 -0.011212931
0000d0 14 4c 9a bd 35 64 71 bd b2 5d 51 bd c9 82 be 3b
       -0.07534042 -0.058933455 -0.051114745 0.0058139306
0000e0 07 99 98 bc 90 f7 7d 3d e5 9d 94 3d 2c 82 a4 3c
       -0.018627657 0.062003672 0.072566785 0.020081602
0000f0 4e 1e 90 bc 46 91 54 bc 4a 91 aa bc 92 74 52 bd
       -0.017592575 -0.012974089 -0.020821232 -0.0513807
000100 c6 2e f2 bc 1a 5b 4b bd 62 1a 82 3c ea b9 fc 3c
       -0.029563319 -0.049647428 0.01588172 0.03085037
000110 f9 5d 3b ba 9c 98 14 bc b5 56 97 3c 26 09 e2 bc
       -0.0007147487 -0.009069588 0.018473962 -0.027592253
000120 ae ae bd bd 92 29 83 bc da 3e 58 bd eb 72 53 bb
       -0.09261833 -0.016011033 -0.052794315 -0.0032264541
000130 0b ff 2c bd e1 2e fc bc 0b c4 11 bd 3c ee d7 bd
       -0.042235415 -0.030784072 -0.03558735 -0.105434865
000140 1b b2 83 bb ec 00 5c 3b 11 0d c6 3c 4d 7c 89 3d
       -0.0040190346 0.0033569885 0.024176152 0.067131616
000150 a4 3c 72 3d 8d ae 29 3d 27 b1 9b bc 30 70 94 bd
       0.059139863 0.04142623 -0.019005371 -0.072479606
000160 33 49 4f 3d 3e 06 ab bc fd 24 c2 bb 68 ba bf 3d
       0.050606918 -0.020877 -0.0059248195 0.09361726
000170 2e 76 05 bd d9 5e 27 bd fa 0b 76 bc 45 32 45 bc
       -0.032583408 -0.04086194 -0.015017504 -0.012035911
000180 ed 8e aa bd cf f3 f0 bc bc 02 8e bd 02 54 9f 3d
       -0.08328042 -0.029413132 -0.06934115 0.07779695
000190 2d 5a dc bc 01 9e ca bc 8f 46 16 3d 94 e1 ba 3c
       -0.026898468 -0.024733545 0.036688384 0.022812642
0001a0 95 6b 89 3c 8d 65 60 3b 70 7b 7d bd 18 6f 5a 3b
       0.016774932 0.0034240216 -0.061885297 0.0033330377
0001b0 e1 11 f8 bb 94 19 60 3d 97 83 9e 3c cd 09 ea 3c
       -0.0075704907 0.054711893 0.019349856 0.028569127
0001c0 f8 76 10 3d 02 4b 55 3d b7 ec a2 bb 42 9e 96 3b
       0.035269707 0.052073486 -0.0049720663 0.0045965025
0001d0 7a 68 8b 3b 39 45 0a bd e5 67 8d bd ed a2 4d 3d
       0.004254398 -0.033757422 -0.06904582 0.050204206
0001e0 d4 b2 a1 bd 76 e5 00 3e 7e d6 a4 bd 59 e4 8d bd
       -0.07895437 0.12587532 -0.08048724 -0.069283195
0001f0 da 3d d0 3c 41 cd 80 3c ba 07 90 3c 9b de cc 3c
       0.025420118 0.015722873 0.01758181 0.02500849
000200 79 69 6c 3d 54 39 54 bc bd e1 d4 3c 17 2f dc 3c
       0.057717774 -0.012953121 0.025986547 0.026877923
000210 40 24 88 3d 9e 9f 74 bd 71 11 a6 bd c8 e9 3a bd
       0.06647539 -0.059722535 -0.081087954 -0.045633107
000220 7f 5c 6c 3d b7 b4 e1 bd 6a b3 1d b9 10 31 ce bd
       0.0577054 -0.11020797 -0.00015039524 -0.10067952
000230 df 68 e4 bc 0d 39 78 3d fc 86 55 bc 20 31 9f 3d
       -0.027882038 0.060601283 -0.013032671 0.07773042
000240 84 b6 d4 3c 30 0b 7b 3d 64 07 59 3c 99 77 a6 3b
       0.025965936 0.061289966 0.013246391 0.005080175
000250 23 77 1c be e9 94 b9 3d 29 27 7d bc 06 f2 28 bd
       -0.15279822 0.090616055 -0.015451231 -0.041246437
000260 60 56 fe bc aa d0 40 3c f2 a7 04 3c c1 a6 19 bd
       -0.031047046 0.011768499 0.008096682 -0.037512545
000270 4a 9f cf bd 67 eb 28 3d c1 d1 78 bd a1 4b fb 3c
       -0.10137804 0.041240122 -0.060746912 0.030675711
000280 95 f0 11 3d 94 cd 3a bd f8 06 fa 3c ee ba ae 3b
       0.035629828 -0.04560621 0.030520901 0.0053323423
000290 37 24 4a 3c f4 9a d3 bc 28 80 3a 3d 12 37 7c bc
       0.012337736 -0.025830723 0.045532376 -0.015393989
0002a0 d7 3b c6 3d 2d 22 03 bd ab 26 59 bd a7 c8 02 bd
       0.09679382 -0.032015014 -0.053015392 -0.03192964
0002b0 4b 1a 65 3d 3d 25 20 3e aa 3d e2 bc 5e 50 58 3d
       0.055933278 0.15639205 -0.027617294 0.05281102
0002c0 5c 40 13 3c 8f cd 64 3a bd c4 77 bc 9b 53 13 bd
       0.008987512 0.00087281404 -0.01512259 -0.035968404
0002d0 94 4f 18 bd 88 24 c2 3c b1 db b9 bc 8e 17 9d bc
       -0.037185267 0.02369906 -0.022687765 -0.01917627
0002e0 e8 f7 8c bd 9d 10 80 3d d0 82 9e 3c ad 44 03 3d
       -0.06883222 0.06253169 0.019349486 0.032047916
0002f0 e5 99 3f 3d 63 2e 3e bd ad 3b 14 3d 49 cc bf 3d
       0.046777625 -0.046430957 0.036189724 0.09365136
000300 f4 da 14 be 44 af 83 3b a2 56 6a 3b 5d 0d a3 3d
       -0.14536649 0.004018696 0.0035757204 0.07961533
000310 78 9a 5c bd 73 60 97 bc 7e c1 2c bb 38 d5 82 3d
       -0.05385825 -0.018478608 -0.0026360448 0.063883245
000320 e5 29 e5 3c 53 f7 9a bc 0d cc a8 bb 1c 82 3b bd
       0.027974078 -0.018916762 -0.005151278 -0.04577838
000330 44 6d 07 bd ed 64 86 bc e0 e6 62 bd d0 80 90 3d
       -0.03306319 -0.016405547 -0.05539596 0.07055819
000340 bd b5 1f bd 5f 41 80 bc 90 b1 1f ba b8 f8 cd bc
       -0.03899168 -0.015656171 -0.00060918275 -0.025143012
000350 de c4 d3 bc fa bf 5b 3c f5 a4 7c bd 9b ff fd bc
       -0.02585071 0.01341247 -0.061680753 -0.031005671
000360 dd 1f ea 3d 61 db 72 3d 6f c0 42 3d 79 71 9f bc
       0.11431859 0.059291247 0.0475468 -0.019463288
000370 92 10 0a bb 15 03 67 bd ca cc 37 3d 5b 2c 86 3d
       -0.0021067006 -0.056399424 0.044873036 0.06551429
000380 27 e2 ca 3d 1c 38 6c bd 6b 7e 5b bc b6 18 10 3d
       0.099064164 -0.057670698 -0.01339684 0.035179816
000390 35 47 87 3c c0 12 49 bd 0e 11 7b bc 96 cd 18 bd
       0.016513446 -0.049090147 -0.01532389 -0.037305437
0003a0 ad da d8 bc f9 fd d3 bc 02 ae e5 3b d1 f3 40 3d
       -0.02647146 -0.02587794 0.0070092687 0.04710752
0003b0 80 39 11 bd 62 c8 d1 3c 8a f0 7c 3d 97 7a ae bd
       -0.035455227 0.025608245 0.061752833 -0.08519476
0003c0 ad 99 25 bc 56 04 0a 3c 7d 9f 15 3d b9 75 08 3d
       -0.01010744 0.008423885 0.036529053 0.033315394
0003d0 26 14 65 3d 6d 2f a7 bd 3e 9b 9e bd 23 6c 38 3d
       0.05592742 -0.081633426 -0.07744454 0.045025002
0003e0 65 0f 7e 3a 54 49 47 bd 6c a8 f5 3c 42 72 b6 3d
       0.0009691625 -0.048653916 0.029987536 0.08908512
0003f0 e0 e8 e9 3c 66 5c 79 3c b0 91 79 bd 9d 73 9b bd
       0.028553426 0.015219783 -0.060929954 -0.07590411

rnn.bias_ih_l0 f4 [128]
000000 7f 05 78 bd 91 51 1f bd 16 95 36 bd 31 4b 6b bd
       -0.060552116 -0.038896147 -0.044575773 -0.057444755
000010 c0 4b 52 3d 0f 47 94 3d d1 71 1f 3c 3f 91 e8 bc
       0.051341772 0.07240116 0.009731726 -0.028389571
000020 a7 66 13 bb 34 60 75 bd 58 92 83 bd 16 0b 26 bd
       -0.0022491605 -0.0599062 -0.06424397 -0.040537916
000030 32 67 62 3d 93 86 fd bb 5f ed 2f bd c4 a0 5c bc
       0.055274196 -0.0077369898 -0.042950984 -0.013466064
000040 5a b3 5a bd 00 48 99 bb 76 bf 58 bd 6e b4 3e bd
       -0.0533937 -0.0046777725 -0.052916966 -0.04655879
000050 e7 74 1c bd 5e 72 bb bb 2b e9 53 bc 15 8d 8c bc
       -0.038197424 -0.0057204207 -0.01293401 -0.017157117
000060 c9 7f 03 3d a6 27 4d 3d dc 22 8f 3d 38 b8 f6 3c
       0.032104287 0.05008664 0.06989071 0.03011714
000070 4a 37 45 bd fa 4c 64 bc ad 29 3a 3d 85 78 0e 3d
       -0.04814843 -0.013934368 0.0454499 0.034782905
000080 8e 1d 2c bd d0 8d 01 3d f4 b6 47 3d 04 f8 80 bd
       -0.042020373 0.031629384 0.048758462 -0.06297305
000090 a2 72 cb bc 9c 86 23 ba 0c 7b 33 bd a9 de 37 bd
       -0.024834935 -0.0006238015 -0.04381852 -0.04489008
0000a0 db 01 08 3d 12 3f ef b8 9c 33 f0 3b 03 d9 14 bb
       0.033204895 -0.00011408156 0.007330371 -0.0022712357
0000b0 e6 d2 30 3d cc 2e 24 3d fd 2c 3f bd b3 df f2 3c
       0.04316988 0.04008369 -0.046673764 0.029647684
0000c0 ee 5b 1e bc f8 fd 00 bd 52 b5 64 3d 46 e6 5d 3d
       -0.009665472 -0.031492203 0.055836983 0.054174684
0000d0 50 59 f7 3c 4b db bd bc a9 05 e3 bc 08 82 31 bd
       0.030193955 -0.023175856 -0.02771266 -0.043336898
0000e0 cd 93 44 bc b5 9f 5f 3c 03 8f 60 bd e1 8b 38 3d
       -0.011998129 0.013648917 -0.054823887 0.045055274
0000f0 c8 a9 da bc ee c9 de bc 36 bc 25 3d aa 95 40 bd
       -0.026692286 -0.027195897 0.040462695 -0.04701773
000100 87 f4 c4 3b 22 f9 65 bd c3 bb 80 3d 7d 54 15 bd
       0.0060105952 -0.056145795 0.06285813 -0.036457527
000110 b4 79 60 3d cb ec 55 bd 51 26 27 bc 21 cb 88 3d
       0.054803565 -0.052227776 -0.010202006 0.06679369
000120 83 72 48 3d f2 5e 40 bd 3b 1c 70 bd 6a 9d 97 bd
       0.048937332 -0.046965547 -0.058620673 -0.07403071
000130 c0 a0 58 3d b5 77 25 3d fd 58 aa 3d 98 c8 bc bb
       0.05288768 0.040397365 0.083177544 -0.0057612173
000140 e7 f3 65 3c e6 5f 0a 3d d3 1a bb 3c 94 6a 35 bd
       0.014035202 0.033782862 0.02283994 -0.044291094
000150 66 64 c5 bc bf 1e 64 bd 4c 98 bc 3c 93 d1 4a 3c
       -0.024095725 -0.055693384 0.02302184 0.012379068
000160 c8 57 65 3d 9a 6c 4c bd e8 57 92 bd 78 3d fe bc
       0.055991918 -0.049908258 -0.07145673 -0.03103517
000170 51 56 c1 3d 3e c6 5c 3d e0 91 a3 bc e8 32 b3 3c
       0.09440292 0.053899996 -0.01996702 0.02187486
000180 d3 97 1b 3c 99 49 17 bd e8 b5 8e bc 73 1d 27 3c
       0.009496647 -0.036935423 -0.017420724 0.010199892
000190 96 7e bb bb 27 27 43 3d ef 88 15 bd 8b 5d 11 bd
       -0.0057218773 0.04764476 -0.036507543 -0.0354896
0001a0 26 0e 5d 3c cb 67 6b bb 8c 3d 9a bc a6 19 f6 bc
       0.013492143 -0.003592002 -0.018828176 -0.030041527
0001b0 e5 ad 24 3d cc ba e9 3a 47 28 ee 3a f7 bd 6a bd
       0.0402049 0.0017832159 0.0018169963 -0.05731007
0001c0 66 31 07 bd 5c fd 27 3d 8f 2d 86 3a 58 e8 96 bc
       -0.033006094 0.041013107 0.0010236966 -0.018421337
0001d0 a6 27 9a bc e0 d9 a0 bc 91 0a 00 3d 04 8c d4 bc
       -0.018817734 -0.01963514 0.031260077 -0.02594567
0001e0 b9 71 bf 3a bf b8 48 3d 0d d7 18 bd 46 c9 cd bc
       0.0014606036 0.049004313 -0.037314463 -0.025120389
0001f0 0d 5f 86 3d 26 01 01 bc e2 c6 76 bc a7 df 84 3d
       0.06561098 -0.007873809 -0.015062066 0.06487971

rnn.bias_hh_l0 f4 [128]
000000 b1 fb bc 3d f2 a8 92 3d ff 0e 92 3d e6 68 45 3d
       0.09227694 0.0716113 0.071317665 0.048195742
000010 7a 52 a4 bb b3 2f a1 bd c7 8b 6b 3c 5e 9b 50 bd
       -0.005014715 -0.07870426 0.014376587 -0.05092942
000020 58 bc 8d bc db 84 02 3d 73 a0 b8 3c 36 8a 89 3c
       -0.017301723 0.031864982 0.022537446 0.016789537
000030 9a 05 a7 bd f7 a2 37 3c ef bd 29 3d e0 60 2e bc
       -0.08155365 0.011208287 0.0414409 -0.010643214
000040 4e 1f 39 3c c9 3f d4 3c 7c 24 0c 3d 8b 4e 02 bc
       0.0112989675 0.025909321 0.03421448 -0.007953296
000050 24 ad 08 3d 12 a2 57 3c 0d 58 a0 bc 5f 87 87 bd
       0.033368245 0.013161199 -0.019573236 -0.06617617
000060 48 8a f1 bc 31 72 7d bd e4 84 a2 bd 23 63 5a bd
       -0.029484883 -0.06187648 -0.07935503 -0.0533172
000070 84 81 f6 3c 43 48 27 3d 3e 46 50 bd 59 cf 71 3b
       0.030091055 0.0408404 -0.05084824 0.003689727
000080 aa c0 13 bd d6 00 b3 bd 84 ea 89 bd d7 2e a4 3d
       -0.03607241 -0.08740394 -0.067341834 0.080167465
000090 0e d8 15 3c 0c a9 d0 bc 3b 35 3b 3d 30 86 b1 3d
       0.00914575 -0.025471233 0.04570506 0.08668172
0000a0 cf 38 1d bd 76 36 4d bd ec 50 03 3d 68 db f0 bc
       -0.038384255 -0.050100766 0.032059595 -0.029401496
0000b0 4a 8f 95 bc 23 50 24 bd 77 19 c3 bc 12 98 d2 3c
       -0.018256802 -0.040115487 -0.023815854 0.025707278
0000c0 56 ab 4d bc 16 bc aa 3c 28 de a6 bc dc fe 40 3b
       -0.012553057 0.02084164 -0.020369604 0.0029448783
0000d0 df fb 00 3c 3e 94 da bb 07 ff 02 bd 84 1e 3b 3d
       0.007872551 -0.006670504 -0.031981494 0.0456834
0000e0 a8 54 22 3d 52 b4 4e 3d 85 5f 85 3b f2 d7 98 bb
       0.039631516 0.050464936 0.0040702247 -0.0046644146
0000f0 d8 e9 28 bd e5 74 10 3d 5e 20 85 bd 3d ea a3 3d
       -0.041238636 0.03526773 -0.06500314 0.08003662
000100 4c de b4 3c cc e2 0c 3d f7 67 86 bd 4f df 20 3c
       0.022078656 0.034395978 -0.065627985 0.009818866
000110 1f f8 b5 bc 5a 55 33 3b 47 bf 80 3c 1c 29 2e bd
       -0.02221304 0.0027364106 0.015716208 -0.042519674
000120 a7 b1 5c 3c bc 7e c2 3c 9b 57 15 3d 20 c7 4f 3d
       0.01347009 0.023742072 0.0364605 0.05072701
000130 3a 53 a9 bc 98 75 53 bc 39 7f 03 bd ba 0f c3 3d
       -0.020669568 -0.0129064545 -0.03210375 0.09524484
000140 39 fe a7 3b d2 72 28 bc 36 29 b1 3c 2f 23 1d bb
       0.0051267412 -0.010281282 0.021626096 -0.002397727
000150 67 91 5c bc e9 ad 3d 3c 66 69 cd 3c 39 e9 2e bd
       -0.013462401 0.011577108 0.025074672 -0.042702887
000160 04 3b 5f bd 29 48 bc 3d e4 f7 54 bd 43 ba 72 3d
       -0.05449964 0.09193451 -0.05199422 0.059259664
000170 b7 15 44 bc fc b0 9f bc 6f b8 64 bd e9 6c fd 3b
       -0.011968068 -0.019493572 -0.055839952 0.0077339304
000180 45 c8 96 bc 70 cc 68 3c 8f 4a f7 3c 7b 22 eb 3c
       -0.018406043 0.014208898 0.03018692 0.028702965
000190 cd 5a 3a bd 19 4b b3 3b f2 27 04 bd b5 88 91 3d
       -0.04549675 0.005471599 -0.032264657 0.07106153
0001a0 37 35 7b 3b 77 8a f7 3a 26 65 1d 3d 03 a4 a3 bd
       0.003833128 0.001888587 0.03842654 -0.07990267
0001b0 74 ad b0 bc f0 87 24 bd a8 61 de 3b ef 95 33 3d
       -0.021567084 -0.040168703 0.006786544 0.04384416
0001c0 c5 61 04 bd f2 6f 90 bc fd 87 67 bd 93 8c 13 3d
       -0.032319803 -0.017631505 -0.056526173 0.036022734
0001d0 3f fe c5 bc d1 41 9a bd 90 42 b9 bc 6d 4e 22 bc
       -0.024169086 -0.07532085 -0.022614747 -0.0099063935
0001e0 10 c1 29 3d 4e 8b 13 bd b0 e0 45 bd d5 73 49 3d
       0.041443884 -0.036021523 -0.04830998 0.04918273
0001f0 cc 5d 22 3c 62 05 26 bd 40 6f a2 3c 38 34 31 bd
       0.009910058 -0.040532477 0.019828439 -0.04326269

out.weight f4 [1, 128]
000000 e2 93 be bc d0 0e 06 bd 9e 33 51 3b 07 03 80 3d
       -0.023263875 -0.03272897 0.0031921635 0.062505774
000010 20 f1 65 3d 57 d3 06 bd d7 93 39 3c 69 60 f2 3d
       0.056138158 -0.032916393 0.011326752 0.11834795
000020 bd 9a 33 bd e6 0c 76 bc e1 ac 61 bd a3 1f d1 3d
       -0.04384874 -0.015017724 -0.05509651 0.10211112
000030 f5 2f da 3d 36 ad 9c bb ec 12 c6 3c 3a cb da bc
       0.10653678 -0.0047813905 0.024178945 -0.026708234
000040 a4 b8 c5 3c 6c 3b 82 3c 3f 61 a2 bc 7e 65 6f 3d
       0.024135895 0.015897475 -0.019821761 0.0584464
000050 f0 06 de 3c a8 f8 26 be e2 ed d1 b9 93 50 cc 3c
       0.027102917 -0.16305792 -0.00040040823 0.024940765
000060 18 41 7b bc a0 b0 ae bd 56 21 3c bd 13 2b a8 3d
       -0.015335344 -0.08529782 -0.04593023 0.08211341
000070 c7 9d 04 bd 1d e2 09 bc 18 26 27 bc fa 48 93 3d
       -0.03237703 -0.008415726 -0.010201953 0.071916535
000080 fa 68 0c bd 34 2c 1e bd 12 50 db 3c 1e b4 5f 3d
       -0.0342798 -0.038616374 0.026771579 0.054615133
000090 ff bb 2f bd d8 01 f9 3c 61 20 45 3d 3b 81 12 3d
       -0.042903896 0.030396387 0.048126582 0.035767775
0000a0 13 9e 81 bd 22 0b 78 3b 47 7a 08 bd 02 1e 10 bd
       -0.063289784 0.0037848433 -0.033319738 -0.035184868
0000b0 04 2e 24 3d e4 44 85 bc 86 c8 5b 3d 0b a8 7c bd
       0.040082946 -0.016268201 0.05365803 -0.061683696
0000c0 d7 52 97 3d 58 0f 44 3d 50 44 1d 3d 47 39 bc 3c
       0.07388847 0.047866195 0.038395226 0.02297653
0000d0 8c 84 bf 3d 84 09 38 be 06 e6 11 3d 61 a7 bf bc
       0.09351453 -0.1797238 0.035619758 -0.023395242
0000e0 5f 88 4b 3d 47 55 5d bd b1 ed ef 3d de 29 07 be
       0.0496906 -0.054036405 0.11715258 -0.13199565
0000f0 e4 89 25 bd c8 a0 69 bb f9 98 11 bb 1f 3f 1f 3c
       -0.040414706 -0.0035648812 -0.0022216423 0.009719639
000100 50 86 d7 3d 2d dd af bc 2b 44 8f bb b9 44 33 3e
       0.10523665 -0.02146777 -0.00437214 0.17506684
000110 92 9a 92 3d dc f1 44 bd 39 71 39 3d 74 b8 74 3d
       0.07158388 -0.048082218 0.045273993 0.05974622
000120 b4 96 92 bc ff 15 d1 bc c1 29 d8 bc 09 e6 ed 3d
       -0.017894126 -0.025523184 -0.026387097 0.11616141
000130 d0 fb 80 bd 34 4b bb 3d f2 2c 87 3d 2f 2d 08 bd
       -0.062980294 0.09145203 0.066003695 -0.033246215
000140 44 7e 06 3d d8 67 c5 bc 02 c7 4f bc dc c0 a0 b9
       0.03283526 -0.024097368 -0.0126817245 -0.0003066127
000150 5b e0 db bc 4d d2 b2 bd e6 d3 09 bc ec c1 5d 3d
       -0.02684038 -0.08731518 -0.008412337 0.054140016
000160 0c 31 83 bc 35 30 32 bd d1 2b b1 bc 92 fc c3 bd
       -0.016014598 -0.043503005 -0.021627339 -0.09569658
000170 f3 45 4f 3d 2b 15 f6 bc 31 df 5f bd e7 4e 22 bd
       0.05060382 -0.03003939 -0.05465621 -0.03962603
000180 06 2f e2 bb 00 d1 f0 3c 4f 54 e6 3d 80 c3 fc 3d
       -0.0069025783 0.029396534 0.11246549 0.12341976
000190 2d fb 2d 3d 37 d9 27 39 ed 4f e2 3b 12 8e 94 3d
       0.042475868 0.0001600728 0.0069065006 0.0725366
0001a0 4b cb 16 bc 82 7f 8e bd 4d 2c 7b 3d 60 22 a1 bd
       -0.009203742 -0.06957914 0.061321545 -0.07867885
0001b0 a0 e4 de bc fc 15 91 bd 70 11 8d 3d ee 84 13 3c
       -0.027208626 -0.07084271 0.068880916 0.009003861
0001c0 54 0d 69 3d 00 0b 10 bc 17 e5 6a 3d 55 5e 8d bc
       0.056897476 -0.008791685 0.057347383 -0.017256895
0001d0 b1 0a 07 3c ab 45 17 be 8a 7e cf 3d cf 3a 97 bd
       0.008242295 -0.1477267 0.10131557 -0.07384264
0001e0 86 49 d5 3d 5d 72 0a bd 38 30 ad bb 08 57 db 3c
       0.10414414 -0.03380047 -0.005285289 0.026774898
0001f0 ee 81 66 3d 86 2b db 3c 56 33 a0 bd ca c0 b5 3d
       0.056276254 0.026754152 -0.078222916 0.08874662
