rnn_weights/best_failed_weights_64_random_g0.9_relu_integrator.pt (torch, 19905 bytes, 5 tensors)

rnn.weight_ih_l0 f4 [64, 1]
000000 f2 5d b4 bd ee e5 7a bd 29 97 46 3e 37 04 14 3e
       -0.08806981 -0.061254434 0.193936 0.14454733
000010 86 5f ab bc fd 55 c2 bd 73 91 25 3e 65 fa 52 3e
       -0.020919573 -0.09489057 0.16168766 0.2060333
000020 4d 83 5c 3e c1 6c 06 be bb 83 93 3d e8 40 61 3e
       0.21534462 -0.13127424 0.0720286 0.21997416
000030 25 de 64 be f9 bc 9d 3d bb ed 62 be 4f 93 21 3e
       -0.22350366 0.07702059 -0.22161 0.1577885
000040 32 9e 82 be 0c 39 b4 3e 22 b1 a3 3d 35 29 76 bd
       -0.25511318 0.35199773 0.0799277 -0.06009789
000050 d0 2a 36 3e 44 19 8b bb 4f e2 67 bd 84 d8 96 be
       0.17789769 -0.0042449553 -0.05661231 -0.29462063
000060 4b 47 82 be 6b 91 da 3d b4 cb 2e bd 8f 05 2c be
       -0.25445017 0.106722675 -0.042674735 -0.16798995
000070 43 74 46 3e 9d da 3e 3e 16 b9 c0 3c 35 fb 3f be
       0.19380288 0.18638082 0.023525756 -0.18748172
000080 4c 48 61 3e ff 7f c5 3e ba b4 49 3e db 00 72 3e
       0.22000235 0.38574216 0.19697848 0.23633139
000090 4c a5 01 3e 39 6d 34 3e fb 5b 6e 3d 3b 82 65 be
       0.12660712 0.1761979 0.05819319 -0.2241296
0000a0 de 0a 51 bd f0 45 dd 3d 94 0d 8f be 7a ce 8d 3e
       -0.051035754 0.10804355 -0.27940047 0.27696592
0000b0 02 6a 09 be d1 e5 8e 3e 2e 5e 30 3e 0c 65 06 bf
       -0.13419345 0.2790971 0.17223427 -0.52497935
0000c0 8e 10 0b 3e 84 fe 45 3e 15 bb 3b 3e 45 d8 9e 3d
       0.13580534 0.19335371 0.18333085 0.07756094
0000d0 86 86 4b 3e 31 76 71 bc bd 7b 9c 3d ca 37 69 3e
       0.19875535 -0.014737652 0.07640789 0.22775188
0000e0 f5 a2 55 3d 55 fc 18 bd 81 1f 81 3e 37 b6 64 be
       0.05215736 -0.037350018 0.25219348 -0.22335134
0000f0 56 c1 f6 3d 4b af 26 3e 58 63 d6 3d 94 11 94 3d
       0.12048595 0.16277806 0.10468167 0.07229915

rnn.weight_hh_l0 f4 [64, 64]
000000 1d 70 88 3d f2 a2 c1 3c 0f 35 a7 3d 70 6d 4e 3e
       0.06662009 0.023637269 0.08164417 0.20158935
000010 e8 23 a3 3d 8c 73 a2 3d bd 22 0c be e3 24 af 3d
       0.07965833 0.07932195 -0.13685127 0.085519575
000020 20 1c 49 be 5d 88 dd 3c 97 ed de bd f3 76 20 3d
       -0.19639635 0.027042562 -0.108851604 0.03917594
000030 27 bd 86 be 81 c7 23 3d b6 dd f1 bd 07 be 47 3b
       -0.26316187 0.039985184 -0.11809866 0.0030478255
000040 cd 46 93 bd f9 f9 4a be 64 55 ee 3c c6 35 97 3d
       -0.071912386 -0.1982192 0.029093452 0.07383303
000050 cb 4f 3e be 72 06 e9 bd ac fb b0 3d 9f ef bd 3c
       -0.18585126 -0.113781825 0.086417526 0.02318555
000060 50 34 a4 bd c3 ca b5 3d da 58 5c 3c d3 eb 67 bd
       -0.0801779 0.08876564 0.013448918 -0.056621384
000070 a3 50 2e be 3b c5 3b bd 1e 99 9c bd 55 dd 2c 3e
       -0.17022948 -0.04584239 -0.07646392 0.16881306
000080 dd ca 81 3b 81 66 1c be 9f 41 5f bb 0a f8 1d 3c
       0.0039609508 -0.15273477 -0.0034066213 0.009641657
000090 02 2f 82 3d 28 f7 a4 3d 0b 90 80 bd cb 53 b9 bd
       0.06356622 0.08054954 -0.06277474 -0.09049185
0000a0 20 a3 a0 3d 2d 54 2a be 1a 1e ce bd 12 3d a2 bc
       0.078436136 -0.16633673 -0.10064335 -0.019804511
0000b0 85 db a6 3d b2 2b 40 3d 6c 31 43 bb 59 89 37 3c
       0.08147339 0.04691667 -0.0029784096 0.01120218
0000c0 f6 1c 50 3d 6a 07 0c be 45 ab 50 3c b8 af 5b 3e
       0.05080887 -0.13674703 0.012736146 0.2145375
0000d0 27 06 a8 be 4b 10 46 bd 27 26 88 3e 46 e5 3e 3d
       -0.32817194 -0.048355382 0.26591608 0.04660537
0000e0 0c 0a 2e 3e 32 88 a2 bd 13 8f 4a be f8 85 1d be
       0.1699602 -0.079361334 -0.19781141 -0.15383136
0000f0 17 ec 9a bd 51 21 c2 3d b7 09 c6 bd 86 aa 6d 3d
       -0.07564562 0.09479011 -0.09669822 0.058023952
000100 bc f8 5e bd c7 40 62 bd 0a 78 75 bd 50 7a e1 3b
       -0.05443643 -0.055237558 -0.05992893 0.006881036
000110 8f dc cf 3d 33 88 d5 3c ca 13 53 be 62 be a4 bd
       0.1014949 0.026065921 -0.20613018 -0.08044125
000120 4c 16 97 ba c7 67 ab bd 55 dd 50 3d 51 8d b1 bd
       -0.0011527031 -0.08369403 0.05099233 -0.08669532
000130 de fa 91 bd 66 74 fb bd dd 46 b2 3c 79 82 fe bc
       -0.07127927 -0.122780606 0.021762306 -0.031068074
000140 84 b5 a0 3d 28 ff df bc 94 ce 1e 3c 54 f7 85 3e
       0.07847121 -0.027343348 0.009692807 0.2616526
000150 a3 fb 65 bc d2 13 8e 3d a3 ae a9 3d cb af ff bc
       -0.014037046 0.06937374 0.082852624 -0.031211754
000160 a1 ae bc bd a7 2d 84 bd 61 23 90 bd 38 6d 48 bd
       -0.09212995 -0.0645402 -0.07037998 -0.048932284
000170 9c 0f 62 3d a2 61 32 bc 2f 98 29 3e 4c 29 2e be
       0.055190668 -0.010887535 0.1656196 -0.17007941
000180 af 13 44 bd 49 70 15 3c 31 74 1c be 87 c0 aa 3c
       -0.047870334 0.009121009 -0.15278699 0.020843757
000190 96 c9 67 3d 0e 8f c7 3c 6b ed fb 3d fc d9 3c 3d
       0.05658873 0.024360206 0.12301143 0.046106324
0001a0 ef ef 47 be dd f4 cf 3d 8b 97 c4 bc 33 93 aa be
       -0.19525121 0.10154126 -0.023998043 -0.3331543
0001b0 22 77 61 bc 00 18 0d be 56 ae 00 be 80 88 1e be
       -0.013761314 -0.13778687 -0.12566504 -0.15481758
0001c0 01 23 85 3d 9b ff 3d 3c 7f bb 9d 3b 37 03 27 3e
       0.06500817 0.011596586 0.004813611 0.1630982
0001d0 23 59 93 bd ec 5a 35 3e 49 79 85 bd db 03 cf 3d
       -0.07194736 0.17710465 -0.06517274 0.10108157
0001e0 f0 cc d7 3d a8 09 0c bd 77 de a7 3c 1d db e5 bd
       0.105371356 -0.034188896 0.020491822 -0.11223433
0001f0 dd 95 68 bd 97 59 43 3d 16 aa d8 bc 40 c0 17 bd
       -0.056783546 0.04769286 -0.02644829 -0.03704858
000200 14 64 13 3e b9 39 f6 3d 7f 78 2b bd 9e 03 04 be
       0.14393646 0.120227285 -0.04186296 -0.12892005
000210 fa 19 d1 3d f7 4f 0d 3e f0 53 1a 3e 19 e5 aa bb
       0.10210033 0.13800035 0.15071082 -0.005215299
000220 94 99 30 3e 70 d3 91 3b 1f ef 0d bd 8f b0 ce bd
       0.17246085 0.004450254 -0.03465187 -0.1009227
000230 5f 6e 06 3e 43 32 f8 3d 28 df 9b 3d 67 f0 e5 bd
       0.1312804 0.12118962 0.07610923 -0.11227494
000240 62 d2 f3 3d 28 9d 84 3d cc ea 4b 3d af c6 09 3e
       0.11905362 0.06475288 0.049784467 0.13454698
000250 35 97 1d bd 4c e8 f9 bd 8c e9 02 be ba f8 14 be
       -0.03847428 -0.1220251 -0.12784404 -0.14548007
000260 5d 4c de bd 3b 9b ad 3d 7f c3 d6 3c 9e fe 2e be
       -0.10854409 0.084768735 0.026216267 -0.17089316
000270 24 04 1d be ec 84 7d 3d 70 c3 aa bd 57 23 f7 bc
       -0.15333611 0.061894342 -0.08338058 -0.030168219
000280 15 57 2c be 29 52 27 3e 78 51 79 3d 37 7e 4a bd
       -0.16830094 0.16339935 0.06086871 -0.049436774
000290 26 d8 5d 3e 3d a6 6b 3c 55 86 5d bc 12 40 d6 3d
       0.21664485 0.014382896 -0.013520797 0.10461439
0002a0 d4 29 2b be 2f 03 cc 3b a1 91 7f 3e ac 1f 6f 3e
       -0.16715175 0.0062259655 0.24957897 0.23351926
0002b0 a4 f9 19 3e fe 78 15 3e 78 d2 02 3e f4 35 18 bd
       0.15036637 0.14596936 0.127756 -0.03716083
0002c0 3f bd 1e 3e a8 27 8e 3d 02 3e 6a 3d cd a8 93 bd
       0.15501879 0.069411576 0.05718804 -0.072099306
0002d0 11 fd d8 3a 8e 66 65 3e 94 06 87 3d 83 e9 62 38
       0.0016554912 0.22402403 0.065930516 5.4100074e-05
0002e0 d7 23 a7 3d e9 39 0c be 90 a3 87 bb ef e9 7e be
       0.08161133 -0.13693966 -0.004139371 -0.24893926
0002f0 fb 43 45 be 9e a1 3d bd 9e 9d 61 bd 0d 20 af 3d
       -0.19264214 -0.04629671 -0.055081956 0.08551035
000300 b7 3e eb bd da 67 89 3d c3 05 13 3e 88 1c df bd
       -0.11486571 0.06709261 0.14357667 -0.10894114
000310 c9 87 9f bd 30 1b 18 3e 9e 0a 3b 3d e0 95 fe b9
       -0.07789571 0.14854121 0.045664422 -0.0004855832
000320 09 68 18 3d 6c 4a e8 bc 88 a2 f5 3d 38 2e fc bd
       0.03720859 -0.0283558 0.11993891 -0.12313503
000330 95 31 c0 3d 33 26 1f 3d a7 b0 64 bd 12 a2 8e 3c
       0.09384457 0.03885479 -0.05583253 0.017411266
000340 2b bd 98 bd c5 d8 91 bd 27 ef 3c be 18 d7 00 3e
       -0.07457956 -0.07121424 -0.18450604 0.12582052
000350 d2 1c 39 3d 63 57 3b bd cc 78 85 be d4 a1 fb 3d
       0.0451935 -0.045737635 -0.26068723 0.12286726
000360 a2 61 ca bb 3c ef 1c be f2 80 19 bd d3 9e cf bd
       -0.0061761895 -0.15325636 -0.037476487 -0.10137715
000370 e7 75 1c be a4 6f 46 3d 87 2b 8e bc 07 ec 53 bd
       -0.15279351 0.048446313 -0.01735474 -0.051738765
000380 29 37 90 3d 54 48 6a 3e bb 2b ef bd 00 ab 39 3c
       0.07041771 0.22879153 -0.11678263 0.0113322735
000390 25 d8 1a 3d 9d e3 a4 3d 2d c3 67 3e e0 61 31 3e
       0.037803788 0.08051226 0.22633047 0.17322493
0003a0 28 dc 24 3e 5d 34 27 be c5 00 99 bd 99 cb 45 3d
       0.16099608 -0.16328569 -0.0747085 0.04828987
0003b0 f1 ea 34 3d 7d d9 9b 3d e6 f9 0d 3d 93 60 9e bc
       0.04416937 0.07609842 0.03466215 -0.01933316
0003c0 87 a6 19 3d c7 80 c0 3c b0 b7 02 3c e2 4f 10 be
       0.03751233 0.023498906 0.007978365 -0.14092973
0003d0 e1 72 f3 bc 88 7a 1c be 19 f3 1c bd ad ef c6 3c
       -0.029717864 -0.15281117 -0.038317773 0.024284208
0003e0 1f 71 7d 3d 12 f8 58 be d4 f6 5c 3d 52 c4 64 bd
       0.06187546 -0.21188381 0.05394633 -0.05585129
0003f0 ea e2 37 3e 00 5e 82 3e 69 c4 61 bd f9 e7 24 3d
       0.17957655 0.2546234 -0.055118952 0.04026029

rnn.bias_ih_l0 f4 [64]
000000 ee 21 cd bd 7e 7b d8 bd 5c a1 61 bd 55 61 a6 3c
       -0.10016237 -0.10570429 -0.055085525 0.020310083
000010 97 0d ab bd 89 8f 0f be 68 d6 15 bd f1 0d 4c 3d
       -0.083522014 -0.14019598 -0.036581427 0.049817983
000020 67 57 0e 3d bb d0 a5 bc e1 de 78 bd 85 0d 98 3d
       0.034751322 -0.020241132 -0.06075943 0.07424454
000030 5c f2 0f bc e9 23 13 be 78 ea 06 3e 3a 27 5c ba
       -0.00878581 -0.14369167 0.1317538 -0.0008398179
000040 0c 93 74 bd e0 fc c8 bc 97 c2 06 3e ca 1f de 3c
       -0.059710547 -0.024534643 0.13160168 0.027114768
000050 d4 45 bf bd 81 95 ab bc 7f 84 d9 bd bc 74 ac bc
       -0.093394905 -0.020945312 -0.10620975 -0.021051757
000060 ab 22 47 bb cd c7 8b bd 3d 1a e7 3b 44 51 0c 3e
       -0.0030385654 -0.06825218 0.0070526884 0.13702875
000070 e7 a2 a8 3d dc 7b d5 bc 3f 97 ee 3d ea 6e e5 bd
       0.08234196 -0.026060037 0.11649942 -0.11202796
000080 e4 49 2e bd d8 9c fe 3d f0 6f 9a 3d 78 dc 27 3d
       -0.042550936 0.12432259 0.07540882 0.04098174
000090 6f 2e b1 3d f3 28 a3 3d 64 40 5b 3d 52 85 c7 3d
       0.08651435 0.07966795 0.053528205 0.09742226
0000a0 42 a5 c7 bd 60 a5 83 3d 73 89 76 3d 58 0a 29 bd
       -0.09748317 0.06428027 0.060189676 -0.04126963
0000b0 91 4c fb bd ce cf f7 bd a8 11 c7 3d 0d d6 a8 3d
       -0.12270463 -0.121001825 0.097201645 0.08243952
0000c0 86 f7 57 bd 2e d9 ec 3d 14 7f a1 bc a1 58 db bb
       -0.05272629 0.11564861 -0.019713916 -0.006693915
0000d0 5a 75 46 3d 4e fa 06 3e ca cd 80 3d 73 11 f3 3d
       0.04845176 0.13181421 0.06289251 0.118685625
0000e0 85 d5 c1 bd 9f a9 0c bd 5f e3 78 3d cb 46 b0 3d
       -0.09464554 -0.03434145 0.060763713 0.08607253
0000f0 8e 4a 08 3e ff db 89 bd 76 0f eb bd 24 49 fa bd
       0.1330969 -0.06731414 -0.11477558 -0.12220982

rnn.bias_hh_l0 f4 [64]
000000 72 cb fe bd 74 90 be bd 99 23 40 bb 71 72 b5 3b
       -0.12441148 -0.09304896 -0.0029318093 0.005537324
000010 11 79 9b bd b5 66 01 be fb 88 f5 bb 5a ca d5 3b
       -0.07591451 -0.12636836 -0.007493136 0.0065243663
000020 76 48 3e bd 9c 6b e7 3d 3b 39 0b be 21 6d 57 3d
       -0.046455823 0.11299822 -0.1359605 0.052594308
000030 cd 15 ef bd cc 52 10 bd db 4c 79 bd c0 cb de 3d
       -0.1167408 -0.03523521 -0.06086431 0.10878706
000040 11 ee 26 bc 80 74 42 3b 47 fe be 3d ad 1a 7f bd
       -0.010188595 0.002967149 0.09325843 -0.0622813
000050 fc 7c af 3d ee 27 8d 3d d5 ad 03 be b5 48 38 3d
       0.08568761 0.068923816 -0.1285928 0.044991214
000060 13 39 d7 3d bc 5f 0c 3b 8c 59 94 3d 52 a7 9d bd
       0.10508933 0.0021419367 0.07243642 -0.076979294
000070 49 2b 19 bc 24 a4 92 bc 73 88 96 bd 7c 48 e2 3d
       -0.009348699 -0.017900534 -0.073502444 0.110489815
000080 5f 69 8f 3b 5b 61 a3 bd 97 cf b4 bd ec 7f 25 3d
       0.004376575 -0.079775535 -0.08828657 0.0404052
000090 25 f2 06 bc cf 6a a9 3c 00 b4 85 bd f5 ed 5d bd
       -0.008236443 0.020680813 -0.06528473 -0.05418201
0000a0 76 70 3d 3d 7e 6e e1 bd 30 dc 65 bd 60 7c 30 3d
       0.04624983 -0.11007403 -0.05611819 0.043087363
0000b0 f1 12 ba bd 70 4b 91 3d 1e 9a d6 bb e0 a1 6a 3d
       -0.09085644 0.07094467 -0.006549134 0.057283282
0000c0 5a 5a 2b 3c 56 84 cd 3d 44 95 27 3d 0d 70 0a be
       0.010458553 0.10035007 0.040913835 -0.13519306
0000d0 e1 cd 01 be 4b e2 22 3c 5e 94 ca bc c5 5f 96 bd
       -0.12676193 0.009941648 -0.02472895 -0.07342485
0000e0 b7 46 a7 3c cb d0 18 3d 66 12 31 3d 11 fa e2 3d
       0.020419462 0.037308495 0.043230437 0.11082853
0000f0 9f e5 2b 3c 4e af 72 bd 91 20 fe 3c 39 81 cd bb
       0.010491758 -0.059249215 0.031021388 -0.006271508

out.weight f4 [1, 64]
000000 50 8e b7 3d 90 b2 10 3d a8 27 c5 3c 18 0f fd 3c
       0.08962691 0.03532654 0.024066761 0.030890986
000010 67 f6 0f bc 28 03 42 bc 82 8a f1 3d db 36 0f 3e
       -0.008786774 -0.011841573 0.117939964 0.1398577
000020 d9 c9 2e 3d 31 6a 40 be d2 f1 1f bd ec 04 46 3e
       0.042672966 -0.18790509 -0.039048977 0.19337815
000030 09 5f 4e be 2f c2 d2 3d dd 4c 85 be aa 63 c7 3d
       -0.2015344 0.10290944 -0.26035205 0.09735806
000040 f0 be 91 be 4b 01 e9 3d c6 28 07 bf 5d 32 be bd
       -0.28465986 0.113772 -0.5279659 -0.0928695
000050 2a 74 46 3e 67 31 39 bf 7b a5 ad 3d 8b c6 80 be
       0.1938025 -0.72341007 0.084788285 -0.25151476
000060 c0 d6 97 be 58 c8 28 3d b7 32 2c bf f6 79 9f be
       -0.2965603 0.041206688 -0.67264885 -0.31147736
000070 32 8d 0a 3e 7c ba 4d 3e 4a 37 96 be ee cb c5 be
       0.13530424 0.2009067 -0.29339057 -0.38632149
000080 de a8 00 3e 5d 61 09 3f ef 15 7c 3d 2d 23 00 3e
       0.12564418 0.5366419 0.061544355 0.12513418
000090 7b fc bf 3e a9 c5 f5 3d f1 2f bb bd 34 6c 9b be
       0.37497315 0.12000591 -0.091400035 -0.3035599
0000a0 2d b0 f3 bd 58 2f bd bd 10 62 cf be 6b 20 14 3e
       -0.11898837 -0.09237546 -0.40504503 0.14465491
0000b0 b2 8f 29 3d be 78 50 3e d9 bd 04 3e 80 68 aa be
       0.041396804 0.2035856 0.12963046 -0.33282852
0000c0 44 c7 3b 3d e7 c3 eb 3d fe be 06 3d 4a 0d 81 3d
       0.04584433 0.11511975 0.032896988 0.06301363
0000d0 3b 68 9a bc fe bb c7 be 1f c4 a0 3e 7c 21 63 3c
       -0.01884853 -0.39010614 0.3139963 0.013862964
0000e0 19 f1 a9 3c 8e cb 16 3e 1b 10 4c 3d bd 1e 81 be
       0.020744847 0.14726087 0.049820047 -0.25218764
0000f0 cf 1c 99 3c 27 7c 34 3e a7 71 3e 3d 9f 04 a8 bd
       0.018690495 0.17625485 0.046495106 -0.082040064
