rnn_weights/best_failed_weights_64_random_g0.9_tanh_delay_discrimination.pt (torch, 20295 bytes, 5 tensors)

rnn.weight_ih_l0 f4 [64, 2]
000000 65 c1 18 be a8 91 85 be 9b e0 ac bc 69 b8 8b 3e
       -0.14917524 -0.2608769 -0.021103194 0.2728913
000010 4d 80 24 be 0f 1a 82 be 16 c7 85 3e b7 e6 8d 3e
       -0.16064568 -0.25410506 0.26128453 0.27715084
000020 e8 d6 21 3e 37 14 a1 3d ce f3 93 be 0e 1a 5e bd
       0.15804636 0.07865184 -0.28896946 -0.054224066
000030 fb 71 9e 3d 32 98 66 3e 38 17 c3 bd f3 6a 25 be
       0.07736584 0.22518995 -0.09525913 -0.16154079
000040 fc 57 37 3e 91 b7 4d 3e 10 8c c2 3d 9b 8c ec bd
       0.17904657 0.20089556 0.09499371 -0.11550256
000050 57 38 c4 bd 81 a5 e7 bd af a3 c4 3d 94 89 20 3e
       -0.095810585 -0.11310864 0.09601533 0.15677482
000060 c6 3e fa bb fc a6 70 3e 0c c9 41 3e a0 aa 56 3e
       -0.0076368777 0.235012 0.1892435 0.20963526
000070 f5 50 9a be 46 7c 63 be fa bc b0 3e 17 17 27 3e
       -0.3013989 -0.22215375 0.34519178 0.16317402
000080 68 b7 7a 3e 5c 4e 81 be 5c c6 94 be 45 16 a1 3d
       0.24484026 -0.25255096 -0.29057586 0.07865576
000090 85 b3 10 be 11 c5 06 be 58 c7 ce 3c 93 48 0d bc
       -0.14130981 -0.13161112 0.025241539 -0.00862326
0000a0 8f bc a2 3e 36 03 f3 3d 33 32 0d 3f dc fb a6 3d
       0.31784484 0.11865847 0.5515472 0.08153507
0000b0 d2 c3 66 be 41 64 96 3e 5a 7a 65 3d 95 d1 fd be
       -0.22535637 0.29373363 0.056024887 -0.4957396
0000c0 53 9c d2 3d 91 e7 0a 3f 0b a6 88 bd 35 d9 6e be
       0.10283723 0.5425959 -0.06672295 -0.23325045
0000d0 09 03 14 be 10 23 23 3f 03 7b ac be c0 44 7d be
       -0.14454283 0.63725376 -0.336876 -0.24733257
0000e0 cb a9 bd 3e e8 3f cb 3d 1a 78 19 3e 33 d1 0c be
       0.37043604 0.099242985 0.14987221 -0.13751678
0000f0 e8 13 84 3e 40 91 14 3d 7b bd 6b 3c 8b 48 97 3e
       0.25796437 0.036271334 0.014388437 0.29547533
000100 1f ab dd bd a9 0f 94 3d d4 bc d9 be 7a d8 f2 3c
       -0.108236544 0.072295494 -0.42526877 0.02964424
000110 f5 be ac be 42 a0 30 3d be c6 80 bd e1 9f 80 bd
       -0.3373944 0.043121584 -0.06287907 -0.062804945
000120 d6 e0 6a 3e 96 74 26 3f 46 4a 04 bd 51 1d 56 be
       0.2293733 0.65021646 -0.032297395 -0.20909621
000130 94 15 22 be 95 75 4c bd 85 55 94 3e 3a 22 fa 3d
       -0.15828544 -0.049916822 0.28971496 0.122135594
000140 af 20 57 3e d0 12 af 3d ad a3 b6 be 0a 7e 5e bd
       0.21008562 0.0854851 -0.3567175 -0.05431942
000150 5d 53 1d be e7 29 f8 bd 73 e6 52 bc 8a 61 cc 3e
       -0.15363832 -0.12117367 -0.012872326 0.39918166
000160 d3 b2 92 3e 98 aa 4b 3d 6a 70 91 3d 56 c0 e3 3d
       0.28652057 0.049723238 0.071015194 0.111206695
000170 50 22 18 bd 5a 93 4a be 7f ec 27 3e 74 5d 9a bd
       -0.037142098 -0.19782773 0.1639881 -0.07537356
000180 4b b3 26 be 24 f8 61 be 01 f4 17 3d cb 4d 9c bd
       -0.16279332 -0.22067314 0.037097935 -0.07632025
000190 2e df a7 3e 2b 85 b2 3d 42 79 90 be 70 3e 6d 3d
       0.3278746 0.08716806 -0.28217512 0.057920873
0001a0 9e 4a de 3c fd 24 6c 3e a1 12 ce 3c d7 fe 2b 3e
       0.02713519 0.23060985 0.025155367 0.16796432
0001b0 ba cf 7d be 2e ba 56 be 0a 9a 72 be 7c 33 95 be
       -0.24786273 -0.2096946 -0.23691574 -0.29140842
0001c0 84 96 41 be 8c 61 5d be b7 95 14 bc f3 e4 c6 3e
       -0.18905073 -0.21619242 -0.009068898 0.3884655
0001d0 23 71 b6 ba 08 39 37 be e7 73 19 3c 9f c1 ad 3e
       -0.0013919215 -0.1789285 0.009366012 0.33936784
0001e0 3a 75 3b be 3d 45 3e be 8b e4 ae be 9b c5 82 bd
       -0.18306437 -0.185811 -0.3415874 -0.063853465
0001f0 31 e6 13 bd 37 ad 36 3e 51 c1 ab 3d 1a 0b b3 3e
       -0.0361082 0.17839514 0.083864816 0.34969407

rnn.weight_hh_l0 f4 [64, 64]
000000 fb 01 b9 3d 8a f4 b7 3e e9 a6 66 3e 2d ef 9d bd
       0.09033581 0.35928756 0.22524609 -0.07711635
000010 87 68 a0 be 34 5e 01 3e c1 60 9c be d7 28 e5 bd
       -0.31329748 0.12633592 -0.30542567 -0.1118943
000020 cf d0 fd bc f0 34 27 be 86 aa ae bd 8d c0 6a bc
       -0.030983357 -0.16328788 -0.085286185 -0.014328134
000030 ab 2e 5c 3e 48 59 ed 3d a9 47 4d 3d 18 21 b7 bc
       0.21502177 0.11589295 0.05011717 -0.022354648
000040 a1 4c 87 3c 0f 41 ca 3d 81 d1 9a 3e 3f bc 67 be
       0.016516032 0.0987569 0.30237964 -0.22630404
000050 b8 16 69 bd 17 09 03 be 52 ec 3b 3d 29 c9 d3 bd
       -0.056906432 -0.12796436 0.04587967 -0.10341103
000060 01 9a dd bd ff 48 a7 3c 57 d8 d6 3d c8 93 7b 3e
       -0.108203895 0.02042055 0.10490482 0.24568093
000070 97 e8 0e 3d 61 df 4a 3d fc 8a 90 3d 95 59 8a be
       0.034889784 0.049529437 0.07057759 -0.2702147
000080 23 f5 04 be 23 cf d7 3d 87 a6 5b bd e6 f8 5f 3d
       -0.12984137 0.10537555 -0.05362561 0.054680727
000090 33 78 85 be cb 1b a3 3a bb 1c 99 3d 00 70 5b 3d
       -0.26068267 0.0012444196 0.07476183 0.05357361
0000a0 fa d0 2e be ed d2 a3 3b 7a fe 00 3e d6 f8 08 3e
       -0.17071906 0.0049995095 0.12597075 0.13376173
0000b0 79 35 1e be 6b 25 86 bd b5 e9 5a bd 46 b1 fd 3b
       -0.15450086 -0.06550106 -0.053445537 0.00774208
0000c0 2e a5 38 3e 04 f8 8b 3c 85 75 ba bd d1 84 e7 bc
       0.18031761 0.017086037 -0.09104446 -0.028261574
0000d0 5c ff 98 bd b6 7c 8a be 09 f9 84 bb af 4b e0 3d
       -0.07470581 -0.27048272 -0.0040580076 0.109519355
0000e0 14 6f 4c 3e 0b 9f c5 bd b0 d0 b3 bd fd 13 9a bb
       0.19964248 -0.09649476 -0.08780038 -0.00470209
0000f0 2e 4f d8 3d d9 74 9f 3c c2 d8 4b 3e d1 2d 46 be
       0.10561977 0.019464897 0.19906905 -0.19353415
000100 76 5b 1d 3e 08 ac b7 3d 19 52 b4 3d 6f af 0d 3e
       0.15366921 0.08968359 0.088047214 0.13836454
000110 60 3c e5 ba b0 c2 f0 bd 84 e4 db 3d 95 6f b8 3d
       -0.0017489307 -0.11755884 0.10736945 0.090056576
000120 b3 97 a8 3c 97 5c 3a be d0 6f 9a 3d 83 ec f4 3d
       0.020580148 -0.18199383 0.07540858 0.119591735
000130 3e b0 35 3c 53 04 12 3e 38 be 1c bc c0 fe 08 be
       0.011089383 0.14259462 -0.009566836 -0.1337843
000140 1b 4d 1d 3e 20 78 c0 3d 2c 05 29 3b 63 a1 aa 3d
       0.15361445 0.09397912 0.0025790436 0.08331563
000150 92 8f bd bc ce 41 ab bc ab 32 83 3d 18 61 99 bd
       -0.023139749 -0.020905402 0.064061485 -0.07489222
000160 6e ae 4f be f2 04 ac bd 56 d6 c6 3d ff 7a 9b bc
       -0.20281383 -0.08399381 0.0970885 -0.018979548
000170 53 68 9c bc f1 57 16 3d c8 a9 82 bc dc 85 4b 3e
       -0.019092714 0.03670496 -0.015950099 0.19875282
000180 c8 1a ae 3d 3b 40 0b be 25 04 4e 3b 91 d9 28 3e
       0.08501202 -0.1359872 0.0031435576 0.16489245
000190 cc 23 8b 3c 24 da df 3d 1f 2e 34 be 84 39 d4 bd
       0.016984843 0.10930279 -0.17595719 -0.10362533
0001a0 86 6d a5 bd b5 ee 20 bd 36 ab 31 3d 44 bd 33 3c
       -0.080775306 -0.03929015 0.04337617 0.010970417
0001b0 94 30 08 3e 3f 4e e9 bd 68 48 ac bd 88 5c a1 be
       0.13299781 -0.113918774 -0.08412248 -0.31515908
0001c0 75 09 2a 3d 2e e1 46 3a d2 af 94 3d a4 54 ce bd
       0.041512925 0.0007586655 0.072600976 -0.10074738
0001d0 ab c9 c1 3d 81 57 4c 3e 12 c8 59 bc 4c d1 d4 3d
       0.09462293 0.19955255 -0.013292329 0.10391483
0001e0 53 d6 8a 3d ec 50 f7 3d f6 b0 f0 3d 97 00 58 3e
       0.0677916 0.120759815 0.117525026 0.21093975
0001f0 34 eb 6b 3d 94 fe 03 be 7d 0d 1c 3e 79 6e 1a 3e
       0.057597354 -0.12890083 0.1523952 0.15081204
000200 66 4e 08 3d 5b 77 c5 3c 88 ae 85 3e bd 6f 2b be
       0.03327789 0.024104765 0.2610972 -0.16741844
000210 82 39 ac bb de 1d 46 3e 7e 84 51 bc e5 39 43 3e
       -0.005255879 0.19347331 -0.012787936 0.19065054
000220 0a 39 86 3d 74 31 85 3c 4b 52 90 3d c9 e3 9e bd
       0.06553848 0.016258933 0.07046946 -0.0775829
000230 1d 13 8b 3d 3f c7 aa bd 7f f3 9c bd f3 9e 26 be
       0.06790755 -0.083387844 -0.07663631 -0.16271572
000240 4a 42 32 bd 2d 22 11 3d 7f ab 42 3e a7 dc cc 3a
       -0.04352025 0.035432983 0.19010733 0.0015629724
000250 e2 29 f4 bd dd 46 5e be 27 c7 bb bd cb 50 95 3e
       -0.11922051 -0.2170672 -0.09168845 0.29163203
000260 82 21 13 3e 14 02 cb bd 03 18 2f be df 96 b1 3c
       0.14368251 -0.09912506 -0.17099003 0.021678386
000270 1f 6b 64 be 5e a4 12 bd 21 19 15 3e d3 24 45 bd
       -0.22306488 -0.035801284 0.14560367 -0.04813082
000280 fd 1b 00 3e 87 d3 e8 3d 48 12 60 3d 7b d4 36 3e
       0.12510677 0.11368471 0.054704934 0.17854492
000290 03 e9 39 be f5 f9 d0 3c e2 e5 e7 bc 03 08 3e be
       -0.18155293 0.025509814 -0.028307859 -0.18557744
0002a0 68 09 0f be 56 fe 71 3d 08 3a a4 3d a5 2c b0 bd
       -0.13968432 0.059080444 0.08018881 -0.08602265
0002b0 4c ce cd bd a5 2c 78 3d 66 7e 3b bc 80 94 53 3d
       -0.10049114 0.06058945 -0.01144371 0.051655293
0002c0 7e 6a 97 3d 56 0f 3d bc 67 4c de bd 5d eb b7 be
       0.07393359 -0.011539301 -0.10854416 -0.35921755
0002d0 f8 fe b6 bd 5d 2c c2 bd 92 fe 54 bd a1 f6 b5 3d
       -0.0893535 -0.09481118 -0.05200059 0.08884931
0002e0 b6 a6 1f be 5d 73 b3 bd 90 b6 5b bc 24 33 95 be
       -0.15590939 -0.08762238 -0.0134102255 -0.2914058
0002f0 57 99 c5 bd ad fb cf bd 7e 15 66 be 86 34 88 be
       -0.09648388 -0.10155425 -0.22469136 -0.26602572
000300 60 ec 5b bd 13 a4 2f be 4a b2 a0 bd 62 ab c7 bc
       -0.05369222 -0.17152433 -0.07846506 -0.024373714
000310 62 02 50 bd 85 ec f1 bd 2f 99 fd 3d 6e d1 93 bd
       -0.050783522 -0.11812691 0.12382733 -0.0721768
000320 26 cd 4f 3e dd fb 1a be 87 a5 c1 3b 74 7b bf bd
       0.20293102 -0.1513514 0.005909625 -0.09349719
000330 4c 1c a3 3d 20 a6 b7 bd 6f 28 00 be 5b 67 31 3d
       0.079643816 -0.08967233 -0.12515424 0.043311458
000340 41 2d 1f 3e f0 21 3e 3d 35 a7 43 bd 3e 64 16 be
       0.15544607 0.046419084 -0.047766883 -0.14686677
000350 70 f2 22 3e 50 ec 77 3e 64 dc 40 3d 2e 85 ac bc
       0.15912795 0.2421124 0.04708518 -0.021059599
000360 12 79 06 be 18 b5 81 3d 62 31 30 3e de 17 4c be
       -0.13132122 0.06333369 0.17206338 -0.1993098
000370 b6 8b e7 bc a8 71 67 bc f8 a9 23 bd 90 51 3a 3d
       -0.028264862 -0.014126219 -0.039957017 0.04548794
000380 2b e9 34 be 46 7e b7 3d c8 95 e2 bd 40 98 d8 bc
       -0.17667072 0.089596316 -0.11063725 -0.026439786
000390 a0 ea 83 3e f4 d2 c8 3d 1f 2d ec 3c 82 e8 09 be
       0.25764942 0.09805861 0.02883011 -0.13467601
0003a0 83 85 cd 3d b8 f4 0e bd 79 cc a3 3d cc 1f 04 3e
       0.10035231 -0.03490135 0.079979844 0.12902755
0003b0 c4 01 38 3c fa 65 26 bd 4b 01 52 be d0 d2 5b 3d
       0.01123089 -0.040624596 -0.20508306 0.053667843
0003c0 31 ab 12 bd 50 c3 ab 3d 1a 25 28 3d 55 2c 17 be
       -0.035807792 0.08386862 0.041051008 -0.14763005
0003d0 aa 68 fe bd fd fd 45 3d 62 60 a4 3d c4 c6 03 be
       -0.12422307 0.048337925 0.08026196 -0.12868792
0003e0 ac ee 45 bc 15 de 53 3e 99 40 87 3e c3 15 a7 ba
       -0.01208083 0.20690186 0.26416472 -0.0012747574
0003f0 19 df 69 3d b2 2d ce bc 79 a9 1d bd 99 c3 d0 3e
       0.057097528 -0.025168274 -0.0384917 0.4077423

rnn.bias_ih_l0 f4 [64]
000000 8a c3 93 3c ee 8c 0e 3d de e6 cd 3d fc a0 98 b9
       0.018037576 0.03480237 0.100538 -0.00029111642
000010 64 0a fa bb 79 17 66 bd 1b 71 23 be d0 9b d6 3d
       -0.007630633 -0.05617473 -0.15961115 0.104789376
000020 8f 3b 9d 3d f7 c5 dd 3d 37 f0 f6 bd da f6 57 bc
       0.076773755 0.108287744 -0.12057536 -0.013181413
000030 f8 9a 98 3d d0 f0 60 3d 0b fe 79 3c 9e ef cb bd
       0.07451433 0.054917157 0.0152583225 -0.09957813
000040 ba 6e 5f bd 63 f2 8a bd ff 27 99 3c 74 25 39 3d
       -0.054548956 -0.06784513 0.01869583 0.045201734
000050 21 d9 3a 3d 67 c6 d3 bd 85 67 11 be 5c 1f e9 3d
       0.045617227 -0.103405766 -0.14199646 0.113829345
000060 46 69 0d be da 6e 60 bd cb 7d d7 bd 0b d5 0c bc
       -0.1380969 -0.054793216 -0.1052204 -0.008595715
000070 10 77 25 bd 4c 31 d9 3c 3f ec 84 3d e9 b9 03 bd
       -0.04039675 0.026512764 0.06490373 -0.03215972
000080 74 dc 39 3d ce 39 d6 bd 25 2c 87 3d ee 74 0f bd
       0.045376256 -0.10460244 0.06600217 -0.035023622
000090 c4 50 f4 bd fa 34 d8 3d 14 00 b8 bd 44 13 c0 bd
       -0.11929467 0.105569795 -0.0898439 -0.093786746
0000a0 ed ca aa 3d 40 ec c3 3d 62 90 d9 3d 38 22 b5 bd
       0.08339486 0.095665455 0.10623242 -0.08844417
0000b0 4c b5 0c 3e 4d 92 7b 3d 62 f5 11 3e b5 ef 9f 3d
       0.13741034 0.06141882 0.14253762 0.07809392
0000c0 de 46 9c 3d ca b4 63 3d 57 aa 8c 3d 5c ac ad ba
       0.07630704 0.055592336 0.06868427 -0.001325022
0000d0 ed f5 b5 3c 35 b3 2f be ee f3 2c be df ea 22 bd
       0.022211993 -0.17158206 -0.16889927 -0.03977477
0000e0 83 32 79 3c 7f a9 02 be 11 0e 38 3d 75 39 d8 bd
       0.015209797 -0.1275997 0.04493529 -0.10557834
0000f0 a6 8f 7d 3d 0e de 8c bd aa 5f 91 3b 95 ca b3 bd
       0.061904572 -0.06878291 0.004436453 -0.08778874

rnn.bias_hh_l0 f4 [64]
000000 27 94 1e bc 45 28 da bd 39 01 55 3c e1 0f e9 bc
       -0.009678877 -0.10652212 0.01300078 -0.028449954
000010 48 cc 3a bd da d4 bd bd 0d 0f 97 bd a8 b1 c3 3d
       -0.045604974 -0.09269114 -0.073759176 0.095553696
000020 ed 8f 46 bd e3 86 b1 3d e9 29 62 bc a4 87 51 bd
       -0.048477102 0.08668306 -0.0138039375 -0.051154748
000030 55 cd 8b bd 51 e2 9e bb 0e ff 4a bb 25 58 4d 3d
       -0.06826273 -0.0048487564 -0.0030974778 0.05013289
000040 1f b7 8e 3d 5b 56 1b 3e 84 00 ef bd 6c 3d b4 3d
       0.06968521 0.15169661 -0.1167002 0.08800778
000050 20 3e f3 3d 17 05 ca 3c 2d 40 86 bd e7 30 fe bc
       0.11877084 0.02466063 -0.06555209 -0.031029178
000060 60 76 fc bd 8f 47 3e 3b 7d 67 b1 3d 3d ac 9d 3d
       -0.12327266 0.0029034351 0.08662317 0.076988675
000070 34 b2 c5 3d 12 19 77 bd 6c c0 ca bd 29 4e 95 bd
       0.0965313 -0.060326643 -0.09899983 -0.072902985
000080 4e dd 94 bc c1 cb 26 3d ed e8 00 3c 6e 16 d2 bd
       -0.018171933 0.04072166 0.007868034 -0.102581844
000090 d2 ae 55 3c d7 6f 66 bd 76 f9 3c bd a4 e5 45 bd
       0.013042169 -0.056259003 -0.046136342 -0.048314705
0000a0 42 e4 ab 3a 43 8a 50 bd 58 59 24 3d 9a 44 38 3d
       0.0013114291 -0.050913107 0.040124267 0.0449873
0000b0 6f e1 04 bd e7 fa 3b bb 02 64 23 3e 5a 53 c4 3c
       -0.032441553 -0.0028683485 0.15956119 0.023965526
0000c0 cb c2 24 3c 9f 0a c4 3d a4 7c 9a bb 85 28 e0 bb
       0.010056208 0.09572338 -0.0047145654 -0.006840768
0000d0 60 7f 0a bd 8d 5f a1 bc 80 04 2f 3d 91 78 89 bd
       -0.03381288 -0.019698882 0.0427289 -0.06712449
0000e0 73 73 24 3e 18 44 c3 3d 73 cb 5f bd 2c 68 65 bd
       0.16059665 0.09534472 -0.054637384 -0.05600755
0000f0 fb e8 e2 3c e6 80 35 3d 88 b9 9d 3d 01 46 71 3d
       0.027698984 0.04431238 0.07701403 0.05890465

out.weight f4 [1, 64]
000000 b4 2a 6d 3d bb ee 8a bd 57 1a 0c 3d fd 01 25 3d
       0.057902053 -0.067838155 0.034204807 0.0402851
000010 db d4 6c 3d dd 7c ad 3c 0c a3 1d 3e 6c 4f 7d 3d
       0.057820182 0.021177704 0.15394229 0.06184332
000020 af 38 76 3c 81 16 d3 3d 31 d8 77 be 5f 3a f2 3d
       0.015028163 0.10307027 -0.24203564 0.1182754
000030 90 79 25 3c 5f 45 83 3e de e7 0e 3e 51 ba d4 3d
       0.010099784 0.25638863 0.13955638 0.103870995
000040 b2 c4 e8 3d 34 7d 04 3e f9 26 47 3e 29 6e 1a 3e
       0.11365642 0.12938386 0.1944846 0.15081085
000050 06 bd 3b be 37 63 82 3d c0 e4 52 be b2 97 03 3d
       -0.18333825 0.0636658 -0.20595074 0.03212709
000060 01 c3 72 bd a8 d9 1c 3d be d0 81 3d ef c3 3e 3d
       -0.059268 0.03829351 0.063386425 0.046573576
000070 0e ad 12 3e 38 1c b9 3d c0 2f 68 3d 36 51 19 3e
       0.14323828 0.090385854 0.056686163 0.14972386
000080 0b bd 5e 3c 68 d9 33 bd 60 9a 80 bd 44 0e 23 be
       0.013594876 -0.043908507 -0.06279445 -0.1592341
000090 17 91 02 3e d3 4b cf bd 37 a1 63 bd 9c da b5 3d
       0.1275066 -0.10121884 -0.05557367 0.08879587
0000a0 2e 25 ee 3d 1d 18 23 3e 58 6e fc 3b c1 40 a6 3d
       0.11628185 0.15927167 0.0077035837 0.081178196
0000b0 2d 58 21 be 13 8d 1f bd 94 ba e9 bd 44 76 3b 3e
       -0.15756293 -0.0389529 -0.1141254 0.18306834
0000c0 ce 2f 03 3e 64 57 d0 bc fe 88 87 3d 00 99 0d bc
       0.12811205 -0.025432296 0.06617926 -0.008642435
0000d0 3c f1 da bc e5 bc 62 3c 38 35 7b bc 22 6b 28 be
       -0.026726358 0.013838981 -0.015332513 -0.16447118
0000e0 fe 04 1a bd 44 7d 06 3d 1a 6e 84 bd 86 a2 cb bd
       -0.037602417 0.032834306 -0.06466313 -0.09943108
0000f0 e9 ef 3b 3b 81 09 7c 3e 95 c3 f2 bd d1 6f 5f be
       0.0028676933 0.24613 -0.118537106 -0.21819998
