rnn_weights/best_failed_weights_64_random_g0.1_relu_delay_discrimination.pt (torch, 20295 bytes, 5 tensors)

rnn.weight_ih_l0 f4 [64, 2]
0	0x3d52b790	0.05144459
1	0x3c07a9b0	0.008280203
2	0xbdb32bce	-0.087485895
3	0xbdf3fd2e	-0.119135246
4	0xbce8a7a3	-0.028400248
5	0x3dd118da	0.10209818
6	0x3dd27112	0.10275473
7	0x3c9d8447	0.019228114
8	0xbc7d7b00	-0.01547122
9	0xbdc91af6	-0.098195955
10	0x3b79dd5c	0.0038126325
11	0xbe080053	-0.13281374
12	0xbccaa06e	-0.024734702
13	0xbca08a57	-0.019597216
14	0xbf6104c2	-0.87897885
15	0x3de9cc35	0.114159025
16	0xbeb948a4	-0.36188233
17	0xbc20e8ce	-0.00982113
18	0xbc75caa8	-0.01500193
19	0xbd960ab2	-0.07326259
20	0x3ebc4776	0.3677327
21	0x3d0deadd	0.03464781
22	0x3dad98ee	0.08476435
23	0xbc94c4f0	-0.018160313
24	0xbf4c8fe2	-0.7990705
25	0x3d9c4c16	0.076317
26	0xbf869944	-1.0515523
27	0x3d8bc763	0.068251394
28	0xbd602b54	-0.05472882
29	0xbdf2ff45	-0.11865095
30	0xbd9f28be	-0.07771443
31	0xbc395ae0	-0.01131317
32	0xbc4cf720	-0.012510091
33	0xbc85238c	-0.016252302
34	0x3d1c7901	0.038201336
35	0x3de843b1	0.11341036
36	0xbcc736a0	-0.02431804
37	0x3dfb013c	0.12256095
38	0x3bd81c51	0.0065951725
39	0xbd02cd09	-0.031933818
40	0xba008800	-0.0004903078
41	0xbdb8393e	-0.08995293
42	0xbc103659	-0.00880202
43	0x3e35eb7d	0.17765613
44	0xbce6c570	-0.028170317
45	0xbc988638	-0.018618688
46	0xbe324fed	-0.17413302
47	0x3e448cff	0.1919441
48	0x3d93068a	0.071789816
49	0x3d9b6f8c	0.07589635
50	0x3bd979b1	0.006636821
51	0xbde8f7e9	-0.1137541
52	0xbc3eddee	-0.011649592
53	0x3b96475e	0.0045861444
54	0x3e78b56e	0.2428796
55	0xbdaae6e5	-0.08344821
56	0x3db007ac	0.08595213
57	0xbd3b0cbc	-0.04566644
58	0xbdfb59a2	-0.122729555
59	0x3ab27880	0.0013616234
60	0xbdf86c6c	-0.12130055
61	0xbc7ac9a0	-0.01530686
62	0xbbbb59d4	-0.0057174955
63	0xbcbbabd3	-0.02290908
64	0xbd928a5b	-0.071552955
65	0x3e77adb5	0.24187358
66	0xbf6fd3d2	-0.9368259
67	0xbd0f86fb	-0.035040837
68	0xbe089f6e	-0.13342068
69	0xbd9cec6b	-0.07662281
70	0x3d0c7d30	0.034299076
71	0xbb0f0540	-0.0021823198
72	0x3c313450	0.010815695
73	0x3cd1bee0	0.025603712
74	0x3d5418f5	0.051781613
75	0xbd584744	-0.05280234
76	0xbdee3161	-0.11630512
77	0x3ecc5ad6	0.39913052
78	0xbdfc61f6	-0.12323372
79	0xbdbba52a	-0.09162362
80	0xbb15aad9	-0.002283743
81	0x3ca001c5	0.019532094
82	0x3debf4c7	0.11521297
83	0x3e3327f3	0.17495708
84	0x3d149f9f	0.03628504
85	0x3e662cf4	0.22478086
86	0x3b569500	0.003274262
87	0x3d75dfc8	0.060027868
88	0x3b9c9439	0.0047784117
89	0xbda6e1ea	-0.081485584
90	0xbd513238	-0.051073283
91	0xbc97ca70	-0.018529147
92	0xbdf4d668	-0.11954957
93	0xbcaa3e30	-0.020781606
94	0xbdd4abb8	-0.10384315
95	0x3d963edf	0.073362105
96	0xbdf74662	-0.12073971
97	0xbd76e072	-0.06027264
98	0xbf4915e0	-0.78549004
99	0xbe1a5c70	-0.15074325
100	0x3be7a2fa	0.007068989
101	0xbde64b30	-0.1124481
102	0x3c400663	0.011720273
103	0xbfa4659a	-1.2843506
104	0xbf4e97c7	-0.80700344
105	0x3d2622f6	0.040560685
106	0x3d9882d0	0.074468255
107	0x3d13ad0c	0.036053702
108	0xbcd07c84	-0.025449999
109	0x3bbc19b5	0.005740369
110	0x3d1f17a4	0.038840905
111	0x3de37055	0.1110541
112	0x3cfd4a67	0.030919267
113	0x3b2792a0	0.0025569573
114	0xbf7f2065	-0.99658805
115	0xbda670ed	-0.08127008
116	0xbd9fcbc6	-0.078025386
117	0xbd7881c3	-0.060670625
118	0xbdb59314	-0.088659436
119	0xbd7e51d9	-0.062089775
120	0xbf4410fe	-0.7658843
121	0xbd1cbd06	-0.038266204
122	0xbbddd7e0	-0.006770119
123	0xbd9b1aaa	-0.07573445
124	0xbc6890e0	-0.014194697
125	0xbc276cf0	-0.010218844
126	0x3d1a5924	0.037682667
127	0x3caa8a10	0.020817786

rnn.weight_hh_l0 f4 [64, 64]
0	0xbc3d816d	-0.011566502
1	0x3b83d6ca	0.0040234076
2	0xbc8620b1	-0.01637301
3	0x3c7828c3	0.015146437
4	0x3c007a29	0.007841625
5	0xbc057b11	-0.008147017
6	0x3b368677	0.0027851143
7	0xbb9fde14	-0.0048787687
8	0x3a9f00a6	0.001213093
9	0x3c23fded	0.010009271
10	0xbc42102e	-0.011844678
11	0xbbed8a12	-0.0072491253
12	0xbac98e63	-0.0015377518
13	0xbba161df	-0.004924997
14	0x3cb41103	0.021980768
15	0xbc6b7ab4	-0.014372516
16	0xbc95427f	-0.018220184
17	0xbc9e1198	-0.019295499
18	0x3c423d22	0.0118553955
19	0xbc90d5a2	-0.017679993
20	0x3c1399f2	0.009008871
21	0xbbe309ff	-0.006928682
22	0x3bb97cb3	0.0056606173
23	0xbbb80479	-0.0056157676
24	0xbbd481df	-0.0064852084
25	0xbb298826	-0.0025868504
26	0xbc32e2c9	-0.010918328
27	0x3c16c39c	0.00920191
28	0xbbd0a72e	-0.0063675856
29	0xbc0a421c	-0.008438613
30	0xb8d416d8	-0.00010113203
31	0x3b015cf3	0.001973924
32	0x3c980ba8	0.018560246
33	0x3c008131	0.007843302
34	0x3bc21a4f	0.0059235464
35	0xbaa0382e	-0.0012223774
36	0xbb79bb94	-0.003810619
37	0x3c26abe8	0.010172822
38	0xbc0f3322	-0.008740218
39	0x3bc27036	0.0059337867
40	0x3c559674	0.013036359
41	0xbc440da6	-0.011966145
42	0x3b0a63b1	0.002111655
43	0x3bcd1a74	0.006259257
44	0x3caf3475	0.021387318
45	0xbcbb2d16	-0.022848647
46	0xbb636ca2	-0.0034702201
47	0x3c6c0a44	0.014406744
48	0x3b4c8579	0.0031207486
49	0x3c02d6d2	0.0079857875
50	0xbc24e1be	-0.010063587
51	0xbc5759fd	-0.0131440135
52	0x3c318d12	0.010836856
53	0x3c83f3a2	0.016107384
54	0xbc41da53	-0.011831838
55	0xbc0e882d	-0.008699459
56	0x3ca88c89	0.020574825
57	0xbc4f1ab8	-0.012640648
58	0xbbe0365a	-0.0068424167
59	0xbc0a2f02	-0.008434059
60	0xbc00d20d	-0.00786258
61	0xbc1f59e0	-0.009726018
62	0x3b5b3a5a	0.0033451528
63	0xba19e901	-0.0005871207
64	0xbb8c9c10	-0.004291065
65	0xbbfa9609	-0.00764728
66	0x3c7cb031	0.015422867
67	0x3a81b84b	0.0009896843
68	0x3c529f0d	0.0128553035
69	0x3c44b604	0.0120062865
70	0xbbeeb990	-0.0072853044
71	0x3ba22c24	0.0049491096
72	0x3bf61d39	0.007510808
73	0x3b55c2fe	0.0032617445
74	0x3c48d04d	0.012256694
75	0xbabbe5f1	-0.0014335496
76	0xbc3eba23	-0.011641058
77	0xbbda03c5	-0.0066532814
78	0xbcbb3383	-0.022851711
79	0xbc09af23	-0.008403572
80	0xbb127d6f	-0.0022352596
81	0xbb99f8a8	-0.0046988316
82	0xbc3de778	-0.011590831
83	0xbbbf5dcf	-0.0058400403
84	0xba453684	-0.0007523077
85	0xbc3fc2cd	-0.011704159
86	0xbc1a2631	-0.00940852
87	0xbc34d00b	-0.011035929
88	0x3bbc4534	0.0057455543
89	0xbd123360	-0.035693526
90	0xbb9e6e3c	-0.0048349183
91	0xbc588f27	-0.013217724
92	0xbc826033	-0.015915012
93	0xbc197b8b	-0.009367834
94	0xbbb56142	-0.0055352757
95	0xbcb15b5d	-0.02165001
96	0x3ba602e5	0.005066263
97	0xbc65d75d	-0.014028397
98	0x3bca83fd	0.006180285
99	0x3b8029ca	0.0039112316
100	0x3ce73ecb	0.028228184
101	0xbc27ccf0	-0.010241732
102	0xbba69d83	-0.005084695
103	0x3997d418	0.00028958987
104	0x3b5a98b9	0.003335519
105	0xbc828875	-0.015934208
106	0x3b0ba38f	0.0021307205
107	0xbc79372c	-0.015210908
108	0x3acbc6df	0.0015546939
109	0x3c90a532	0.017656896
110	0xbcde2d2a	-0.027121145
111	0x3b9afe29	0.0047300053
112	0x3c367e11	0.011138455
113	0xbc4024fc	-0.011727568
114	0x3c485e7d	0.012229559
115	0x3ac5a4d5	0.0015079031
116	0xbad18bf7	-0.0015987147
117	0x3c9ebe66	0.019377898
118	0xba3a39b5	-0.0007103936
119	0x3c4ed67e	0.012624381
120	0xbca1544a	-0.019693512
121	0x3b2926a6	0.002581039
122	0xbba7093d	-0.005097537
123	0xbc5decbd	-0.013545212
124	0x3c8b71ce	0.01702204
125	0x3ccc2169	0.024918275
126	0xbbc968d4	-0.0061465297
127	0x3bbd966a	0.005785753
128	0xbb610082	-0.0034332578
129	0x3c4e7458	0.012600981
130	0x3cfc040d	0.03076365
131	0x3d0378a6	0.03209748
132	0x3ca99082	0.02069879
133	0xbbc4f8f5	-0.0060111233
134	0x3cd1cc2f	0.025610058
135	0x3beecb06	0.007287386
136	0x3cd5aac4	0.026082404
137	0xbc9717cf	-0.01844397
138	0x3c9eeef6	0.019401055
139	0xba759028	-0.0009367489
140	0x3c9e3bcb	0.01931562
141	0x3d0ecd77	0.034863915
142	0x3c93105e	0.01795214
143	0xbc3d1225	-0.0115399705
144	0xbd253964	-0.040337935
145	0xbda7392f	-0.08165204
146	0xbcd02135	-0.02540646
147	0x3c9adab9	0.018903123
148	0xbc0267cd	-0.007959318
149	0xbcda1a57	-0.026623888
150	0x3ba4353a	0.005011228
151	0xbde383b9	-0.111091085
152	0xbbe16e4e	-0.0068796044
153	0xbdaa151e	-0.08304809
154	0x3d1e5674	0.038656667
155	0xbe39baa9	-0.18137611
156	0x3bb4c032	0.0055160755
157	0xbbbdcdd4	-0.005792359
158	0x3cfe01d8	0.031006739
159	0xbc817168	-0.015801147
160	0xbdabe624	-0.08393505
161	0x3d20725b	0.039171558
162	0x3cc343fc	0.023836128
163	0x3cb43500	0.021997929
164	0x3b8415da	0.004030925
165	0x3ca3dd48	0.020002976
166	0xbdcb8956	-0.09938304
167	0x3bf213ce	0.007387615
168	0xbcb45195	-0.022011558
169	0xbd99d27b	-0.07510849
170	0xbdee8458	-0.11646336
171	0x3c89326a	0.016747672
172	0x3b01f9ce	0.0019832733
173	0xbc6e558a	-0.014546761
174	0x3c82c960	0.015965164
175	0x3d32f758	0.043692917
176	0x3b10ce4f	0.0022095626
177	0x3d081495	0.033222754
178	0xba81b544	-0.000989594
179	0x3d2c2c76	0.04203459
180	0x3d159cdd	0.03652655
181	0x3c996c72	0.018728469
182	0x3bf33059	0.007421535
183	0x3c2569c4	0.010096017
184	0xbc7f1204	-0.01556826
185	0x3d3f7c60	0.046749473
186	0x3d2befd3	0.04197676
187	0xbc270b10	-0.010195509
188	0x3ceb169f	0.02869731
189	0xbcc6f982	-0.024288896
190	0xbc876d5d	-0.01653164
191	0x3c621c73	0.013800728
192	0x3ac76b1a	0.0015214414
193	0xbb341c17	-0.0027482563
194	0x3c348332	0.0110176075
195	0x3c5669c6	0.013086742
196	0x3d06172a	0.032736935
197	0xbc88b6e3	-0.01668877
198	0x3c51b517	0.012799523
199	0xbc976b0d	-0.018483663
200	0xbe55003d	-0.20800872
201	0xbea26b0e	-0.317223
202	0x3d0c3e06	0.034238838
203	0x3b6410ac	0.0034799976
204	0x3af3aba9	0.0018590587
205	0x3b0038b6	0.0019565052
206	0xbc632a00	-0.013864994
207	0xbb5eb87d	-0.0033984475
208	0xbc3b2f71	-0.011424885
209	0xbd856758	-0.06513852
210	0xbd2fc4d3	-0.042912316
211	0xbb147cc1	-0.0022657367
212	0x3b3e7490	0.0029061176
213	0xbd30f684	-0.043203846
214	0x3d06c474	0.032902196
215	0xbe248519	-0.16066398
216	0x3c7ea5ce	0.015542461
217	0xbea3d746	-0.32000178
218	0x3c91ce89	0.017798679
219	0xbe8675e1	-0.2626181
220	0x3bafc697	0.00536425
221	0xbcdff51b	-0.027338555
222	0xbcf7d721	-0.030253949
223	0x3b5312b6	0.0032207198
224	0xbdb57e49	-0.088619776
225	0x3d0a10ab	0.033707302
226	0xbbcdb0c7	-0.006277177
227	0xbb5916d3	-0.0033125177
228	0x3c287d1b	0.010283734
229	0x3c7f1841	0.015569747
230	0xbd92bb2a	-0.07164605
231	0xbc867ff6	-0.016418438
232	0x3c57bb38	0.013167195
233	0xbdd0d889	-0.10197551
234	0xbdeef0a6	-0.11666994
235	0x3c35e670	0.011102304
236	0x3c83d9d8	0.016095087
237	0xbca38764	-0.01996202
238	0x3bd4ef9d	0.0064982907
239	0x3c82c364	0.01596231
240	0x3c594e20	0.013263255
241	0x3d03b2a0	0.032152772
242	0x3c86d5be	0.016459342
243	0x3ca7e333	0.02049408
244	0x3b4f1bfe	0.0031602378
245	0x3b608cf2	0.0034263697
246	0x3c9982c3	0.01873911
247	0x3a2ce78e	0.00065957836
248	0x3c0b569d	0.008504537
249	0x3cf8bdff	0.030364035
250	0x3d046cb7	0.03233024
251	0x3b609331	0.003426742
252	0x3c77dfc7	0.015129036
253	0x3c94c5de	0.018160757
254	0x3ca27e11	0.019835504
255	0xbcdda7dc	-0.02705758

rnn.bias_ih_l0 f4 [64]
0	0xbddaa592	-0.10676111
1	0xbd5a5ce5	-0.053311247
2	0x3d8140c4	0.06311181
3	0xbd56610a	-0.052338637
4	0xbd9665fa	-0.07343669
5	0x3d9773c9	0.07395131
6	0xbc74659a	-0.014916802
7	0x3d6bdbf2	0.057582803
8	0x3c97b956	0.018520992
9	0x3cbad13d	0.02280485
10	0x3da166e4	0.07880953
11	0xbd8d8cad	-0.069115974
12	0x3cc789da	0.024357725
13	0x3c01f328	0.007931508
14	0xbd6bb83b	-0.057548743
15	0xbde467d8	-0.11152619
16	0xbde4402e	-0.11145054
17	0xbca48bd3	-0.020086205
18	0xbd24436c	-0.04010336
19	0xbdd99334	-0.1062378
20	0xbc827b80	-0.01592803
21	0x3ca560c5	0.020187745
22	0xbd045e94	-0.03231676
23	0x3c0c3dc3	0.008559647
24	0xbdc50fe2	-0.0962217
25	0xbd967708	-0.07346922
26	0x3e19b0fa	0.15008917
27	0xbc0385ed	-0.008027536
28	0xbe76d1f9	-0.24103536
29	0x3cdaacc9	0.026693719
30	0xbd83f8d6	-0.06443946
31	0x3d35dbf7	0.044399228
32	0xbd67d27a	-0.05659721
33	0x3d1ba0a6	0.037995003
34	0x3d70e655	0.05881341
35	0xbdef15e8	-0.116741
36	0xbe0b1220	-0.13581133
37	0xbba24adb	-0.004952771
38	0xbd28c2a3	-0.041201245
39	0x3c6137f0	0.013746247
40	0x3cc68902	0.024235252
41	0x3d8aaadf	0.06770872
42	0xbd349927	-0.04409137
43	0xbd943afe	-0.07237814
44	0x3ade9d57	0.0016984147
45	0xbd52bfa9	-0.051452313
46	0xbcf7d29f	-0.0302518
47	0xbdb8aad3	-0.09016957
48	0xbd339696	-0.04384478
49	0x3db94543	0.09046414
50	0x3d9e6684	0.07734397
51	0x3d6d0d21	0.05787385
52	0x3d581966	0.052758597
53	0xbdd15bbf	-0.10222577
54	0x3d8318f7	0.06401246
55	0xbdec9537	-0.11551898
56	0x3dbbacdc	0.0916383
57	0x3de2a1cc	0.110660166
58	0x3d887b31	0.06664122
59	0x3dcd61fd	0.100284554
60	0x3e1cf170	0.15326476
61	0xbdf0dfd8	-0.11761445
62	0xbd520e88	-0.05128339
63	0xbdd0337c	-0.1016607

rnn.bias_hh_l0 f4 [64]
0	0xbd7acdac	-0.0612313
1	0xbd7ecf2d	-0.062209297
2	0x3e2fcaf5	0.17167266
3	0x3e000bd6	0.12504515
4	0xbdcf90f4	-0.101350695
5	0xbdaaa252	-0.083317414
6	0x3bb81890	0.0056181625
7	0x3cc163df	0.023607193
8	0x3c0fa609	0.008767613
9	0x3ce4ad49	0.02791466
10	0xbb1f3c8c	-0.0024297563
11	0xbdce164b	-0.10062846
12	0x3d368719	0.044562433
13	0x3e158181	0.14600183
14	0x3d61ba64	0.055109397
15	0xbdead262	-0.114659086
16	0x3d66c02a	0.056335606
17	0xbd507d6a	-0.050900854
18	0xbcbfa319	-0.0233932
19	0x3dd0dc22	0.10198237
20	0xbd225e1c	-0.03964053
21	0xbcfea8e4	-0.031086393
22	0xbca58c28	-0.020208433
23	0xbc524f31	-0.0128362635
24	0xbcdcd308	-0.026956096
25	0x3db92eb6	0.090421125
26	0x3e25c98b	0.16190164
27	0xbb3ebf5b	-0.0029105756
28	0xbe130685	-0.14357956
29	0xbdaeaed9	-0.08529443
30	0x3d10c9b0	0.035348594
31	0xbd51a0e1	-0.051178817
32	0x3d0c1591	0.034200255
33	0x3de507aa	0.111831024
34	0xbd84bb8c	-0.06481084
35	0xbddcba60	-0.10777736
36	0xbdd11775	-0.10209552
37	0xbd929d79	-0.07158942
38	0xbc9fc0d4	-0.019501127
39	0xbdb2b8fc	-0.08726689
40	0xbd42f613	-0.047597956
41	0xbda131da	-0.078708366
42	0x3daa14c5	0.08304743
43	0x3d2a1eca	0.04153327
44	0xbc8595da	-0.016306806
45	0xbdb74983	-0.08949568
46	0xbda1fb31	-0.07909239
47	0x3d0adaf7	0.033900227
48	0x3d2275b7	0.039663043
49	0x3c0f88e7	0.008760667
50	0xbdb01e58	-0.085995376
51	0x3db986a9	0.090588875
52	0x3e079dee	0.13243839
53	0x3cbb12e1	0.02283615
54	0xbd963464	-0.073342115
55	0xbceaf24e	-0.028679993
56	0xbe080a0d	-0.13285084
57	0x3db64dbd	0.08901546
58	0x3e2a2d3e	0.16618821
59	0xbdcdc331	-0.100469954
60	0x3e03558b	0.12825601
61	0xbd029470	-0.031879842
62	0x3d3d99d8	0.046289295
63	0xbe069af8	-0.13145053

out.weight f4 [1, 64]
0	0x3dfe5ed8	0.12420434
1	0x3d16e9e8	0.036844164
2	0xbd860051	-0.06543029
3	0xbd059da3	-0.032621037
4	0x3d98d87c	0.07463166
5	0x3c3c6921	0.011499674
6	0x3d0aed73	0.033917855
7	0xbdca88b3	-0.098893546
8	0x3dd2db5e	0.10295747
9	0x3d31c7e1	0.04340351
10	0xbdb5091f	-0.0883963
11	0x3c9ac750	0.018893868
12	0xbd956679	-0.07294936
13	0xbdb70ffe	-0.08938597
14	0x3d3a4182	0.04547263
15	0x3d95da0a	0.07316978
16	0x3b693e5f	0.0035590155
17	0x3f68bfa7	0.9091744
18	0x3de7875a	0.11305113
19	0x3d5aae90	0.053389132
20	0xbdf67cd8	-0.12035531
21	0x3df27576	0.1183881
22	0xbdc225fa	-0.094799
23	0x3eb07d2a	0.34470493
24	0x3cbbbdb8	0.022917613
25	0x3daef46c	0.085427135
26	0xbe0a0e35	-0.13481982
27	0x3de2017b	0.110354386
28	0xbe3363de	-0.17518565
29	0xbbb2eb7c	-0.005460201
30	0x3deef97e	0.116686806
31	0x3d9cb1cc	0.076510996
32	0x3e089eac	0.13341779
33	0xbcdb5e87	-0.026778473
34	0x3d9b100f	0.07571422
35	0x3cd94088	0.026520029
36	0x3d3f7280	0.046740055
37	0x3d9259ce	0.07146035
38	0x3d676542	0.05649305
39	0xbd4bc38c	-0.049747035
40	0x3d5f1ebf	0.05447268
41	0x3c98ade5	0.018637607
42	0xbd4e0e7d	-0.050306786
43	0x3d359599	0.04433212
44	0x3de1f167	0.11032372
45	0xbcbb2175	-0.022843102
46	0x3de34c81	0.11098576
47	0x3d3161a7	0.04330602
48	0x3c617769	0.01376138
49	0xbbd5774e	-0.0065144664
50	0x3d98d8c5	0.074632205
51	0xbe2101d9	-0.15723361
52	0xbd26556c	-0.04060881
53	0x3d096abb	0.03354905
54	0x3c88651f	0.01664978
55	0x3c8b34a2	0.01699287
56	0x3d847690	0.064679265
57	0xbd433a67	-0.04766312
58	0xbd848f46	-0.0647264
59	0x3c2ab47d	0.010419008
60	0xbdc6c61d	-0.09705756
61	0x3d5d4e74	0.054029897
62	0xbad44b00	-0.0016196668
63	0x3cb60503	0.022219187
