rnn_weights/best_failed_weights_32_random_g0.1_tanh_delay_discrimination.pt (torch, 7367 bytes, 5 tensors)

rnn.weight_ih_l0 f4 [32, 2]
000000 d6 b8 b3 3e d7 44 a9 bd 39 21 90 be 9d 53 dd 3e
       0.35101956 -0.08265083 -0.28150347 0.43227854
000010 1e 4e c8 3c ac 45 09 be 7f 99 2e bd 2f cc 72 be
       0.024451312 -0.13405484 -0.042626854 -0.23710702
000020 19 5d da 3e 3f d2 37 bd 8b 2e 80 bd 9b 05 e7 3e
       0.42649153 -0.04487824 -0.06258877 0.45121464
000030 86 f3 20 be 2d 4f 9b 3e ad c1 f6 be 2b d9 c4 3c
       -0.15717897 0.30333844 -0.48194638 0.024029335
000040 44 bb 70 3d e6 a4 73 3e 04 76 83 bc 96 e2 2d 3e
       0.05877234 0.23793373 -0.016047485 0.16980967
000050 52 4a 4f 3f c8 2c 14 be c4 05 92 3e d3 1e 01 bf
       0.8097278 -0.14470208 0.28520024 -0.5043766
000060 b0 47 55 3d 12 bf b7 be 5b a9 45 3e cd 5b 9d be
       0.05207032 -0.35887963 0.19302885 -0.307341
000070 9b 52 d5 3c 7a e8 91 be b1 53 60 3f d0 f6 2c be
       0.026040366 -0.28497678 0.876277 -0.16891026
000080 38 f2 1b be 85 80 b7 3e e1 c6 51 3d 15 0f 7e be
       -0.15229118 0.3584024 0.051215056 -0.24810441
000090 4a 91 7a 3e 24 71 21 be c3 dd 05 3e ec 2f ee be
       0.24469486 -0.15765816 0.13072877 -0.46520936
0000a0 12 b7 a2 3d 35 3b 89 3d 38 df 1c bf 0d aa dc 3d
       0.07945074 0.06700746 -0.61278105 0.10774622
0000b0 85 ff 9f bd bf e3 03 3f ae 99 84 be 11 e4 df 3e
       -0.07812408 0.5151939 -0.25898498 0.43728688
0000c0 19 d4 cb 3d ab fc 82 be fb 47 bf bd a1 bf a3 3d
       0.09952564 -0.25583395 -0.09339901 0.07995535
0000d0 50 aa 93 be a0 6a df 3e 22 89 36 be 7e d0 0a be
       -0.28840876 0.43636036 -0.1782575 -0.13556096
0000e0 e9 dd 4f be ee 8f c9 3e d0 aa c7 bd fe e4 55 be
       -0.20299496 0.39367622 -0.09749377 -0.20888135
0000f0 4f e2 24 3e 5f cc b2 3e fd f3 55 be 32 fb 10 3e
       0.16101955 0.34921548 -0.20893855 0.14158323

rnn.weight_hh_l0 f4 [32, 32]
000000 03 86 f6 bd 00 45 83 3c 0f 2d a0 bd 8e d5 a7 3d
       -0.120372795 0.016024113 -0.07821094 0.08195029
000010 22 11 43 bc ba ed df 39 34 55 4d bd 73 6e 11 3c
       -0.01190594 0.00042710995 -0.050130084 0.008876431
000020 a8 f4 ee 3d 76 1e c9 3c 2c 57 5f 3c 5d 13 17 be
       0.11667758 0.024550658 0.013631623 -0.1475348
000030 d6 b6 1a bd 30 57 a6 bd 8f 53 d4 bd 9a 27 b4 3c
       -0.037772022 -0.081220984 -0.103675 0.02199154
000040 62 68 a3 bd 80 aa b0 3d f4 2e ac bd c7 19 9d 3c
       -0.07978894 0.0862627 -0.08407393 0.01917733
000050 bc 4b 99 bd 7b 56 38 be 1a 67 03 3d 1d 39 9d 3a
       -0.07485148 -0.1800174 0.032080747 0.001199517
000060 b7 b4 0e 3e d4 0c be 3d cb b3 8b 3d 42 af 23 bb
       0.13936125 0.092797905 0.06821402 -0.0024976288
000070 bf 24 66 bd 7e b6 9c bd b3 d1 ec 3d db 46 b0 3b
       -0.056187388 -0.07651995 0.115634345 0.0053795404
000080 60 db 61 3c af 80 60 3d 7b 60 34 bc ff 7b 38 3b
       0.013785213 0.054810222 -0.011009331 0.002815008
000090 30 ff 12 3c 4a 8b 17 3d 50 7d 3c 3c a0 bd c6 bc
       0.008971974 0.03699807 0.011504486 -0.024260342
0000a0 83 10 20 bd 11 af a4 3d d1 1b ef 3c 66 af ca bd
       -0.039078247 0.08041204 0.029188069 -0.09896736
0000b0 00 4a 3f 3c f2 8d 4d 3d 53 7b 12 bd 49 03 65 3a
       0.011675358 0.050184198 -0.035762142 0.0008736146
0000c0 f7 09 e4 3c 33 b3 9d bc 1b 1d 02 3d b0 73 b3 bd
       0.027836783 -0.019250488 0.03176604 -0.087623
0000d0 95 96 bc bc 15 8f e4 bd dc b6 75 3d 26 a0 9a bc
       -0.023021022 -0.11160103 0.05998884 -0.018875193
0000e0 b0 ed 67 bc 60 1f 16 bd 82 06 e7 3d 84 e7 06 bd
       -0.01415579 -0.036651015 0.11280538 -0.032935634
0000f0 ba a3 11 bc 16 e4 48 bc aa f8 80 bd 47 be dd bb
       -0.008889133 -0.012261411 -0.06297429 -0.0067670676
000100 3f 38 4f 3b b6 1c 8b bc 15 3a 68 3b 2e 17 80 3c
       0.0031619219 -0.016981464 0.003543501 0.015636053
000110 1a b0 3f 3d c4 43 58 bc eb 3c e0 3c f5 c5 cc bc
       0.046798803 -0.01319975 0.027372798 -0.024996737
000120 f0 b1 c1 bc e4 75 1c bd 58 fe ab bd 21 df 2a 3e
       -0.023644418 -0.038198367 -0.083981216 0.1668668
000130 73 71 8a 3c 09 84 54 3d 2f c1 65 3d ab a0 8e bd
       0.0168998 0.05188373 0.056092437 -0.06964239
000140 53 4c 2e 3d ff 61 f6 3c 6b aa c1 bb 69 7e 0a 3d
       0.042553257 0.030076025 -0.005910208 0.03381196
000150 6e 2e 70 3c dd c3 8b 3d 86 5a 94 bc 0a 6f a4 3b
       0.014659507 0.06824467 -0.018109571 0.0050181197
000160 af 80 7b bc 93 cb ab bd c5 2d 82 bd 78 2d e3 bc
       -0.015350505 -0.08388438 -0.06356386 -0.027731642
000170 26 c3 42 3d 80 99 a8 3c ee 35 1b 3d 9e ce 87 3d
       0.04754939 0.020581007 0.03789323 0.06631206
000180 d1 b7 4c 3b d1 55 35 3a 09 8d a3 3c 95 f9 44 3d
       0.0031237493 0.00069173897 0.019964712 0.048089582
000190 82 e9 10 bd 02 31 38 bc f9 7f 4e 3d b3 65 9e 3d
       -0.03537894 -0.011242153 0.050415013 0.07734241
0001a0 87 a9 1c 3c 05 47 dd 3d e9 e2 ce 3d 9b 9d 24 be
       0.009561903 0.108045615 0.101018734 -0.16075747
0001b0 bb d3 37 bd b5 b1 d7 bc c1 a2 1f 3c 8e dd aa 3d
       -0.044879656 -0.026329855 0.009743393 0.083430395
0001c0 01 66 df bd df 22 76 bd 21 ab 83 bc fd 49 a9 bd
       -0.109081276 -0.06009185 -0.016072812 -0.08266065
0001d0 ba 0e d8 bb c2 4c 98 bd 03 76 8b 3d f9 85 36 bd
       -0.0065935524 -0.074365154 0.06809618 -0.04456136
0001e0 49 40 0c 3c 4d 9a 9f 3d 53 ab 19 3d d1 45 30 3d
       0.008560249 0.077931024 0.037516903 0.043035332
0001f0 af 03 ce bd a8 92 60 3c 50 5d cd bc f4 30 8d bc
       -0.10059296 0.013706841 -0.025068909 -0.017235257
000200 c1 06 4d 3c 62 81 4c bc db 20 d5 bc 40 93 84 3d
       0.012513817 -0.012482019 -0.026016643 0.06473398
000210 08 88 16 3c 89 98 ae 3c 93 39 dc 3c 31 64 fc bc
       0.009187706 0.021312969 0.026882922 -0.030809494
000220 9d 79 32 3d bf 0f c9 3c 43 6b 1b bc 61 70 e3 bd
       0.04357301 0.024543641 -0.009486022 -0.11105419
000230 80 24 68 3c af 7c 50 bd 1d 91 4c bd 9b 01 2d 3d
       0.0141688585 -0.050900158 -0.04994308 0.04223786
000240 a1 1e 84 bd 03 e4 2f bd 3b 71 1d 3d af f8 39 bc
       -0.064511545 -0.04294206 0.038438063 -0.011350795
000250 76 7d 65 bd 86 e5 90 be 57 b3 8f 3d d5 6a 1f 3d
       -0.056027852 -0.28300112 0.07016628 0.038920242
000260 f2 dc 8d 3d 69 3e f5 3d 83 ac 8f 3d 07 88 8e bc
       0.069269076 0.119747944 0.07015326 -0.017398847
000270 f0 f9 30 bd 57 d1 a1 bd a9 a0 35 3c 57 c7 31 3d
       -0.04320711 -0.079012565 0.011085668 0.043402996
000280 d3 af 7b bc 4b e4 2e 3d f6 a5 73 bb fe 91 00 bd
       -0.015361744 0.042698186 -0.0037177778 -0.03138923
000290 58 37 53 3d 01 2b 85 3d 86 ee 3b bc 43 5d f4 bb
       0.05156645 0.06502343 -0.011470443 -0.0074574067
0002a0 f4 64 64 bd 68 49 99 bd 0b b2 8a bd f8 15 48 3d
       -0.05576034 -0.07484704 -0.0677224 0.048849076
0002b0 33 0d 89 3d cc 90 e8 3d 00 b3 38 bb 7b 22 78 bd
       0.06691971 0.11355743 -0.0028182864 -0.06057976
0002c0 a1 87 13 3e d3 6e d3 ba 3d e6 cf 3d 0e fa 13 3d
       0.14407207 -0.0016131051 0.10151336 0.036127143
0002d0 99 29 e1 3c e6 bc 06 be 1b 1d 39 bc 49 13 8b 3d
       0.027485656 -0.13157997 -0.011298443 0.06790788
0002e0 8a 37 b1 bc e7 98 ef bd e4 bf d4 3d 58 63 d7 bd
       -0.021632928 -0.11699086 0.10388163 -0.10516995
0002f0 ce b9 5e 3d 25 19 21 3d 8a 60 90 3c 1b df 1e 3d
       0.054376416 0.03933062 0.017624158 0.03878699
000300 91 81 fa bb 5f b2 cd 3b ee b3 10 b9 90 08 ed bc
       -0.00764484 0.006277367 -0.00013799939 -0.028934747
000310 d4 ff 84 bd 72 a1 fa bb 90 8e 13 3d f9 8e ee 3c
       -0.06494108 -0.0076486403 0.03602463 0.029120909
000320 f1 12 80 3d 06 f9 48 3d 42 0a a8 3b 3a cc 34 3d
       0.06253613 0.049065612 0.005128176 0.044140078
000330 90 2a 95 bd 77 3b 1d 3d 03 46 f7 3c 92 94 22 bc
       -0.07283509 0.03838679 0.030184751 -0.009923117
000340 42 e9 86 3b 60 36 61 3d e7 5b 9b bd 30 7a 73 3d
       0.004117162 0.054983497 -0.07585888 0.0594427
000350 a9 a7 f2 3c 75 8f 96 3e 02 7e 18 bd d6 c4 02 3d
       0.029620962 0.29406324 -0.037229545 0.031926
000360 5b 54 22 bd d6 5b ed bd 34 9e 36 bd 93 ea cd bb
       -0.03963123 -0.11589782 -0.044584468 -0.006284067
000370 59 9d 01 bd 8d f7 91 3c a2 cf 49 3c c0 55 35 bc
       -0.0316442 0.017818237 0.01231757 -0.011067808
000380 1a 82 b9 bc 78 d4 35 bd 59 29 81 3d 2c c7 e0 bc
       -0.022645045 -0.04439208 0.063067146 -0.027438723
000390 e7 5e 2a bc 3c ac 05 bd c0 1e ad bc 33 c5 8a 3c
       -0.010398603 -0.03263496 -0.021132827 0.016939735
0003a0 77 c0 fe bc 34 b8 26 ba db f6 a8 bb 74 d7 af 3d
       -0.031097634 -0.0006359846 -0.0051563806 0.08586016
0003b0 15 55 27 bd c0 eb 53 3d 81 ba 9e 3d 60 05 2e bd
       -0.040852625 0.0517385 0.077504165 -0.042485595
0003c0 37 89 ef 3c 64 e7 5a 3c 7b 25 a2 bc 6b f2 4c 3d
       0.029240234 0.013360832 -0.019793263 0.050035875
0003d0 05 19 8a 3d ee 7e 1e 3e e2 6e 63 bd 0f 41 8b bd
       0.06743053 0.15478107 -0.055525668 -0.06799518
0003e0 10 c2 8e bd b6 1e b3 bd ca de 8e bd 41 a2 68 3d
       -0.06970608 -0.08746092 -0.069760874 0.056795362
0003f0 ac 9f 31 3c 9b ea 96 3d aa 35 d1 bc c8 ae f8 bc
       0.010841291 0.07368966 -0.025538284 -0.03035678

rnn.bias_ih_l0 f4 [32]
000000 49 21 bf 3c fe b1 46 3d 32 e4 02 3e 1b 11 f5 bd
       0.023331301 0.04850959 0.12782362 -0.11966153
000010 94 b0 13 be 33 56 8e bd ef c0 72 bd 03 ce c1 bb
       -0.14422828 -0.06950035 -0.059266027 -0.005914451
000020 1d 81 a3 bd 5b 06 01 3c cc 6e 24 3e 76 1c 93 bd
       -0.07983611 0.00787505 0.1605789 -0.07183163
000030 01 6e cb 3d 52 a7 97 3d ef 3f df 3d 11 94 ff 3b
       0.09933091 0.07404961 0.10900866 0.0077996333
000040 97 41 cf 3d d7 cc b1 3d 92 da 8f 3d 6c cc ad 3c
       0.10119932 0.08681648 0.07024111 0.02121564
000050 b1 08 ec 3d aa fd 5d bc 32 f8 db bd 6b 6f 3e 3c
       0.11525095 -0.013549248 -0.10740699 0.011623244
000060 b3 f8 9a bd 3b 0f b0 3d 7d af 23 be 34 b5 1a be
       -0.07566967 0.08596655 -0.15984912 -0.15108186
000070 96 37 0c be ea d3 bc 3d 04 7b 9f bd 8f 20 0f 3c
       -0.1369308 0.09220107 -0.07787135 0.00873579

rnn.bias_hh_l0 f4 [32]
000000 a8 ca aa 3d f9 07 1b be 28 36 e3 3d b5 73 de bd
       0.08339435 -0.1513976 0.11094314 -0.10861913
000010 5c 15 bd 3d 3a 4c 8a bc d4 b2 d5 3d 9b d0 87 3d
       0.092325896 -0.01688205 0.104344994 0.06631585
000020 3b 9d 4e bc 7f de 33 bd ff 33 11 bd 34 20 54 3e
       -0.012610729 -0.04391336 -0.035449978 0.2071541
000030 71 fa 53 3b 7a f2 a1 bd c8 91 01 3e e3 da 09 3e
       0.003234532 -0.07907577 0.12653267 0.13462405
000040 ee 01 33 be de 94 f4 bd f2 cb ff 3d a9 fd 19 bd
       -0.17481205 -0.11942457 0.12490071 -0.037595425
000050 ab 23 28 3e f1 d8 28 be 73 c8 53 3c c0 b8 1e be
       0.16419856 -0.16489007 0.012926209 -0.15500164
000060 35 34 11 be a3 15 1a be 3b 23 af 3d 98 85 e0 3d
       -0.14180072 -0.15047316 0.085516416 0.10962981
000070 b8 4e 94 bd 83 89 99 3d 63 55 40 3d 52 11 e5 bd
       -0.07241577 0.074969314 0.04695643 -0.11184944

out.weight f4 [1, 32]
000000 97 34 07 be 93 64 1a be 93 08 a3 3d dc 51 c5 3d
       -0.13203655 -0.15077429 0.0796062 0.09634754
000010 b2 16 9c bd ca 9c 26 3d ed fb cf 3d e7 b5 93 3d
       -0.07621516 0.04067687 0.10155473 0.072124295
000020 6a 62 85 3d 20 c9 10 3e 53 ee e9 bd 0b e3 37 3c
       0.065129116 0.14139223 -0.1142241 0.011223565
000030 2d 41 3e bd 8f bc 95 be 54 3a f9 bc eb be 99 bd
       -0.046448875 -0.2924542 -0.03042332 -0.07507118
000040 d4 ab 0b be dd 48 3e 3e fa 3c 09 3e f3 b8 25 3e
       -0.13639766 0.18582483 0.13402167 0.16183834
000050 ac aa 05 3c 19 b3 25 be 45 bf 0a be ac 21 04 3d
       0.008158367 -0.16181602 -0.13549526 0.032258675
000060 8d d8 8b bd 19 15 f5 bd b3 6f 08 be 59 6e ba bd
       -0.06828413 -0.11966915 -0.1332386 -0.091030784
000070 ea b5 6e 3d 44 8d c5 3d 0f 3c 98 3e 4e 76 64 3e
       0.058278956 0.09646085 0.2973332 0.22310755
