rnn_weights/weights_128_random_g0.5_relu_ready_set_go.pt (torch, 70530 bytes, 5 tensors)

rnn.weight_ih_l0 f4 [128, 2]
00000000: 341b 29be 86b0 a9be a583 083d 4d3d 4c3d
00000010: 687f 62bd 6b0b 11be 53f1 ffbd 18da 3e3d
00000020: c0f2 0ebe 326b 333d 72bc 20bc e1a9 3a3c
00000030: 61b5 603d d42d d13d 9c8c 8bbd b13b 4cbd
00000040: 0253 92bc 60d2 2cbd d21c 35be 6c19 27be
00000050: 5bd7 e4bb 4ad6 32bd fb10 35be dcd9 3cbe
00000060: 5000 06be 7d48 f0bb 0987 82bd 65e4 60bd
00000070: da6e 4abe 0ff1 78be 981b 9ebd 794a 773c
00000080: 96cb 2dbe 0067 76be b169 373d 94ee 983b
00000090: 091a 8f3d 19f1 4a3d cd97 153e a333 033e
000000a0: 2944 773d 39d9 22bd a3fc d4ba 43c9 333e
000000b0: 08be adbd 3a46 00bd f7ec 0abe 2370 173d
000000c0: b5dd cfbc 440c 0dbd 1e1a 0b3e ff03 8c3d
000000d0: 8b16 e43c 3385 9cbd 522e 473d 66f9 083d
000000e0: 2c3c ca3d 1513 3e3d 7a69 52be 402b 4ebe
000000f0: 9068 d5bd fc76 653d f1ee 303e cb18 13bd
00000100: 50d6 263e 396a 2b3c 4dca 183e b41f cd3d
00000110: 9b39 4b3d b96f f83d 1801 41bd 5bcf 83be
00000120: 2023 3dbd 828f 8fbd fc06 863d 108f cdbb
00000130: 1a83 42bd 1dda ebbc b354 0e3e 7679 873d
00000140: 552d de3b 26f9 6fbd d94c 2a3e c8d0 9bbd
00000150: c1b9 91bd 9830 98bd 13bf 483e 417a 73bd
00000160: e5e8 013e 880b 96bd 6112 92bd 1b7b 33be
00000170: 3757 8fbd af01 bbbd 821d 313e 7d3b bd3c
00000180: c0a7 81bd 39e5 43bd a588 d6bc b7c0 40bd
00000190: 017d 90bd 160d c93c ff9b 223c f28b 583d
000001a0: c3a2 4ebe 1db8 3cbe 8c09 20bd 1158 8bba
000001b0: 2567 5ebe 7895 2fbe 4e97 64be 39fd e9bc
000001c0: 0b25 f83d 49e2 053e 9eb7 9abd edf4 a8bc
000001d0: d8e6 26be 1cca 50be a83b f939 4727 933d
000001e0: 91b8 27be 349b d6bd f4ab ebbd ee4c 8cbe
000001f0: b255 93bd 4804 23be b431 7d3d e88a a13d
00000200: 61a8 9a3d 5526 da3d 81f8 c2bb d4f4 41bd
00000210: f949 49bc c19f 63be 1da0 3c3d 9356 06be
00000220: d55e e73d 6766 9b3d 438d 9fbd fcda c83d
00000230: 4de7 94bd 2b63 1dbe c38d 11be 4913 03be
00000240: c077 493c 0b71 10bc a262 243e 0617 b63d
00000250: be2c 93be 954d 90be 492d 00be 169a 883c
00000260: 88f6 583c fb8d 2d3d be81 08be a8a8 963c
00000270: 2863 8d3d 54b3 3ebe e405 ccbd 80d6 9dbd
00000280: c802 1a3e 7cd8 3abe f18f d83d 4a42 04be
00000290: bfef c23b 1274 a9bc 24bc 0dbc 1368 fd3c
000002a0: 73c2 9dbd dab2 86bd 05be 20be 3118 b53d
000002b0: 4d41 2cbd 654e 6fbd e301 9bbd fc80 90bd
000002c0: 5d74 64bd 48cb a8bd 4d2b 443e 6cd5 d3bd
000002d0: 704c 7d3d 6ee2 913d 952a 21be fddd e6bd
000002e0: 1b54 60bb 3fa2 f4bd 895e 8dbd 4448 4f3d
000002f0: 57b2 553e 8ee4 643d 331f 22bd 31a5 773d
00000300: e793 b4bd 60a7 333c b4e3 463d 58ce e9bb
00000310: 3234 bd3c ef4e b4bc c379 41bc 2ee1 b9be
00000320: d5d3 a53c e149 543a 334b 10be df30 42be
00000330: fb30 43be da21 1ebe fb34 61bd 85dd e4bd
00000340: c06a 82be 0b71 78be 7238 57bd c08e 193d
00000350: 7aee ed3d 9ea7 2c3e 2a5e 23bb 15a4 f9bc
00000360: 227c d73c ef45 3a3d 00db 61bc 4ccb 533d
00000370: c84f f5bd 37eb 843c a595 193e be8b 8c3c
00000380: 12ab ac3d 266a 3ebe df6a bdbd 7dfa f93c
00000390: e8d4 2b3e f518 0c3e dc38 b4bc 32ab 20bd
000003a0: c4dc 0a3e ec7e 8f3d 1111 e6bc 97cb 85bc
000003b0: 3d29 bdbd baca 43be b0df 0a3e 5ba6 a4bb
000003c0: 5ab2 68bd 67fc 31ba 90cf 263d e580 c6bd
000003d0: c0bb 20be 7838 d53d de6e 27bd 4d3d d2bc
000003e0: b171 d53d d520 1b3e c6a6 093e 3479 423c
000003f0: cfe3 12bd a24f 9d3d 4d3c 90bb 8b3b babc
-0.16514283 -0.3314249 0.03332867 0.04986315 -0.055297285 -0.14164512 -0.12497201 0.04659471
-0.1395979 0.0438034 -0.009810554 0.011393041 0.054860476 0.10213819 -0.068139285 -0.049861614
-0.017861847 -0.042192817 -0.17686775 -0.16318291 -0.00698368 -0.043661393 -0.17682259 -0.18442482
-0.13086057 -0.00733286 -0.06373412 -0.054905314 -0.19768849 -0.24310707 -0.07720107 0.015093439
-0.16972193 -0.24062729 0.04477853 0.0046671126 0.06987388 0.049546335 0.14608689 0.12812667
0.060367737 -0.03975794 -0.0016249608 0.17557244 -0.08483511 -0.031316973 -0.13566957 0.036972176
-0.025374273 -0.034435526 0.13584182 0.068367 0.02784278 -0.07642593 0.04862816 0.03344097
0.09874758 0.046404917 -0.20548049 -0.20133686 -0.10420334 0.056021675 0.17278649 -0.035912316
0.16292691 0.010462337 0.14920922 0.100158125 0.049615484 0.121306844 -0.047120184 -0.25744137
-0.046176076 -0.07009794 0.06544301 -0.006273158 -0.04748831 -0.028790528 0.13899498 0.06614964
0.0067803063 -0.058587216 0.16630878 -0.07608181 -0.07115508 -0.074311435 0.19604139 -0.059442762
0.12686498 -0.07326418 -0.07132412 -0.1752743 -0.06999057 -0.091311805 0.17296413 0.023099655
-0.06330824 -0.047826026 -0.026188204 -0.047058787 -0.070550926 0.024542373 0.009924888 0.052867837
-0.20179276 -0.18429609 -0.039071605 -0.0010631104 -0.21719034 -0.17146862 -0.22323343 -0.028563129
0.121164404 0.13074602 -0.075545534 -0.020624602 -0.16298997 -0.20389599 0.00047537428 0.07185226
-0.16379 -0.104788214 -0.11507407 -0.27402443 -0.071940795 -0.15919602 0.06181498 0.078878224
0.07551647 0.106518425 -0.005950034 -0.047352627 -0.012285703 -0.2222891 0.046051133 -0.13118963
0.11297385 0.07587891 -0.077906154 0.09807393 -0.072706796 -0.15369861 -0.14214234 -0.12800325
0.012296617 -0.008816014 0.1605325 0.0889111 -0.28745073 -0.2818419 -0.12517275 0.016675036
0.013242371 0.04237173 -0.13330743 0.018390968 0.06903678 -0.18623096 -0.09962061 -0.07706928
0.15040123 -0.18246645 0.1057433 -0.12915912 0.00594899 -0.02068523 -0.008650813 0.030933416
-0.07703104 -0.06577082 -0.15697487 0.08842505 -0.042054463 -0.058424372 -0.07568719 -0.07055852
-0.055775035 -0.08241898 0.19157143 -0.10343441 0.061840475 0.07123266 -0.157389 -0.1127281
-0.0034229818 -0.119450085 -0.06902797 0.050606027 0.20868813 0.05588203 -0.039580535 0.060460273
-0.08817273 0.010965198 0.048557 -0.007135194 0.023096178 -0.022010295 -0.011808815 -0.3630461
0.020242611 0.0008098167 -0.14091186 -0.18963955 -0.19061653 -0.15442601 -0.054982167 -0.11175064
-0.2547207 -0.24261872 -0.052544065 0.037489653 0.116177514 0.16860816 -0.0024927952 -0.030473748
0.026304308 0.04547685 -0.013785124 0.05170755 -0.11978108 0.01622544 0.14998491 0.017156478
0.084310666 -0.1859518 -0.092489 0.03051495 0.16780436 0.13681395 -0.021999769 -0.039225765
0.13560778 0.0700663 -0.02808431 -0.01633243 -0.09236381 -0.19120303 0.13561893 -0.005024714
-0.056810714 -0.0006789625 0.04072529 -0.096925534 -0.15696621 0.10411161 -0.040877216 -0.025663996
0.104220755 0.15149243 0.13442525 0.011869717 -0.035861786 0.076812044 -0.0044017197 -0.02273347

rnn.weight_hh_l0 f4 [128, 128]
00000000: 18c1 073d 0780 3ebd cce5 b03c 8620 a53b
00000010: 3eb7 5e3d 6d97 aabc 6796 9b3d 813a a5ba
00000020: 1f8b 47bd c309 02bd aa3e eb3d 4e78 783c
00000030: 301b ba3d 52c7 b93d a9e8 ee3c 8666 93bb
00000040: 962f 883d 550b 99bd 4500 09bc 8c5d fabd
00000050: 2cc5 26bd d838 1a3d 9e77 bcbc ce15 08bd
00000060: 6ca3 9fbd 9f64 733d 7322 8abd b155 fcbc
00000070: 6f72 a7bd b6b5 94bc f5d0 833c fa28 39bd
00000080: bfa5 23bd 2274 6dbd 6261 013d a2b5 4c3d
00000090: d5e9 a33c 9238 ac3d 5477 08be 7b3c a33d
000000a0: 3892 dc3c 1abd ee3c 267f 0fbd 2787 edbc
000000b0: 375b 413a e39e d13c 0895 8dbd 751b 593d
000000c0: f815 a2bc bd7d 633b bc85 963c acb1 2b3d
000000d0: 997f c0bd afc7 5b3d 3aa6 8dbb 1770 9f3d
000000e0: 8fa5 ed3c c8fb 683c 821c 963d d77d 983d
000000f0: 5828 76bc 453e 763a aebc be3d 7cf9 883c
00000100: f837 7ebe a2f6 e7bb e10f d83d b565 64bd
00000110: ebb2 b83d 9119 8bbc 8430 2cbc 78ca 55bc
00000120: b2a5 3bbc 49c9 023c 066a ab3d f65e db3c
00000130: a23d 0bbd ec0c c2bc 492b 29bd 02d7 8b3d
00000140: 6163 b1bd 75ce 403c ddec e83c 875b 9abd
00000150: cc48 76b9 8dca 953d ec5b c33c 24f4 0cbd
00000160: ebc4 96bd a9c1 97bd b5b5 b3bd 5ad4 6f3d
00000170: b9df 493c 2505 513d d85a 413d 8ed2 273d
00000180: 04b5 99bd 5aee 45bb e670 7bbc 6c0e 99bb
00000190: fe2e e7bd cbb8 903c 6567 a83c e042 173d
000001a0: 1a16 bbbd 9d39 ed3c ccb9 99bd 03d5 93bd
000001b0: 0d47 3cbd 0ff8 493d 5aaa 893d cf09 3c3d
000001c0: 2a54 483d 5941 5b3c cf3e 63bc 4616 d1bc
000001d0: 7670 c93c 6e83 1abd 1eb0 dabb 8f83 f4bc
000001e0: 61e9 9dbd a03d 1a3d 2e37 9cbc 9555 723d
000001f0: 58f2 f7bd aa92 39bd edf0 1d3d a9e3 dcbd
00000200: 4b4f 383d fa68 7dbc 94c8 efbc 4297 ed3c
00000210: 8a97 d8bc 4974 783b 758b 8cbd 855b 413d
00000220: 1b99 c3bc e4ad 113d f67f dc3c d349 843d
00000230: b226 2abd a0bd a93c 0bf2 96bb 47d7 1dbd
00000240: 4e43 ebbc 3a02 05bd 21ae f0bd 7623 48bc
00000250: 42d7 5db8 1730 d2bc d69f 623d 2e47 91bc
00000260: bc6b 52bd d79c 6b3b d8f7 32bd e6ea a8bd
00000270: e24e a1bc d4f5 253c b9b6 053d ecc5 c8bd
00000280: 2b90 853c 5592 96bd 54bb 2b3d 9163 0c3c
00000290: 6657 7e3d 145a f3bb 7fd2 993c 1408 cfba
000002a0: 3730 573c 8682 eabc 1373 e63c 75a1 2cbd
000002b0: 2be8 c13a 3de1 9f3b 64f3 b8bc 3abc 153d
000002c0: c595 89bd 8478 cfbd 0254 47bd b37a babb
000002d0: ed5d bcbc 6274 fa3b 6cf7 2fbd 58a1 cbbd
000002e0: cd27 c4bd 2b5e 113d bf38 d9bc d091 55bd
000002f0: d29f bd3c 4394 0c3c 677a 6cbd 246a 0d3d
00000300: 0464 fe3c 028f 8a3c a96f 2abd 867f 36bd
00000310: 17f3 65bd 5897 95bd d8e7 c23b 64cf 173d
00000320: 85b8 4bbd 7839 bcbd 820f 5a3d 00ce 013d
00000330: 3b56 cd3c be61 32be a08d ecbb 7cd6 43bb
00000340: 8355 f9bc 7f8d 18bc 8021 aabd c842 093c
00000350: 077a da3c d960 283b 94c6 a1bc 6aaf 2b3c
00000360: 72ff 13bd 3fa2 333c c7ad 453d a6d5 80bc
00000370: c055 49bd a22b a03d 70f6 003d 1109 fc3c
00000380: 7460 0c3d fa27 833c 1cd3 a43d fa2a 2dbd
00000390: b1cc 063d 0b7d 62bd 8d81 a3bc adef fc3d
000003a0: 5e5e 32bd 49a6 573c b067 a63d 7d91 6cba
000003b0: 0d3f 2e3c 3e4c 5a3c 9142 143d 312f 663c
000003c0: 519d 233c 6875 d3bd 5093 bcbc 8cc1 6a3d
000003d0: f6a4 cdbc 6b2b 323d 3cfc 79bd ef67 943c
000003e0: ab0a 37bd f614 2ebd 9177 a4bd 1f94 83bd
000003f0: b777 3d3b b3fb 79bc 91a3 6ebc e7b7 81bd
0.033143133 -0.046508815 0.02159395 0.0050392775 0.054373972 -0.020824159 0.07597046 -0.0012605936
-0.04871666 -0.03174759 0.114865616 0.015165402 0.09087217 0.090712205 0.029163675 -0.0044983057
0.06649701 -0.074728645 -0.008361881 -0.12224874 -0.04071538 0.037651867 -0.023006257 -0.03322392
-0.07794842 0.05942213 -0.06744852 -0.03080258 -0.08176123 -0.018153053 0.01609085 -0.045205094
-0.03995299 -0.05797208 0.031587012 0.049977906 0.02000896 0.084092274 -0.1332677 0.0797052
0.026925191 0.029142905 -0.035033368 -0.02899511 0.0007375958 0.025588458 -0.06913191 0.0530047
-0.019785866 0.0034712397 0.018374316 0.041917488 -0.09399337 0.05365723 -0.0043227943 0.07785051
0.029009609 0.014220186 0.07329656 0.07445877 -0.015024267 0.0009393434 0.093133315 0.016720526
-0.24826038 -0.0070789615 0.10549904 -0.055761058 0.09018501 -0.016979964 -0.010509614 -0.013048761
-0.011453079 0.00798256 0.08369832 0.02677868 -0.033994325 -0.023687802 -0.041301046 0.06828119
-0.08661533 0.011767973 0.028433258 -0.07536989 -0.00023487507 0.07314024 0.023847543 -0.03441252
-0.07361778 -0.074099846 -0.08774892 0.058552124 0.012321406 0.051030297 0.047205776 0.040972285
-0.07505229 -0.0030201883 -0.015346741 -0.0046709087 -0.1128826 0.017666241 0.020557115 0.03692901
-0.09135075 0.028958136 -0.07506141 -0.07218363 -0.045966197 0.049308833 0.06721945 0.04590779
0.04890839 0.013382279 -0.013869955 -0.025523316 0.024589758 -0.037722997 -0.006673827 -0.029847888
-0.07710529 0.037656426 -0.01906928 0.05916365 -0.1210677 -0.045305885 0.038559843 -0.1078561
0.044997495 -0.015466923 -0.029270448 0.02900279 -0.026439447 0.0037911108 -0.06862537 0.04720642
-0.023876717 0.035566226 0.026916485 0.06459393 -0.04154081 0.020720303 -0.0046064905 -0.038535383
-0.028718617 -0.032472827 -0.117519625 -0.012215486 -5.289098e-05 -0.025657697 0.055328213 -0.017734136
-0.051372275 0.0035951638 -0.043693393 -0.08247928 -0.019690935 0.010129411 0.03264496 -0.098033756
0.016304096 -0.07352129 0.041926697 0.00856866 0.06209507 -0.0074265096 0.01877713 -0.0015795254
0.013134054 -0.028626692 0.028131044 -0.042146165 0.0014793923 0.0048791454 -0.022576995 0.03655646
-0.067180194 -0.101304084 -0.0486641 -0.0056908964 -0.022994006 0.0076432684 -0.04296057 -0.09942883
-0.09577904 0.035490196 -0.026516316 -0.05214101 0.023147497 0.00858027 -0.05773392 0.03452505
0.03105355 0.016913895 -0.041610394 -0.04455521 -0.05614003 -0.07304257 0.005948048 0.037063017
-0.04973652 -0.09190649 0.053237446 0.031690598 0.025065532 -0.17420098 -0.0072190315 -0.0029882481
-0.030436283 -0.009311079 -0.08307171 0.008377738 0.026669515 0.0025692491 -0.01974801 0.010478834
-0.036132284 0.010963975 0.04826143 -0.015726876 -0.049154043 0.07820822 0.03148502 0.030766042
0.034271672 0.016010273 0.080480784 -0.042277314 0.032910053 -0.05529503 -0.019959236 0.12350402
-0.043547027 0.013162204 0.081252456 -0.0009024365 0.01063515 0.013323842 0.036196295 0.014049337
0.009986238 -0.10325128 -0.023019463 0.057313487 -0.025103074 0.043498438 -0.061031565 0.018115966
-0.04468791 -0.04250046 -0.08030618 -0.06424736 0.0028910467 -0.015257764 -0.014565364 -0.06333905

rnn.bias_ih_l0 f4 [128]
00000000: 0cc6 933d cdf2 73bc 264a 673c d311 3f3c
00000010: e8d0 c8bc 4dab b5bd 4f3d 523c 3c76 033d
00000020: 870b c03d 0e43 b03d 1184 56bd db9c 9a3d
00000030: ef0a a13c 5423 92bd e6cd e8bc c04a c4bd
00000040: 7de2 e63c 21cb 88bd edb5 003d f528 30bd
00000050: e5e5 ca3c 643c 5abd ae05 ce3b 7865 253d
00000060: 2927 b53c c039 63bb a170 79ba 1c60 a3bc
00000070: 1fcd cf3c 0bdd b43c fdab d33c 0013 873c
00000080: 3e65 83bd c64c 73bd f21e b43c 19f9 c43d
00000090: 1d31 88bd 4d36 09bd 229b 563e 8ea2 29bd
000000a0: 5fbf 51bd e937 66bd 1055 5fbd 1e10 3fbd
000000b0: ef68 24bd fca1 953d e792 8e3d a889 503d
000000c0: 4a40 d0bc 22fe 8bbd c5cb 3ebd cda9 aabd
000000d0: a95f b03c 0156 bc3d 9f8c 433d c8a1 6a3d
000000e0: 4ad0 8f3c 784d a5bd 7fe7 2fbd eecc cf3c
000000f0: 80c8 aa3d 10a5 b03d 1054 e23d a673 9fbd
00000100: 795a a9bd 8f5d 1ebd 7f39 0c3d 42b3 903d
00000110: fa4d 0eba f6a0 6d3d 3b73 0e3c 7e43 513d
00000120: e270 9cbd 4543 ad3c 9a06 d43d 80d3 febb
00000130: d2a5 43bd 3ee2 0a3d c900 453c 410f 7e3d
00000140: 46a5 3d3d eb4f d43c 1c32 86bd b0c1 fe3d
00000150: 8be7 86bd 7c09 b63d 9897 adbd 636d d63d
00000160: 21df b93d fa56 783d 1204 a4bd ea3a cfbb
00000170: 2de2 c1bd f788 8ebd b8c9 efbc 7c10 cfbd
00000180: 5d9a dabd ad27 393d d83a a3bd 9608 e73c
00000190: ac21 83bd 8bbe 8ebb 0360 9e3d c27e 253d
000001a0: a76f 243d 93e1 8fbd 88a9 1ebd a822 a53d
000001b0: 1e92 a3bd 8e73 24bd c4e9 863d f614 543d
000001c0: 4422 663c 637c ca3d 0a8d 323c f1a0 b9bc
000001d0: 01f5 ad3d ffdf a6bd 408b 133b e557 f8bc
000001e0: b480 a13d 5a18 e33d 587a 913c 5158 593d
000001f0: 0cd7 a5bd 8733 8c3d 2f5b 4f3d cf00 cd3d
0.07215509 -0.014889431 0.014116799 0.0116619645 -0.024513677 -0.08870564 0.012832 0.03209518
0.09377199 0.0860654 -0.052372042 0.07549449 0.019658534 -0.071356446 -0.028418493 -0.0958457
0.02818417 -0.06679369 0.031423498 -0.04300781 0.024767825 -0.05328025 0.006287298 0.04037997
0.0221134 -0.0034671873 -0.0009515379 -0.01994329 0.025366364 0.022078058 0.025838846 0.016488552
-0.06415795 -0.05939939 0.021987412 0.09617824 -0.066499926 -0.03349905 0.20957616 -0.04141479
-0.051207896 -0.056205664 -0.05452448 -0.04664623 -0.040139135 0.07306287 0.06961613 0.05091253
-0.02542128 -0.06835581 -0.04658105 -0.08333168 0.02152999 0.091960914 0.04774153 0.057283193
0.017555375 -0.080714166 -0.04294538 0.025366273 0.083390236 0.08625233 0.1105119 -0.0778573
-0.082692094 -0.038663443 0.03423452 0.07065441 -0.00054284895 0.058014832 0.008694465 0.051089756
-0.07638718 0.02115024 0.10352822 -0.0077766776 -0.04776556 0.033907168 0.012024113 0.062026266
0.046300195 0.025917014 -0.06552526 0.12439287 -0.06587132 0.08888528 -0.0847618 0.104700826
0.090757616 0.060629822 -0.08008589 -0.006324162 -0.09466968 -0.06959718 -0.029270992 -0.10110566
-0.10673974 0.045203853 -0.07970208 0.028202336 -0.06402907 -0.0043562106 0.077331565 0.04040409
0.040145542 -0.07025447 -0.038735896 0.08063251 -0.07986854 -0.040149264 0.06587556 0.051777802
0.0140462555 0.09887006 0.010897884 -0.02265975 0.084939964 -0.081481926 0.002251342 -0.030315349
0.07885876 0.11088629 0.017758533 0.05306274 -0.080976576 0.068457656 0.05062407 0.1000992

rnn.bias_hh_l0 f4 [128]
00000000: 2a6c 1b3c 4058 81bd 7a15 ad3d aba6 c73d
00000010: 72e5 4f3d 0693 913c aaec 563c 6a3c be3d
00000020: 3c46 513e e20c 81bb 1938 34bd 421a 91bc
00000030: ae66 ebbc 150a 8c3d 3cbf 813d 0d05 1fbd
00000040: d991 113d e96f 1dbd d833 ff3c 75e4 f7bc
00000050: ad34 cf3d 3f40 37bd 16c9 96bd 43fc 113e
00000060: ab34 e33d 3644 7cbd ce5c 55bd eb56 853c
00000070: 9805 8fbc c67e 3c3d 4168 033d 31a6 26bc
00000080: 6592 413d 7338 b5bd 07e5 2fbc ed39 963d
00000090: 93e0 243c b35a a3bd 1dd8 8b3d 1b2b c53d
000000a0: 17c6 843c 4adc 31bb 137c a5bd b6c9 843d
000000b0: 11ea bc3d f589 4e3d 24f8 8cbb 66b5 35bb
000000c0: 4788 79bd 6390 efbc c761 efbb e34a 9dbd
000000d0: 29b6 ea3c 174c 273d 2768 5e3d 0e9f b03d
000000e0: 7885 92bd a9d6 abbd 7eba 82bd 2028 babd
000000f0: 800d 05bd 2b01 8e3d cf73 3a3d fccf 73bd
00000100: 2028 bdbd 5b43 aebd 6a18 a5bc 22a2 413d
00000110: 01aa 73bb c091 303d 74f4 af3b 9db1 c93d
00000120: af9b 6abd 3c08 233d 9d8e 583d f71d 543c
00000130: 5200 7abd 37c4 f13d defd 823d a3c2 bbbd
00000140: 0cf5 95bc 059c 523d 5c8b 1bbd a79b 4e3d
00000150: 310d 753d 2d90 a8bc 7f31 cabc 053c 583c
00000160: 0c94 babb 6636 96bc a834 88bd 2335 51bc
00000170: 4ec3 9bbd 6d8c 85bd 821e 853c fde2 cbbd
00000180: cd1e 0c3d 4cb2 273d 5bc5 f2bc 8613 ba3d
00000190: e974 7dbd 2981 9e3d 3f3a c8bc 3b0c 91bb
000001a0: 627e da3d 80e9 5bbd db4f a0bd 151d 043e
000001b0: c662 2dbd 27e5 1dbc ece4 4f3d 076a 62bc
000001c0: 2fb0 413d aac2 e53a 1731 273c d33f 35bd
000001d0: b510 413c 0ee3 b83c c255 93bc 97ac cd3b
000001e0: e758 773d aff8 4b3d b267 46bb 4ae4 6dbd
000001f0: da2e 963c 43cc cd3c 0832 04bd bd54 a73d
0.009486238 -0.063156605 0.08451362 0.09748586 0.050755925 0.017770302 0.013117949 0.09288867
0.20436949 -0.0039383033 -0.04399881 -0.017712716 -0.028735485 0.068378605 0.06335303 -0.038823176
0.03553948 -0.038436804 0.03115265 -0.030260304 0.10117469 -0.044739004 -0.07362573 0.14256386
0.1109403 -0.06158849 -0.05209046 0.016276797 -0.017458722 0.046019338 0.032081846 -0.010171459
0.047258753 -0.088486575 -0.010735757 0.07335267 0.010063308 -0.07976284 0.0682833 0.09627362
0.016207738 -0.002713936 -0.08080306 0.06483786 0.09224332 0.050424535 -0.0043020416 -0.002772653
-0.06092098 -0.029243654 -0.007305357 -0.07680299 0.028651314 0.04084405 0.054298546 0.08624087
-0.071543634 -0.083905526 -0.06383227 -0.090896845 -0.032483578 0.069338165 0.0455206 -0.05952452
-0.09236169 -0.08508941 -0.020153243 0.047273763 -0.0037180188 0.043107748 0.0053697173 0.0984833
-0.057277378 0.039802775 0.05287038 0.012946597 -0.06103546 0.11805003 0.063960776 -0.091679834
-0.018305324 0.051418323 -0.0379747 0.05044141 0.059827033 -0.02057656 -0.024681805 0.0131979035
-0.005693918 -0.018336486 -0.066506684 -0.012769016 -0.07605611 -0.06520925 0.016249899 -0.09955404
0.03420906 0.04094152 -0.029635122 0.09085755 -0.061879072 0.07739479 -0.024441836 -0.004426507
0.10668637 -0.05368948 -0.07827731 0.12901719 -0.042330526 -0.009637154 0.050755426 -0.013819224
0.047287162 0.0017529328 0.010204575 -0.04425032 0.011783768 0.022569206 -0.017985228 0.006276678
0.06038752 0.04979771 -0.003027421 -0.05807904 0.018332887 0.025121814 -0.032274276 0.081704594

out.weight f4 [1, 128]
00000000: e42a fe3d 10e0 06bb c07e 093e 8d73 b53e
00000010: 0b92 0a3e fe02 9f3d 3c72 763e 8b4a 103e
00000020: e979 5bbe ed7e a73d cc98 c8bc 7ddd 85be
00000030: ef03 8d3d 8167 6dbe 75c9 883d 057a 96bd
00000040: 6368 c03b 54a7 3e3d 4e64 0a3e c4aa 46bd
00000050: e3d4 603d 447d 9bbd b9d0 a13c e0ad acbe
00000060: cfe6 5c3d a430 9c3c bfcf 663c c57e b73d
00000070: ce8a 803e 724e 313e d9a3 e8bc 4a47 523e
00000080: 5c18 42bd 5ba0 29bc e6f0 023e 0d7b f43d
00000090: 682d a5bc 7a12 963d 1631 2dbe cf35 d03a
000000a0: 8d0f 0ab9 aaa4 383e 1495 4fbd c971 953e
000000b0: 4096 dd3d e320 a33c 3dbb 923d 51a3 c3bd
000000c0: 6bd0 90bc 8ccf 32bc 312c 393e 627d 06bc
000000d0: 10d4 fd3d 3422 53bd e600 a33d d75f 833d
000000e0: c387 223e 9f65 843d d90f d33b 3d0d 9f3c
000000f0: c671 f43d 1ea6 ab3d 1dbd 753e 12dc cdbc
00000100: 693a dcbd f859 9c3d db33 c83e dc39 64be
00000110: faef a63c 98fd 0a3e ffff d53c 0bad e83d
00000120: be6c a6bd ff58 673d a5f6 243e 70be 973b
00000130: b974 813d afc6 2ebd 9ea4 843d 4c2b cb3d
00000140: 2694 a63d 7015 ea3d 889b 4ebd 924a a1bd
00000150: d8f3 50be 7f54 083e cdd4 12bd f8d4 283d
00000160: 56ea 98bc ee8f e0be a94e 883d ba07 083e
00000170: 1264 8abd ab53 963b 0d82 8f3d 52d9 183d
00000180: d7f2 253d 9362 c53d d419 803d a925 bcbc
00000190: a4b6 a3bd 97ad 38bd 53f2 123d 79e4 3f3c
000001a0: 08e1 72be 09f6 a3bd 89cd 25be c55f 72bd
000001b0: e91b 6c3a 9a6b 2dbc c741 843d a694 333d
000001c0: 1493 c9bc 8486 433d 16ad dd3d 0075 1d3b
000001d0: 7566 9cbe 9b5d a9bd f5c0 ecbc 4d9b 3bbd
000001e0: 3d7b 59bd 73d7 01bc cef5 35bd e85b 203e
000001f0: cbbe e13e b2b1 503e 2e7a c2bc 4879 3dbd
0.124105245 -0.002058033 0.13427258 0.3543972 0.13532273 0.077642426 0.24067014 0.14090936
-0.21433224 0.08178506 -0.024486922 -0.26145545 0.06885516 -0.23184015 0.0667905 -0.07347492
0.005871819 0.046546295 0.13514826 -0.0485027 0.054890525 -0.07592252 0.019752847 -0.33726406
0.053931054 0.019066162 0.0140876165 0.08959726 0.251059 0.17315081 -0.028398441 0.20535007
-0.047386512 -0.010353173 0.12787208 0.119375326 -0.020163253 0.07327743 -0.16913256 0.0015885177
-0.00013166499 0.18031564 -0.05067928 0.29188374 0.108196735 0.019913143 0.07164619 -0.095526345
-0.017677506 -0.010913741 0.18083264 -0.0082086045 0.12393963 -0.05154629 0.07959156 0.064147644
0.15872101 0.06464695 0.006441098 0.019415492 0.11935763 0.08381294 0.23997922 -0.025129352
-0.10753328 0.07634348 0.39102063 -0.22287697 0.020378102 0.13573301 0.026123045 0.1136113
-0.0812621 0.056481358 0.16109712 0.004630856 0.06321091 -0.04266995 0.06476711 0.099203676
0.08133726 0.1142987 -0.050441295 -0.07875551 -0.20405519 0.13313483 -0.035847474 0.041218728
-0.018666428 -0.4385981 0.06655628 0.13284197 -0.06757368 0.0045876107 0.07007227 0.037316628
0.040514793 0.09637942 0.06254926 -0.022967177 -0.0799382 -0.045087423 0.03587563 0.011712187
-0.23718655 -0.08005912 -0.16191687 -0.059173364 0.00090068445 -0.010584736 0.064578585 0.043842934
-0.024606265 0.047735706 0.10824029 0.0024026036 -0.3054692 -0.08269807 -0.028900603 -0.045802403
-0.053096045 -0.007924902 -0.04442387 0.1566006 0.44090876 0.20380285 -0.0237399 -0.04625824
