rnn_weights/weights_64_random_g0.9_tanh_delay_discrimination.pt (torch, 20147 bytes, 5 tensors)

rnn.weight_ih_l0 f4 [64, 2]
000000 a5 13 38 be 48 b1 a1 be f6 25 6d be f3 ff 4a 3b
       -0.17976244 -0.31580567 -0.23159012 0.0030975312
000010 08 68 85 3e 69 12 96 3e 81 bf 80 3e 95 10 64 be
       0.26055932 0.2931092 0.25146106 -0.2227195
000020 20 be 70 bd 8a 77 42 3e 80 ed 4d bd de e2 69 be
       -0.058775067 0.18990913 -0.050275326 -0.22840449
000030 07 83 db 3d 1d 03 15 3e 6a 51 e2 3c 9e 1c b1 3d
       0.10718351 0.14551969 0.027626712 0.086480364
000040 91 0c 40 3e bb c7 1b be ef 8d e6 bd 6f b4 36 3e
       0.18754794 -0.1521291 -0.112575404 0.17842267
000050 a5 d3 25 3e 9d e5 8d 3e 01 99 e6 bd db 49 1c 3a
       0.16194017 0.27714244 -0.11259652 0.0005961933
000060 aa 6c 4a 3c 5e 62 ce 3d 4e 07 bb 3a 52 41 22 3e
       0.012355009 0.10077356 0.0014269145 0.1584523
000070 05 ef b2 3c 30 c0 75 3e 99 32 4d be 7d 7e 6c be
       0.021842489 0.23999095 -0.20038833 -0.23095126
000080 54 99 54 be 70 6f 83 be 54 e3 48 be c1 97 06 3e
       -0.20761615 -0.25670958 -0.19617969 0.13143827
000090 0c 15 20 3e 71 b4 5c be 8a e0 99 bd 90 4d b5 be
       0.15633029 -0.21553208 -0.075135306 -0.35410738
0000a0 fb c1 dd bd fe 0d 86 be bc d2 dd 3d b5 db 81 bd
       -0.108280145 -0.2618255 0.1083121 -0.06340734
0000b0 29 12 02 bc 86 10 b8 3d 1d f4 84 be 3a fa 83 3d
       -0.0079389 0.089875266 -0.25967494 0.06444211
0000c0 ea e9 3d 3c b1 e4 3c 3e a4 05 72 3e 20 b2 65 3e
       0.011591414 0.18446614 0.23634964 0.2243123
0000d0 67 60 1e be 24 01 b1 bd db 8b 8a be 2a 32 10 be
       -0.15466462 -0.08642796 -0.27059826 -0.14081636
0000e0 5b 56 73 3e af 7d 26 bd 31 3c 3e 3e b5 b5 62 be
       0.23763411 -0.040647205 0.18577649 -0.22139628
0000f0 ef 91 4d be 2e 7c 4a 3d 0c b2 b9 bd a3 c4 2d 3e
       -0.200752 0.049434833 -0.09067163 0.16969542
000100 bc 95 bc 3c f8 3d 53 3e 34 93 5d 3e 80 1b 81 3e
       0.023020618 0.20629108 0.21638185 0.25216293
000110 6a a0 82 3d 71 bd b4 3e d4 5e ab bd 21 96 2e 3e
       0.06378253 0.35300782 -0.083676964 0.17049457
000120 f4 2a bd bd 94 9d 43 be 35 40 52 be ab 4f fd 3d
       -0.09236708 -0.1910308 -0.20532306 0.12368711
000130 c8 a0 22 be ee 31 7a 3d 67 52 16 3e 39 f3 36 3d
       -0.15881646 0.061082773 0.14679871 0.04466555
000140 fb 96 46 be 82 07 1d be f6 6b e8 3d ae 90 d4 be
       -0.19393532 -0.15334895 0.11348717 -0.41516632
000150 6c b6 45 3e 09 91 ad be a0 cf 98 3d 7e d6 2d 3e
       0.1930787 -0.33899716 0.07461476 0.16976354
000160 dc 03 4a 3e 35 16 92 3d e4 0f 67 bd 55 ad 76 be
       0.19728035 0.07133142 -0.05641164 -0.24089558
000170 94 93 97 be a4 00 b3 be af 65 94 3e 57 36 45 be
       -0.2960478 -0.34961426 0.28983828 -0.1925901
000180 11 0d 34 3d e9 a7 13 3d b9 4c e4 3d b6 b2 07 be
       0.043957774 0.036048803 0.11147446 -0.13251767
000190 c1 a2 3f 3e bd ff cb 3d 55 fd 58 3e 44 1e 8b 3d
       0.1871443 0.099608876 0.21190389 0.06792882
0001a0 a0 cf 44 bd 07 ef 93 3e 3f 5a 40 be a1 c9 8f 3e
       -0.04804957 0.288933 -0.18784426 0.28083518
0001b0 7d fc 1f be 80 48 0f be 43 d0 30 3e ce 4a 23 3e
       -0.1562366 -0.139925 0.17266946 0.15946504
0001c0 72 4e c3 3d 00 68 56 be 49 5d 63 3e 46 29 23 be
       0.09536447 -0.2093811 0.22203554 -0.15933713
0001d0 1e ce f5 3c b2 53 2b 3d e1 8e 82 3e be 21 01 3d
       0.03000551 0.041827865 0.25499633 0.03152632
0001e0 b2 4f 5a 3d 8c aa 08 3e 0b 76 2c bd 1c 81 a8 ba
       0.05329866 0.13346308 -0.042104762 -0.001285586
0001f0 9b cd 4b 3e 2b a5 8d 3e 3e 15 90 bd 95 b5 9c 3e
       0.19902651 0.27665076 -0.070353016 0.30607286

rnn.weight_hh_l0 f4 [64, 64]
000000 a4 51 db 3e ca 5d 21 be c6 6f 11 bd ed 72 2e be
       0.42835724 -0.15758434 -0.035506986 -0.17036028
000010 04 a1 e0 3d 67 7e 08 bd 96 e4 3a 3d c6 52 c2 be
       0.10968211 -0.03332367 0.045628153 -0.37953776
000020 8b 2a 86 bd 5d 31 f7 bd c9 f9 70 be d9 6b c7 bd
       -0.06551083 -0.12069962 -0.23532785 -0.09737367
000030 57 86 8e be 6a 5b 9f 3b 00 1d 4e 3d c6 20 86 3e
       -0.27836868 0.0048631923 0.050320625 0.2619688
000040 a6 60 90 3c a9 26 79 3d b4 ac 12 3e 5d 71 06 3d
       0.01762421 0.060827885 0.14323694 0.032822955
000050 11 59 0b bd ea 48 bd bd 15 f8 9b 3e 2b d7 c8 bc
       -0.034020487 -0.09242423 0.3046271 -0.024516663
000060 fd 13 5e 3d 94 15 6e be 9c ad 97 3d 86 8d 59 3e
       0.05421828 -0.23250419 0.0740616 0.21245393
000070 fd 2b 4c bd 06 81 f1 bd c9 1f 35 be 7b ce 04 3e
       -0.049846638 -0.117921874 -0.17687906 0.12969391
000080 f1 46 e2 3d dc f6 33 bd 91 ff 11 3b 9b 4e 3f 3d
       0.11048687 -0.043936595 0.0022277574 0.046705823
000090 07 de 11 bd 60 e7 42 3e 65 cb 39 be 8d 4d b4 3d
       -0.035612132 0.19033575 -0.18143995 0.08803854
0000a0 19 35 1e 3e 49 b4 75 3e d3 f1 bc 3e 35 65 ab bd
       0.15449943 0.23994555 0.36903247 -0.08368913
0000b0 6d 22 9c bd c9 16 54 3d 60 4e d3 bc e6 2e 10 3d
       -0.07623754 0.051779542 -0.025794208 0.035200976
0000c0 fa 0c 8d 3d a3 9c 88 be f8 98 bc bd 37 da bb 3d
       0.06887241 -0.26682004 -0.09208864 0.091724806
0000d0 fd 44 0a be 3d b0 db bb e9 6d a4 3c da 74 b0 bd
       -0.1350288 -0.006704359 0.02007194 -0.08616038
0000e0 1c af d1 bd 46 76 7c 3e bd 5e 2d 3e 4c 84 fc bb
       -0.102384776 0.24654493 0.16930671 -0.0077062007
0000f0 dc 57 0e 3e bb e1 4c 3e eb 3b d9 3c ac 70 97 3e
       0.13900703 0.20007984 0.026517829 0.2957815
000100 b4 f9 45 be ce 8d 32 be d1 06 8f bc 6a 5c da bc
       -0.19333535 -0.17436907 -0.017459305 -0.026655395
000110 75 b7 9c bd d2 2b 2d be c2 1c b3 3c 8d 00 88 3d
       -0.07652179 -0.16911247 0.021864299 0.0664073
000120 7d 2f 44 be 1e 1a c5 bb 3d e4 7e 3d 42 96 bb 3d
       -0.1915874 -0.0060150763 0.062229384 0.09159519
000130 28 28 84 bc 15 c2 8c 3d 9d 5e 1d bd e3 9d 3f be
       -0.01613243 0.06872956 -0.03842031 -0.18712573
000140 0a d0 e4 3d 2e 07 16 3c 04 4f cb bd 3d 29 49 3e
       0.11172493 0.009156985 -0.099271804 0.19644637
000150 af 61 d7 bd 0d 84 04 be 11 93 11 3d b3 58 3e 3b
       -0.105166785 -0.12940998 0.035540644 0.0029044568
000160 14 8b 04 3e 9a 57 13 be f8 65 f0 3d 7f 68 d9 3d
       0.12943679 -0.14388886 0.11738199 0.10615634
000170 90 d1 60 be b8 b1 b8 bd 0d 21 84 bd c8 d5 33 3e
       -0.21954942 -0.09018272 -0.064516164 0.1756202
000180 57 a4 17 be 3d 91 5c bc 6c 90 d4 3d 63 54 3e bd
       -0.14808784 -0.013462362 0.10379109 -0.046467196
000190 b9 04 5d 3d 8d d6 fe 3d 3a f5 76 bc 97 48 00 be
       0.053959582 0.12443266 -0.015073115 -0.12527691
0001a0 1f 55 06 3e 64 dd 1e 3e 30 b5 d6 bb fe 38 f4 3d
       0.13118409 0.15514141 -0.006552361 0.11924933
0001b0 d8 fb 0e 3e a9 f6 1d 3d 55 07 1d be 82 6c bb bd
       0.13963258 0.03856531 -0.15334828 -0.091515556
0001c0 a1 f6 80 3c c8 78 8b 3c 67 e0 90 ba 97 46 0c 3e
       0.015742602 0.017025366 -0.0011053205 0.13698803
0001d0 e5 f3 79 bd 8a ee 95 bd 3f 7f 1a 3a c1 33 5d bd
       -0.06102361 -0.07320888 0.0005893595 -0.054004434
0001e0 a0 00 04 be e2 d6 d3 bd b0 29 cd 3b 90 45 7a bd
       -0.12890863 -0.1034372 0.006261073 -0.061101496
0001f0 6c 90 e8 3d 2a cb a2 bd dd e9 71 bc 7a f8 2d be
       0.11355671 -0.07948907 -0.01476523 -0.16989318
000200 3e e8 3e 3d 2e 91 20 be 4f 8f fb 3d 4b 54 d4 3d
       0.046608202 -0.15680382 0.12283193 0.1036764
000210 a7 5b f6 bc 94 54 80 3d d4 ed cc bd 48 32 0b bc
       -0.030073 0.06266132 -0.100062996 -0.008495875
000220 6d 48 cf bc 11 2a 12 be d3 2c 33 be ff f4 ee 3d
       -0.02530309 -0.1427386 -0.17497568 0.11667823
000230 ff 5f e4 3d fd fc d7 3c 45 34 29 be a5 bf 95 3d
       0.11151122 0.026365751 -0.16523845 0.07311944
000240 00 5e 7f bd 23 52 4a bc 41 dd 44 3d 56 80 0f be
       -0.062345505 -0.0123486845 0.048062567 -0.140138
000250 3e 6e 17 be ea 22 a8 bd ac ac 8d bd 2e 9b 41 bd
       -0.14788148 -0.08209784 -0.069177 -0.04726713
000260 3c e9 25 3d 3b e1 85 3c a2 cd 4a be 84 cf 3a bc
       0.040505633 0.01634275 -0.19805005 -0.011402015
000270 30 44 d3 bd ed ab 2d 3e 28 f8 18 3e 6f 51 eb 3d
       -0.1031574 0.16960116 0.14938414 0.114901416
000280 7d 16 5e 3d 07 12 9e 3d ec 44 52 bd 61 97 05 3e
       0.054220665 0.07718282 -0.05133526 0.13046028
000290 68 23 ac bd a6 39 48 be 5d 4a 52 bb 6a 23 40 3e
       -0.08405191 -0.19553241 -0.003208778 0.1876351
0002a0 4b 9b 86 bd 59 39 cf bd a1 71 ec 3d 52 0b a5 bd
       -0.065725885 -0.1011836 0.115451105 -0.080588
0002b0 43 79 80 bd 80 09 0e be e5 f0 b6 bd 58 e4 ff 3d
       -0.06273129 -0.13870811 -0.08932666 0.12494725
0002c0 5e 15 42 bd 10 86 c8 3c 0c ca 9c bd cb 2b b0 3d
       -0.04738366 0.024477988 -0.07655725 0.08602103
0002d0 01 f7 89 bc 77 32 71 3d d4 83 f3 3c 1b 0d 5d 3e
       -0.016841413 0.058886018 0.029725946 0.2158703
0002e0 92 bd 4f 3d 6d 70 29 3d 7e 94 9d bd ed 77 d7 3d
       0.050717898 0.041366983 -0.07694338 0.10520921
0002f0 b5 80 65 be 87 aa 2e 3c 83 04 38 3e 3e b8 ac 3c
       -0.22412379 0.010660774 0.17970471 0.021083947
000300 fb ee 44 be 93 f3 d1 ba fd 48 2e be 74 f5 8d 3e
       -0.19231789 -0.0016018025 -0.1702003 0.27726328
000310 42 3a a8 3d 0c 93 c6 3d dd 8e e2 bc 94 16 90 bd
       0.08214237 0.09696016 -0.027656013 -0.070355564
000320 e8 16 93 bd 63 25 19 be ee d3 18 be 7f c1 a4 be
       -0.071821034 -0.14955668 -0.14924595 -0.32178876
000330 73 5c 94 3e 18 c9 2e be 4e ab b3 3c 9c 78 a6 3d
       0.28976783 -0.17068899 0.02193227 0.08128473
000340 47 11 63 3d 99 7d 62 be c0 60 8b 3d 3c 3e cc bd
       0.0554364 -0.22118224 0.06805563 -0.09972808
000350 85 fa 91 3d 0f 41 ab bd f6 21 df bd 1c 39 9b bd
       0.07127861 -0.08362018 -0.108951494 -0.07579252
000360 db eb 1a 3e f3 ee 05 be b8 57 8c 3d 4b 78 32 3c
       0.15129034 -0.13079433 0.068526685 0.010892938
000370 f4 59 c9 3c b4 72 79 3c 8e 1a 6e be 19 01 1b be
       0.024579026 0.015225101 -0.23252317 -0.15137137
000380 56 2f 4c 3d 7c f9 59 3e 12 0b ac bc f2 0c fe bd
       0.04984983 0.21286577 -0.021001372 -0.12404813
000390 f2 7a 35 3e 1d 8c bf 3c fb 94 9c b8 cd 3b 23 be
       0.17722681 0.02338224 -7.4664094e-05 -0.15940781
0003a0 80 86 eb bd c2 2a 0a 3e 79 de 96 3d c8 46 a9 bd
       -0.11500263 0.13492873 0.07366652 -0.082654536
0003b0 0a 28 14 3d 0b 0d e4 3d 67 60 56 3c 5b 8c a2 3e
       0.036170997 0.111353 0.013084508 0.31747708
0003c0 07 4e b2 bd 62 9d 33 3e af d5 f2 bd 97 3a 8d 3d
       -0.08706289 0.17540506 -0.11857163 0.06895941
0003d0 9a 04 18 bb 3a 7d 45 be 61 ff 23 be af e8 26 bb
       -0.0023196102 -0.19286051 -0.16015388 -0.002546828
0003e0 95 0e 03 3e f4 72 33 bd 4e 43 4b be 94 e0 dd 3c
       0.12798531 -0.0438108 -0.19849893 0.027084626
0003f0 da b6 89 3c 15 b8 9a 3e 73 57 30 3d 70 ed 4b bd
       0.016810823 0.30218568 0.043052148 -0.049786985

rnn.bias_ih_l0 f4 [64]
000000 1f 3c 7d bd a7 c0 b7 3d e8 1f 00 bd 37 9d 9d 3c
       -0.061824914 0.089722924 -0.03128043 0.019240005
000010 dc f0 2b bd f1 1f 01 3c a3 ee 2e 3b 67 c8 4b bd
       -0.04197775 0.007881151 0.0026692532 -0.049751665
000020 7c d6 47 3c d3 a3 e5 3d 4a 95 a5 3d 8c f3 ca bd
       0.012197133 0.112128876 0.08085115 -0.09909734
000030 3c 80 35 3d c8 78 f5 bb ed 6b ca 3d a8 c1 74 bd
       0.044311747 -0.007491205 0.098838665 -0.059754997
000040 93 93 ed 3c 44 93 e6 3d 41 fd b1 bd ce 4f e4 bb
       0.029001033 0.112585574 -0.086908825 -0.0069675213
000050 de 01 0f 3d fa 76 ad bc 40 9a 4a bd 27 39 38 bd
       0.03491389 -0.021174897 -0.04946351 -0.04497638
000060 35 46 31 3c 41 83 ac 3c c8 9b aa 3d 94 eb 5b 3d
       0.010819961 0.02105868 0.08330494 0.05369146
000070 fa 4d 81 3d a3 af ab 3c a5 c7 e3 bd dc 51 b7 3d
       0.06313701 0.020957774 -0.111220635 0.0895116
000080 87 02 c7 3d 72 ff 40 bc 59 9b d8 3d 30 0b 5c bd
       0.09717279 -0.011779653 0.10576505 -0.053721607
000090 ff 31 b9 bd 7d b0 32 bd 34 39 44 3d c3 81 d1 bd
       -0.09042739 -0.043625344 0.047906116 -0.10229828
0000a0 3c e0 97 bd 14 5e 8a 3c 32 4f 91 bd 5a 61 d1 bd
       -0.07415816 0.016890563 -0.070951834 -0.102236465
0000b0 8b 3f d8 3d 84 0f 6b 3d 48 50 01 3e e1 c8 5e 3d
       0.10558995 0.057387844 0.12628281 0.05439079
0000c0 fd 52 34 3e b9 90 4c 3d 63 52 ca 3d 49 3f a2 3d
       0.17609783 0.049942706 0.09878995 0.07922227
0000d0 4b 2b 88 3c 8d 5f 98 bc 97 db 52 3d 56 bb e0 bd
       0.016622206 -0.01860025 0.05147895 -0.109732315
0000e0 e8 15 0f bc da 07 0b 3c 4d b9 ab bc 49 58 56 3d
       -0.00873325 0.008485759 -0.020962382 0.05233029
0000f0 26 b7 fa bd ac 14 06 bd a2 1b 1d 3c b4 6a a2 3d
       -0.12241964 -0.032734558 0.009589108 0.07930508

rnn.bias_hh_l0 f4 [64]
000000 a9 79 fe bd a5 69 c8 bd 6a 3c 96 3c 05 3f 00 3e
       -0.124255486 -0.09785775 0.018339355 0.1252404
000010 a3 9b f4 bd 70 a6 5d 3c 43 97 99 3d 38 c2 70 3d
       -0.11943748 0.013528451 0.07499554 0.05877897
000020 79 ae 14 bd dc ea bf bc 60 fd a4 3d 4c 00 26 be
       -0.036299203 -0.02342742 0.0805614 -0.16211051
000030 43 ea 8a 3c b6 30 b1 bd 4d 7f d7 bd 86 f7 aa 3c
       0.016957408 -0.08651869 -0.105223276 0.020869981
000040 c9 1e a1 bb 06 0f 04 be ac 9b 77 3d 5a 15 0b 3c
       -0.004917 -0.12896356 0.060451195 0.008488977
000050 e6 ec d6 3d 82 59 d7 bb 64 08 d3 3b cb e7 93 3d
       0.104944035 -0.0065719495 0.006440209 0.072219454
000060 5a 89 fa 3d 39 cd f6 3b a5 16 6c 3d 14 a8 f1 3b
       0.12233229 0.0075317887 0.057638783 0.007374773
000070 06 f3 92 bd f7 b2 b8 3d 55 dc ab bd c2 7b bb 3b
       -0.07175259 0.0901851 -0.083916344 0.00572154
000080 3d 91 67 3d c7 0e d0 bc 22 cc 45 3d c4 40 93 3d
       0.056534994 -0.025397671 0.04829038 0.071900874
000090 fb a3 b8 bc 0d 1e f0 3c 42 a3 06 3d be 49 d4 bb
       -0.02253913 0.029311204 0.03287054 -0.0064785173
0000a0 71 52 e4 bd b7 52 a4 3d fc 18 93 3d 88 f7 83 bd
       -0.11148537 0.08023589 0.071825 -0.06443697
0000b0 75 c2 1d 3e 9a 86 d5 3d 0c d3 5a 3d be 7a f3 bc
       0.1540621 0.10426064 0.053423926 -0.029721614
0000c0 97 86 e8 3d ad c2 2b bc af 27 37 3d f5 d2 9d 3d
       0.11353796 -0.010483426 0.04471558 0.077062525
0000d0 ee 77 0b 3c 79 52 80 bd 35 4f 23 bb 0e 2b bc bd
       0.00851248 -0.062657304 -0.0024919037 -0.091878995
0000e0 ce 3a e2 3d 92 f0 b8 3d a9 34 eb 3c 8a c0 34 bd
       0.11046372 0.0903026 0.028711634 -0.044128932
0000f0 d8 c4 48 3c 1c c8 d1 bd d5 41 d0 3d 18 94 12 be
       0.012253962 -0.10243246 0.101688065 -0.14314306

out.weight f4 [1, 64]
000000 9a b1 6e be c1 8a eb 3d 66 33 cc bc 7a 78 4a 3d
       -0.23309937 0.115010746 -0.024926852 0.0494313
000010 70 a8 30 bc 7c 8b b7 3c 02 f2 9a bb 5b 27 ab 3d
       -0.010782346 0.022405379 -0.0047285566 0.08357116
000020 54 90 00 be bc 9e c4 bd 87 2e 53 bd f9 7f a6 3d
       -0.12555057 -0.09600589 -0.051558044 0.081298776
000030 2b 72 e9 bd f1 fa 6b bd 7e a8 8a bd 8c 0d 97 bd
       -0.11398729 -0.057612363 -0.067704186 -0.07375631
000040 f9 fc a9 bd 0b 5f 3d bd d0 6f 3e bd ee 64 ea 3d
       -0.08300204 -0.04623322 -0.04649335 0.11445032
000050 b6 44 33 bd 7c af 82 3d f9 d6 01 3e 81 52 a3 3c
       -0.0437667 0.06381127 0.12679662 0.019936802
000060 91 6d e0 3d 69 ac 07 3e 49 b9 4c bd ca 8d f4 bd
       0.10958398 0.13249363 -0.04998139 -0.119411066
000070 41 ec 21 3e 44 5d 90 bd 69 ce af bc 6f 7e e9 bc
       0.1581278 -0.07049039 -0.021460729 -0.028502671
000080 8e e5 7e 3d fa 81 b6 bb d5 75 c5 bd 63 05 69 bc
       0.06223064 -0.0055696936 -0.09641615 -0.014222476
000090 20 c8 5f bc dc e6 58 3d 76 b1 60 bd 2e b6 be 3d
       -0.013658553 0.05295454 -0.05485674 0.09312092
0000a0 0d b9 d6 bd ea 02 cd 3c 32 28 db bd 5b eb d0 bd
       -0.104845144 0.025025804 -0.10701026 -0.102011405
0000b0 40 41 a1 bc 21 9f bb 3c bb f9 21 3d 8e 6e c1 bd
       -0.019684434 0.022903027 0.039544802 -0.09444915
0000c0 58 24 21 be 24 e4 07 3d 37 bd fa 3c 05 8c b8 3d
       -0.1573652 0.033176556 0.030607803 0.090110816
0000d0 4c 13 f0 39 89 af 28 3e 05 cc 18 bd ef 23 84 bc
       0.00045790744 0.16473211 -0.037303943 -0.016130416
0000e0 af 84 f0 bc 7d 8e df 3b 64 c0 8b 3d 79 95 28 3d
       -0.029360143 0.006822406 0.06823805 0.041158173
0000f0 8c 1b 60 3c 19 ac f2 3c 12 04 aa be 10 d9 a5 bd
       0.013678443 0.029623078 -0.3320623 -0.08098042
