rnn_weights/weights_32_random_g0.9_relu_flip_flop.pt (torch, 7270 bytes, 6 tensors)

rnn.weight_ih_l0 f4 [32, 2]
000000 0c 88 a8 3d 21 7c 9c 3d c6 29 79 bf f4 53 40 bb
       0.08229074 0.07640863 -0.97329366 -0.0029346915
000010 e6 43 c3 3c e9 ad ab 3e 09 07 8c 3e 8b 77 13 bd
       0.023836087 0.3353112 0.27349117 -0.036002677
000020 76 3e 72 bd 9d 9a 29 3f ee 4d 33 bf c0 93 cf bd
       -0.0591416 0.66251546 -0.70040786 -0.10135603
000030 a6 19 f5 3b e2 91 7d 3d 67 51 60 bd 33 10 ec be
       0.007479864 0.061906703 -0.05476513 -0.4610611
000040 00 9c c2 be 66 b5 80 bd 1d 30 c5 3c f8 c8 80 3f
       -0.38009644 -0.06284599 0.024070794 1.0061331
000050 ce 28 28 3d e5 f7 c7 3e 06 a9 4b 3c 7e 12 e2 be
       0.04105454 0.39056316 0.012430435 -0.44154733
000060 27 7d 37 3d 3e a0 40 bf 4f 19 03 3e c1 4c 93 3e
       0.04479709 -0.7524451 0.12802623 0.28769496
000070 2e 1b 8c bb de ee 64 bd 6e ce 25 3d df 5b c9 3d
       -0.004275701 -0.055891864 0.04048007 0.09831976
000080 da ee 42 bf ff ed d7 bd 57 43 4d bf 1c 52 b5 3d
       -0.7614571 -0.10543441 -0.8018088 0.08853552
000090 81 a0 ef bc ea 3c 24 3f 4f 58 a1 bf df 37 4d bc
       -0.029251339 0.6415545 -1.2605075 -0.012525528
0000a0 88 37 3c bc 83 00 60 bf eb bf 38 bf cf 21 3f bc
       -0.011487849 -0.8750078 -0.72167844 -0.011665775
0000b0 66 a2 e6 be 8c 00 02 be 10 d7 7c bd 38 f1 df 3c
       -0.45045775 -0.12695521 -0.061728537 0.027336702
0000c0 c9 c8 ed 3d 76 1a ce 3c 8d a5 27 bc 1d 4b 75 bf
       0.11610562 0.025159102 -0.0102323415 -0.9581774
0000d0 84 ac 9d 3e 0d ab 42 3d 32 15 1e bd e2 ab db 3e
       0.3079568 0.047526408 -0.038594432 0.42904574
0000e0 f2 15 07 3f ea 26 6e bd 01 6e 7a bd b9 81 52 bf
       0.5276786 -0.05814258 -0.061140064 -0.8222919
0000f0 54 57 fd bc 19 11 5e 3f 22 90 83 bd 28 cd 89 3e
       -0.03092543 0.8674484 -0.064239755 0.26914334

rnn.weight_hh_l0 f4 [32, 32]
000000 6b 9a a3 3b 71 b5 8e 3e 64 97 a4 3d 8c 4d 06 3e
       0.0049927733 0.27872804 0.08036688 0.1311552
000010 a0 18 12 3e a8 53 0e 3e e7 ab c5 3c 4b a0 0a 3e
       0.14267206 0.138991 0.024129821 0.1353771
000020 94 ba ce 3e 67 3b e7 3d b8 94 5f 3e 55 8d d5 3d
       0.40376723 0.11290627 0.21834075 0.104273476
000030 14 e9 93 3c 86 4a c0 bd 5a f4 51 bb 69 69 02 3e
       0.018055476 -0.09389214 -0.0032036514 0.12735523
000040 c9 f8 b8 3c f7 bf 52 bd cf c2 49 be e2 1b f3 bd
       0.022579568 -0.051452603 -0.1970322 -0.118705526
000050 16 9d 32 3e a1 93 21 3e 1b 62 2d be 80 8f dd 3d
       0.17442736 0.15778972 -0.16931956 0.10818386
000060 09 c4 8e bd 0d f4 09 be e2 7b 9d bd f1 b3 29 3e
       -0.069709845 -0.13472004 -0.076896444 0.16572548
000070 c0 74 bb bd e8 45 24 be a1 51 0a 3e 77 06 ae bc
       -0.09153128 -0.16042292 0.13507701 -0.021243317
000080 3f e0 1d be 2a 3a 02 be b8 83 45 be c1 17 09 bd
       -0.15417574 -0.127175 -0.19288528 -0.03346992
000090 d5 8b c6 bc f1 45 5a be 85 ea 1c 3d de 12 c6 3d
       -0.024236599 -0.21315743 0.038309593 0.096715674
0000a0 e2 61 22 be 16 13 16 bd 05 97 bf 3d 4f 88 05 bd
       -0.15857652 -0.036639296 0.093549766 -0.032600697
0000b0 ba 18 96 bd b2 08 4f 3d 76 b6 19 3d 45 d2 2f 3d
       -0.07328935 0.050545402 0.037527524 0.042925138
0000c0 77 44 bd 3d d4 d9 42 be ba d4 ac 3d 83 a2 a2 3e
       0.09241574 -0.19028407 0.08439012 0.31764612
0000d0 38 32 b2 bd f2 77 45 be 8f b8 5e 3e 20 56 7f 3d
       -0.08700985 -0.19284037 0.21750091 0.062337995
0000e0 82 0a ae 3c 87 73 48 bc c7 3d 1a 3e 35 90 2e 3d
       0.021245245 -0.012234575 0.15062629 0.042617995
0000f0 74 38 28 3e bf 88 ff bb 88 b0 1d bc 8b fb c7 bd
       0.16427785 -0.007798284 -0.009624608 -0.09764775
000100 03 fb 92 3e aa a4 37 bd ed 5c 64 3e c5 c4 26 be
       0.28707132 -0.04483477 0.22301073 -0.16285999
000110 87 b8 17 3d c8 99 07 bd e7 9a c3 bd 08 ef 38 bd
       0.037041213 -0.03310564 -0.0955103 -0.045149833
000120 2c 3e 3f 3d 6f 02 2d be fc ce 5c be dc 6b d7 bc
       0.04669015 -0.1689546 -0.21563333 -0.026296549
000130 09 be de 3a 4d 8c 8e 3e ef 43 ba be 07 12 3d 3c
       0.0016993891 0.27841416 -0.36379954 0.011539943
000140 71 bf 8d bc d4 73 1c be a8 46 87 3d 55 9f 6a 3e
       -0.0173032 -0.1527856 0.066052735 0.22912343
000150 61 c8 97 be e8 68 9f bd 5e 19 b5 3e 3e ee 2b bd
       -0.29645064 -0.07783681 0.35370916 -0.041975252
000160 c1 0c 42 3e c2 96 b4 bd 8b 82 35 bb 71 34 8f bd
       0.18950178 -0.08817817 -0.0027696218 -0.06992424
000170 c9 05 d1 3e 53 e8 d5 3d af a1 2c bd f8 95 bd 3d
       0.40824726 0.10444703 -0.04214638 0.0925712
000180 9c 15 14 be 94 f3 44 bc 07 9c 79 3e 56 fe 1e 3e
       -0.14461368 -0.012020964 0.24375926 0.15526709
000190 43 27 e7 bc eb 03 94 3c b4 28 ec bc 60 b3 86 3d
       -0.028216964 0.018068274 -0.028828003 0.06577182
0001a0 ba 45 47 3e ec 6d 1d 3e 4f fd 14 3e 24 f0 d4 bd
       0.19460192 0.15373963 0.14549755 -0.10397366
0001b0 b4 e1 2e 3e 76 28 f5 bd 5b 60 52 bc 95 77 63 3d
       0.17078286 -0.11970608 -0.012840356 0.055533964
0001c0 44 99 8d bd 0c fa 0d be 08 6c 6a bc a3 64 64 3e
       -0.06913999 -0.13864917 -0.014307983 0.22304015
0001d0 a7 8d 87 bd 97 cb 07 be 03 26 a8 3e 55 a5 5b be
       -0.06618815 -0.13261257 0.328415 -0.21449788
0001e0 e5 a2 b1 3d 48 52 09 3e 93 27 0c bc b1 42 7d 3c
       0.08673648 0.13410294 -0.008554357 0.015457795
0001f0 88 88 3d be 2b 81 31 be 11 4d 4e bd ea dd 33 bb
       -0.18509114 -0.1733443 -0.050366465 -0.0027445504
000200 e0 00 85 3d d7 57 80 3b 51 c3 97 3c 36 59 6b 3d
       0.064943075 0.0039167213 0.018525751 0.057458125
000210 8e da 54 3d 56 ae 3b be f7 04 4e bd 9e 04 13 bd
       0.051966242 -0.18328223 -0.050297704 -0.035893075
000220 f8 11 34 be 0b 42 31 bd 9a b4 3e 3e f7 de d7 be
       -0.1758498 -0.043275874 0.18623582 -0.42162296
000230 1d e0 68 be 92 d8 5a be 4d 6c aa 3b ab f8 8f be
       -0.22741742 -0.21371678 0.0052008987 -0.28119406
000240 b4 47 15 3e e8 3e 22 3e fd fe 0d 3d 17 f3 6f be
       0.14578134 0.1584431 0.034667004 -0.23432575
000250 b3 a7 40 3e 9d 31 a1 3d 74 ca 82 3c 94 d8 a5 bc
       0.18813972 0.07870791 0.015965678 -0.020244874
000260 07 92 60 3a b5 ba 7b be 9b 9e 74 3d 52 ab 89 3d
       0.00085666816 -0.24582942 0.05972157 0.0672213
000270 24 74 09 bd c7 0a 1d be 8e a1 9e bd bd e6 a3 3d
       -0.033558026 -0.15336142 -0.07745658 0.08002994
000280 12 a4 2b 3d 67 e8 1f 3e 64 8c 80 3d 72 55 b6 be
       0.041904517 0.15615998 0.062767774 -0.35612065
000290 b1 96 0c bd d0 5a a6 3e 2b 4c 77 3d ab 99 5f be
       -0.034323398 0.3249116 0.060375374 -0.21835963
0002a0 a9 6b 87 bc e5 dd 5c 3d b5 27 b1 3c 86 22 1a 3e
       -0.016530829 0.053922553 0.02162538 0.15052232
0002b0 a5 b8 ab 3b 9e 6d 83 bd 9a 5f 5d bc 25 11 93 be
       0.005240517 -0.06417392 -0.013511563 -0.28724018
0002c0 e5 e5 dd bc 68 c9 43 3e 74 84 fe bc 0e d2 88 be
       -0.027087161 0.19119799 -0.031069018 -0.2672276
0002d0 78 cf a6 bc 4c df 2e be 9f a3 55 be ed 15 e9 3d
       -0.0203626 -0.17077368 -0.20863198 0.11381135
0002e0 17 e1 d6 bd 5f 32 a9 3d 88 22 3c be 41 58 ad bd
       -0.10492151 0.08261561 -0.18372548 -0.08464099
0002f0 1b c0 10 bd be 49 23 3e 76 91 4e 3d 84 0c 89 3e
       -0.035339456 0.15946099 0.05043169 0.2676736
000300 78 3e 3a 3d 87 ea 06 3d 7d 12 07 3e dc 55 58 be
       0.04546973 0.032938506 0.13190646 -0.21126503
000310 a3 b5 af be fa e1 ed 3c 46 83 eb be 79 aa 94 3e
       -0.34318265 0.029038418 -0.4599859 0.2903631
000320 9b 76 16 be 6d e5 5f 3d f9 32 95 bd f4 58 d4 bd
       -0.14693682 0.054662157 -0.07285113 -0.10368529
000330 75 af 22 be 9f c0 15 3d 22 e3 9b bd 9a 59 95 bd
       -0.15887244 0.03656065 -0.076116815 -0.07292481
000340 5d ac 3e bd 5e ea 81 3d cf 30 c9 bd 04 a0 85 3d
       -0.046551097 0.0634353 -0.098237626 0.06524661
000350 72 12 4e be 13 a7 8a 3d bc e0 f9 3d 4c 19 6b 3d
       -0.20124224 0.06770148 0.12201068 0.05739717
000360 83 da 6f bd b9 0f d3 3e 3d 3f 8e be 77 64 c2 be
       -0.058558 0.41222933 -0.27782622 -0.37967274
000370 fa fa f0 3d 6a be 21 bd 66 13 21 be 9c 3a 8b be
       0.1176662 -0.039488234 -0.15730056 -0.27193153
000380 17 d4 d2 3d 81 05 8d 3d d7 c7 27 3e 64 da ee 3d
       0.10294359 0.068858154 0.16384827 0.116627485
000390 43 28 09 3e 27 f8 c4 3d 76 41 50 3d 61 01 a4 be
       0.13394265 0.09617644 0.05084368 -0.32032302
0003a0 b8 61 94 3b 48 8f 07 3e 76 25 53 be 81 09 13 bd
       0.0045282505 0.13238251 -0.20619759 -0.035897736
0003b0 27 e1 38 be e9 45 87 3d 80 1f 99 bd b2 0d 92 3e
       -0.18054639 0.06605131 -0.07476711 0.28526074
0003c0 c8 70 84 bd 19 80 09 bd b4 75 f9 bd 58 c5 5f 3e
       -0.06466824 -0.03356943 -0.12180653 0.21852624
0003d0 85 5c 96 bd 76 ff cc be 9c 84 c4 3d e4 d3 bb 3c
       -0.073418655 -0.4003865 0.09595606 0.022928186
0003e0 dd 3d ae 3e c8 e4 31 3e f8 15 56 3e d1 1c 5a 3e
       0.34031573 0.1737243 0.20906818 0.21300055
0003f0 a3 5f 95 3d a4 6f fd 3e 57 00 b1 bd dc 82 ca bd
       0.07293632 0.49499238 -0.08642643 -0.09888241

rnn.bias_ih_l0 f4 [32]
000000 21 f0 06 be ee 54 5b be 29 c4 2b 3d 7b ac 39 bd
       -0.1317754 -0.21419117 0.04193512 -0.045330506
000010 1e 33 c0 3d b0 9f 95 3d 34 90 f0 bd 78 51 67 bd
       0.0938475 0.073058486 -0.117462546 -0.05647418
000020 2d 5e 1b 3e 3b 72 27 3e 31 1e 2f 3d a6 4a 29 3e
       0.15172644 0.16352169 0.042753402 0.16532382
000030 5d ca 4d 3e 09 9a 9b 3d 5f 07 e3 bd 41 9f 93 bd
       0.20096727 0.07597739 -0.1108539 -0.0720811
000040 15 f8 3f 3e 9f 95 42 3c 4c 4b 62 be b2 e4 8f bd
       0.1874698 0.011876493 -0.22099036 -0.07026042
000050 52 70 85 3d 59 f6 d4 3d d2 c5 69 3d f8 3e 3b be
       0.06515564 0.103985496 0.05707342 -0.1828574
000060 b7 8d 8c 3e 12 7b b3 bd 5b 08 31 3e 68 66 41 3e
       0.2745187 -0.08763708 0.17288344 0.18886721
000070 57 e3 84 3d 70 1b 8b bd a4 f2 20 3e 28 f9 2f 3e
       0.06488674 -0.06792343 0.1571756 0.1718489

rnn.bias_hh_l0 f4 [32]
000000 d8 b6 08 3e 89 0a 13 3d e9 5f 85 3e b5 37 73 bc
       0.13351 0.03589872 0.26049736 -0.014844825
000010 d7 7a 2f be f4 97 39 3e be 9a 81 bd 0b f1 c6 bd
       -0.17136703 0.18124372 -0.06328343 -0.09713944
000020 58 fa 08 3e 4e ff b6 3d 7e db 06 3e d9 da 5b bd
       0.13376749 0.08935414 0.13169667 -0.053675506
000030 f1 84 b6 bd 4c 3b 8e 3d b9 ec d3 bd 75 b4 75 3d
       -0.08912075 0.06944904 -0.10347886 0.05998655
000040 33 af 94 bd 90 ce 85 3e 82 9c f2 bd 8b bd 00 be
       -0.07259979 0.26134157 -0.11846258 -0.12572305
000050 31 e5 3b 3b 2e 13 c3 3d 53 c3 01 be d9 12 24 be
       0.0028670544 0.095251426 -0.12672167 -0.16022815
000060 cb 46 30 3d 5f 97 67 be 54 37 4a 3e 39 5e af bd
       0.043036263 -0.22616337 0.19747669 -0.085628934
000070 64 57 bb bd c2 ab e6 39 bc cb c9 3d eb 5c c7 bc
       -0.09147528 0.00043996988 0.098533124 -0.024336299

out.weight f4 [2, 32]
000000 fa e5 dc 3d 45 fb a6 bf e9 cc eb 3d 59 47 6c 3d
       0.10786052 -1.3045431 0.11513693 0.05768523
000010 cb 0c b0 bd 08 d4 d0 be 14 1a da bc a3 7a 4f be
       -0.0859619 -0.40786767 -0.026623763 -0.20261626
000020 77 0d 90 be 44 3c 8c 3d 61 a9 59 3d 3a 5b c7 3b
       -0.28135273 0.06847432 0.053140048 0.006083873
000030 bd 04 b6 3d d3 df c9 3d 45 fb 10 bd d6 5a 0c 3e
       0.088876225 0.09857144 -0.03539588 0.13706526
000040 4e 89 ed be a3 e1 2b bf 09 9c 09 be 7d 59 c9 3f
       -0.46393818 -0.6714117 -0.13438429 1.5730435
000050 89 fb 30 3d b1 7b 08 bf 0c 27 bf 3e ce ae 0a 3e
       0.043208633 -0.5331374 0.37334478 0.13543245
000060 42 a0 ce 3e 78 e2 cf 3c cc 12 05 3e 81 89 d5 3d
       0.40356642 0.025376543 0.12995452 0.104266174
000070 5d 93 1f 3f a8 e6 76 3d 12 54 b9 bd 44 8a 31 bd
       0.62334234 0.060278565 -0.09049238 -0.04334475
000080 09 71 18 be 73 82 2f bd 31 0a 5d be 79 9d aa 3b
       -0.1488687 -0.042849015 -0.21585919 0.0052067605
000090 09 ea 39 bf 83 64 0e 3e 2e 9a a7 bd 3b ea 07 3f
       -0.72622734 0.1390553 -0.08183704 0.5309178
0000a0 33 d4 5d 3c 04 6e 73 3f 83 21 f6 bd 23 f8 62 be
       0.013539362 0.95089746 -0.120181106 -0.22164969
0000b0 99 45 c5 be d7 bf 9a bd 4c 8a 0d 3e 89 02 13 3f
       -0.3852966 -0.07556122 0.13822287 0.57425743
0000c0 13 c2 8b 3e 21 73 0d be 8a 9b 2a bf 3f 2d 96 bc
       0.27296504 -0.1381345 -0.66643584 -0.018332122
0000d0 cd fa 4d 3f 1a db 32 be ec 49 a8 bd c8 73 bc 3d
       0.80460817 -0.17466393 -0.082172245 0.09201771
0000e0 52 bd f3 bd db 79 ad bf 29 23 86 bd c5 0b 14 3e
       -0.11901344 -1.3552812 -0.06549675 0.14457615
0000f0 fc 79 01 3e bb 4a 4e bf 6a b9 50 3f 19 dd da be
       0.1264419 -0.8058278 0.8153292 -0.4274681

out.bias f4 [2]
000000 17 cb 7b 3e ad 1e 23 bd
       0.24589191 -0.039824177
