rnn_weights/weights_128_random_g0.5_relu_delay_discrimination.pt (torch, 70586 bytes, 5 tensors)

rnn.weight_ih_l0 f4 [128, 2]
0	0xbcc0c0fd	-0.023529524
1	0xbe37b55d	-0.17940278
2	0x3d0c8f9a	0.034316637
3	0xbd815b26	-0.06316213
4	0xbdc56ce3	-0.09639909
5	0xbe1f0e6f	-0.1553285
6	0xbc74fae1	-0.014952392
7	0xbd084b09	-0.033274684
8	0xbd96575c	-0.07340881
9	0x3dc2d7c8	0.09513813
10	0x3ccbb1f0	0.02486512
11	0xbc0f7f84	-0.008758429
12	0xbda189cb	-0.0788761
13	0x3de83ce1	0.11339737
14	0xbd15e534	-0.03659554
15	0xbd2037f8	-0.039115876
16	0x3cdc8b5c	0.02692192
17	0x3e2d5aeb	0.16929214
18	0x3d7db464	0.061939612
19	0x3dd34902	0.103166595
20	0x3c57c4d7	0.013169489
21	0xbd0ecd11	-0.034863535
22	0xbdc86b14	-0.097860485
23	0xbdb6e59a	-0.08930512
24	0xbd8d6811	-0.06904615
25	0xbe1f488f	-0.15555023
26	0xbd194147	-0.03741577
27	0xbc40c3d2	-0.011765437
28	0xbd1c49cb	-0.038156312
29	0xbd172f28	-0.036910206
30	0x3d61b54b	0.055104535
31	0xbf406a3c	-0.751621
32	0x3c45faf0	0.012083754
33	0x3b958230	0.0045626387
34	0xbcf8f22d	-0.030388916
35	0xbc9bd728	-0.019023493
36	0xbc413354	-0.011792023
37	0x3d52cab2	0.051462837
38	0xbeb35d24	-0.35031998
39	0xbf13670b	-0.57579106
40	0x3c2c65ed	0.010522348
41	0x3dc94965	0.09828452
42	0x3cc351e5	0.023842761
43	0xbd7d4f42	-0.061843164
44	0xbe9ca4f4	-0.305946
45	0xbd5d741f	-0.05406582
46	0x3ca41c07	0.020032896
47	0xbdedbbc6	-0.116080806
48	0xbd75b342	-0.059985407
49	0x3cfb9f12	0.0307155
50	0x3f166959	0.587545
51	0x3e3e32a8	0.18574011
52	0xbc5357a0	-0.012899309
53	0xbe2f0141	-0.17090322
54	0x3f11c9ae	0.56948364
55	0x3e10cb9d	0.14140172
56	0x3d4f0b4e	0.05054789
57	0x3e071e62	0.13195184
58	0xbceaa85e	-0.028644737
59	0xbbfe5746	-0.0077618686
60	0xbc6ad7c4	-0.014333669
61	0x3c8c0abb	0.01709496
62	0xbf1e9315	-0.6194318
63	0x3d47204f	0.048614796
64	0x3cfcb55c	0.030848198
65	0xbae61e23	-0.0017556589
66	0xbcd44dec	-0.025916062
67	0x3cd7c58c	0.026339315
68	0xbd35c319	-0.044375513
69	0x3e2afdb6	0.16698346
70	0xbda9367d	-0.08262346
71	0xbe010ef7	-0.12603365
72	0x3d939a32	0.07207145
73	0xbd70a12a	-0.058747448
74	0xbdcb2919	-0.09919948
75	0xbe1b223f	-0.15149783
76	0xbd8f142b	-0.069862686
77	0xbda225a9	-0.07917339
78	0xbcc77bf1	-0.024351092
79	0x3d813b88	0.06310183
80	0x3db8c3a7	0.09021693
81	0x3e4789ea	0.19486204
82	0x3d87ea60	0.066365
83	0xbe02fca5	-0.12791689
84	0xbda9ac9a	-0.08284874
85	0xbdae9a9a	-0.08525582
86	0xbf364482	-0.71198285
87	0xbdbfb451	-0.093605645
88	0xbde543c6	-0.111945674
89	0xbdcfd574	-0.10148135
90	0xbdbc491e	-0.091936335
91	0xbdca12c8	-0.098668635
92	0x3d0a075c	0.033698425
93	0xbc27fc14	-0.010252971
94	0x3d592ab0	0.053019226
95	0xbdbfd8b3	-0.09367504
96	0xbe3b8b9d	-0.18314977
97	0xbefb2821	-0.49054053
98	0xbd916230	-0.07098806
99	0x3c7649f6	0.015032282
100	0x3d269106	0.04066565
101	0xbdf2a1ab	-0.11847242
102	0xbdcac770	-0.09901321
103	0xbd921aa1	-0.07133985
104	0xbd90f85f	-0.07078623
105	0xbd8af0ab	-0.06784185
106	0x3c83d885	0.016094455
107	0x3cc0b76c	0.023524962
108	0xbd92286e	-0.071366176
109	0xbec72fa7	-0.38903543
110	0xbd97055a	-0.073740676
111	0xbd70d313	-0.058795046
112	0xbdc8c734	-0.0980362
113	0xbf40629a	-0.75150454
114	0x3d4a9988	0.049462825
115	0x3dfe52a1	0.12418104
116	0x3d2eb5e7	0.042653944
117	0xbb1f0491	-0.0024264196
118	0xbdab7474	-0.08371821
119	0x3e2b20df	0.16711758
120	0xbd2ef48c	-0.042713687
121	0x3e28b06e	0.16473553
122	0xbd00ec14	-0.03147514
123	0x3de98aaa	0.11403401
124	0xbc2d9c21	-0.010596306
125	0x3e3cfdcd	0.18456192
126	0xbe1b0542	-0.15138724
127	0xbe13135d	-0.14362855
128	0xbc9f4a14	-0.019444503
129	0xbdb8f430	-0.0903095
130	0xbb91bc7c	-0.004447518
131	0xbd11fe29	-0.035642777
132	0xbe3b2bc2	-0.18278411
133	0x3dc331fe	0.0953102
134	0x3c642601	0.013925076
135	0xbcfd7ee1	-0.03094429
136	0xbd3da9bb	-0.046304446
137	0x3c0c6a7b	0.008570309
138	0x3c8e35c5	0.017359624
139	0xbe9c4007	-0.305176
140	0xbbc5634e	-0.006023801
141	0xbdf1cc3f	-0.11806535
142	0xbe93e3ad	-0.2888464
143	0xbf0f57e9	-0.55993515
144	0x3dee4851	0.11634887
145	0xbd840289	-0.06445796
146	0xbd431628	-0.04762855
147	0x3c36c38d	0.011155021
148	0xbc9fe954	-0.01952044
149	0xbce4d5dd	-0.02793401
150	0x3ce51f3e	0.027968999
151	0x3e11aa66	0.14225158
152	0x3cb66418	0.022264525
153	0xbd21f513	-0.03954036
154	0xbc165bcd	-0.00917716
155	0xbc8af7c0	-0.01696384
156	0x3a2e5ae1	0.0006651115
157	0xbd11e989	-0.035623107
158	0x3cb5b740	0.022182107
159	0xbe828240	-0.25489998
160	0x3cb51f36	0.02210961
161	0xbe3f7238	-0.18695915
162	0xbcad7cef	-0.021177737
163	0x3c4cdeba	0.012504274
164	0x3caa74fd	0.020807737
165	0x3e357d3d	0.17723556
166	0xbea38009	-0.3193362
167	0x3bbe86f5	0.005814428
168	0xbd901cc1	-0.07036734
169	0xbdb2c87b	-0.08729645
170	0x3d2f809e	0.04284727
171	0xbce45506	-0.027872574
172	0x3d529946	0.051415704
173	0x3df4190c	0.1191884
174	0x3da0b96c	0.078478664
175	0x3e41fbb6	0.18943676
176	0xbd12c32b	-0.035830658
177	0x3d19acd6	0.037518345
178	0x3c2e4cbd	0.010638413
179	0xbd4ab6f2	-0.049490876
180	0xbd350caf	-0.04420155
181	0xbd909818	-0.070602596
182	0x3dbcb5f7	0.092143945
183	0x3e8cd1d9	0.2750385
184	0xbb5d9e7b	-0.0033816386
185	0xbd569feb	-0.052398603
186	0xbe1a901f	-0.1509404
187	0xbe6e8a44	-0.23294932
188	0x3c422426	0.011849439
189	0x3e69fa0d	0.22849293
190	0x3ca1abc9	0.019735234
191	0xbe4f7ba6	-0.20262012
192	0x3e1bc154	0.15210468
193	0xb985442b	-0.00025418526
194	0xbd87b787	-0.06626802
195	0xbdda150b	-0.10648545
196	0xbd674b28	-0.05646816
197	0xbefbb66c	-0.49162614
198	0x3d85bafd	0.06529806
199	0x3e44d892	0.1922324
200	0xbd536c0c	-0.051616713
201	0x3e36170e	0.17782232
202	0x3da94222	0.08264567
203	0xbca69443	-0.020334369
204	0xbda131d1	-0.0787083
205	0x3e6bee09	0.23040022
206	0xbd865396	-0.065589115
207	0x3d327905	0.043572444
208	0x3d431740	0.047629595
209	0xbe9e8e35	-0.3096787
210	0xbd9cb57e	-0.076518044
211	0xbeadbe0d	-0.3393406
212	0xbb877daf	-0.0041348557
213	0xbe188cbd	-0.14897437
214	0x3ccde9ec	0.025135957
215	0xbcb06ea0	-0.021537125
216	0xbe06153c	-0.13094038
217	0x3e2c2a0b	0.16812913
218	0xbde2eb60	-0.110800505
219	0x3e15f0d7	0.14642654
220	0xbc20fac0	-0.009825408
221	0xbd24bb4d	-0.040217686
222	0xbd2ded1c	-0.042462453
223	0xbce09f94	-0.027419843
224	0x3d94e57e	0.07270335
225	0xbd3a2e50	-0.045454323
226	0x3dda5a3d	0.10661743
227	0xbe34eb97	-0.17667995
228	0xbf42e0a4	-0.76124024
229	0xbf250efb	-0.64475983
230	0x3c94112f	0.0180746
231	0xbd021271	-0.03175587
232	0x3cbebcbc	0.023283355
233	0x3d9db2a2	0.07700087
234	0xbd930668	-0.07178956
235	0xbe878819	-0.26471022
236	0xbd8371d4	-0.06418195
237	0x3b12af1a	0.00223822
238	0xbcdf03b0	-0.027223438
239	0x3cf5e3f8	0.03001593
240	0xbde0cfce	-0.109771356
241	0x3dd8bfde	0.10583471
242	0xbd912528	-0.07087165
243	0xbdf55464	-0.11978987
244	0x3d2fe574	0.042943433
245	0x3da21348	0.07913834
246	0x3d675cdd	0.056485046
247	0x3cb40741	0.021976115
248	0x3d657232	0.05601711
249	0x3de85bed	0.113456585
250	0xbd507f46	-0.050902627
251	0x3e29434f	0.16529582
252	0x3d6468bb	0.05576394
253	0x3c9c60dd	0.019089157
254	0xbce9610b	-0.028488657
255	0xbd6b4feb	-0.057449263

rnn.weight_hh_l0 f4 [128, 128]
0	0xbd4ff533	-0.05077095
1	0x3cb0bf71	0.021575661
2	0xbdbff3b9	-0.09372658
3	0x3d176b11	0.03696734
4	0xbd2a05ba	-0.041509368
5	0x3dc45ca8	0.09587985
6	0xbd41b22c	-0.04728906
7	0x3e6080ef	0.21924184
8	0xbd7e9e11	-0.062162463
9	0xbc2ffd60	-0.010741562
10	0xbc92f24b	-0.0179378
11	0x3d66d580	0.056355953
12	0xbdcab3f5	-0.09897605
13	0xbc7b779a	-0.015348339
14	0xbce0b21a	-0.027428675
15	0x3c81c8df	0.015842853
16	0xbd0fbb06	-0.03509047
17	0xbd653f68	-0.055968672
18	0x3da2f227	0.07956343
19	0x3d8dcc93	0.06923785
20	0xbcac8c41	-0.021062972
21	0x3d08e1e3	0.033418547
22	0x3c84ff90	0.016235143
23	0xbdb73d2d	-0.08947215
24	0xbd0513f1	-0.03248972
25	0xbc17cda4	-0.009265337
26	0xbe0d866d	-0.1382081
27	0x3c6481ab	0.013946931
28	0xbd4fb2a2	-0.050707467
29	0x3d2e612c	0.04257314
30	0x3d4b5222	0.049638875
31	0xbd8d4f33	-0.06899872
32	0x3dc7c714	0.09754768
33	0xbc8bf12e	-0.017082777
34	0xbdc6b066	-0.09701614
35	0x3ca7165d	0.020396406
36	0xbc98b1e3	-0.01863951
37	0xbdcaeacc	-0.09908065
38	0xbc3c1b80	-0.011481166
39	0xbca9fb93	-0.020749843
40	0x3c416b55	0.011805375
41	0xbdc0589c	-0.09391901
42	0xbd1a6d64	-0.03770198
43	0x3dcfbdcc	0.10143623
44	0xbcbfe5a3	-0.023424929
45	0x3e7a11cf	0.24420856
46	0xbd179982	-0.03701163
47	0xbc100fc4	-0.008792821
48	0x3dffcbe1	0.12490059
49	0x3d583fd7	0.052795257
50	0x3d05286b	0.03250925
51	0x3b5b202f	0.003343593
52	0xbd23a6f7	-0.039954152
53	0x3d00831d	0.03137504
54	0xbd75d149	-0.060014043
55	0xbc9e716b	-0.019341191
56	0xbd94e961	-0.07271076
57	0xbca1bc90	-0.019743234
58	0x3d130c0d	0.035900164
59	0xbc8e9772	-0.0174062
60	0xbc8da8d6	-0.017292421
61	0xbdd02189	-0.10162646
62	0xbce062ef	-0.027390925
63	0xbbc89f73	-0.0061225235
64	0x3c8d938c	0.01728227
65	0xbe08c515	-0.13356431
66	0x3c112d25	0.008860861
67	0xbc8bc0fe	-0.0170598
68	0x3cd9fe2d	0.026610458
69	0xbb0ff2da	-0.002196482
70	0xbd18b603	-0.037282955
71	0x3d2b22d0	0.041781247
72	0x3cd22c40	0.025655866
73	0x3d6a0a96	0.057139
74	0xbcc86ab1	-0.024464937
75	0xbc67c314	-0.014145631
76	0xbcb64c93	-0.02225331
77	0xbd5a8ade	-0.05335509
78	0x3ce82c13	0.028341329
79	0xbcd170ea	-0.025566537
80	0x3a0c2bb9	0.00053470914
81	0x3cec4731	0.02884254
82	0x3bdf8850	0.0068216696
83	0xbb9dc317	-0.0048145163
84	0xbc585f57	-0.013206325
85	0x3d3ab7f6	0.045585595
86	0xbcd6738c	-0.026178144
87	0x3c1ed8f2	0.0096952785
88	0xbc38290f	-0.011240258
89	0xb6f045a6	-7.1606655e-06
90	0xbd02dc99	-0.03194866
91	0xbde78cc6	-0.11306147
92	0x3d23018e	0.039796405
93	0xbd846742	-0.06465007
94	0xbd1e932c	-0.038714573
95	0x3d73a8f2	0.05948729
96	0x3c98026f	0.018555848
97	0xbd96dd74	-0.073664576
98	0x3d8105b1	0.06299914
99	0xbd4ba3a5	-0.04971661
100	0xbe37e2a3	-0.17957549
101	0xbc9756e5	-0.018474052
102	0x3dbbc673	0.091687106
103	0xbc8c52e0	-0.017129362
104	0xbdad0a71	-0.08449257
105	0xbbe3a6b8	-0.0069473647
106	0x3d312191	0.043244902
107	0xbcb51534	-0.022104837
108	0xbcfcf8d2	-0.030880366
109	0xbdef50ea	-0.11685355
110	0x3d842395	0.06452099
111	0x3dd80f2a	0.10549767
112	0x3c5ce80f	0.013483061
113	0x3d6cf523	0.057850968
114	0xbcc3134d	-0.023812914
115	0x3d81e357	0.0634219
116	0xbca0e752	-0.019641552
117	0xbcf46815	-0.029834786
118	0x3c8455a9	0.016154127
119	0xbd9276dc	-0.07151577
120	0xbdfce2cb	-0.12347945
121	0x3de2c306	0.11072354
122	0x3da09470	0.07840812
123	0x3d388e23	0.045057427
124	0xbe891a87	-0.2677805
125	0xbd92a7c4	-0.07160905
126	0x3d0a502e	0.03376787
127	0xbd2dd8b2	-0.042442985
128	0xbd130f2d	-0.035903145
129	0xbcf8a9c5	-0.03035439
130	0x3ce5df68	0.02806063
131	0xbdc06dd9	-0.09395952
132	0xbcf13d76	-0.029448252
133	0xbd1fad91	-0.038983885
134	0x3d788d7f	0.060681816
135	0xbadb3416	-0.0016723897
136	0x3d730beb	0.059337538
137	0x3cad48ba	0.021152843
138	0xba9af4fc	-0.0011822279
139	0xbd4b6542	-0.049657114
140	0xbc60300a	-0.013683328
141	0xbca77d15	-0.020445386
142	0x3d82092e	0.06349407
143	0x3cc6dd13	0.024275338
144	0xbd0f1550	-0.034932435
145	0xbc80f7f8	-0.01574324
146	0xbcc2ef5d	-0.023795778
147	0xbcae6ced	-0.021292174
148	0x3c13dc06	0.009024626
149	0x3c7cf5cc	0.015439462
150	0xbd270d62	-0.040784247
151	0xbd814508	-0.06311995
152	0xbcd6470d	-0.026156927
153	0x3c0dcc56	0.0086546745
154	0xbd0c8b13	-0.03431232
155	0xbd5b15f8	-0.053487748
156	0x3cc1e72b	0.0236698
157	0xbc901532	-0.017588232
158	0x3d843bf9	0.064567514
159	0xbd1886e7	-0.037238028
160	0x3c300047	0.010742254
161	0x3d2cef74	0.042220548
162	0xbd8714ba	-0.0659575
163	0xbd375eef	-0.04476827
164	0x3c9da2ce	0.01924267
165	0xbe2ce782	-0.16885188
166	0xbb944c26	-0.004525679
167	0xbd32fe3b	-0.043699484
168	0xbc41b7fb	-0.0118236495
169	0xbd5ceff5	-0.05393978
170	0x3bb15951	0.0054122587
171	0x3ca134b7	0.019678457
172	0xbc9f3434	-0.019434072
173	0xbd501162	-0.050797828
174	0xbb36771e	-0.0027841995
175	0x3cc6c7fa	0.024265278
176	0x3cb28fc0	0.021797061
177	0xbc22b6f4	-0.009931315
178	0xbcd9db8d	-0.026593948
179	0x3cdf4f93	0.027259624
180	0x3d8a8b99	0.067649074
181	0xbcf88c6d	-0.030340398
182	0xbda03a62	-0.07823636
183	0xbd0819e4	-0.033227816
184	0xbca53741	-0.020167949
185	0xbc4c4423	-0.012467417
186	0x3d623fa5	0.055236477
187	0x3ced9ac4	0.029004462
188	0x3b12370a	0.0022310638
189	0x3c567de9	0.013091543
190	0x3c13a0af	0.009010478
191	0xbdaf04a8	-0.0854581
192	0x3d03c277	0.032167878
193	0xbd98196e	-0.07426725
194	0xbb5bc7e1	-0.0033535885
195	0xbd3265b3	-0.04355402
196	0x3da59e6c	0.08086857
197	0xbd8679f3	-0.06566229
198	0xbb64c897	-0.00349096
199	0xbd4731e3	-0.04863156
200	0xbd8a6a6a	-0.06758578
201	0xbc344125	-0.01100186
202	0xbcb3adfc	-0.021933548
203	0x3d88e41e	0.06684135
204	0xbd0bb9f6	-0.034112893
205	0xbc9e283d	-0.019306296
206	0xbc904e7f	-0.017615555
207	0xbd11a2c2	-0.03555561
208	0xbdf01b61	-0.11723972
209	0x3d3890a5	0.04505982
210	0xbd247dcd	-0.040159035
211	0xbd479ffe	-0.048736565
212	0x3c255ccc	0.010092925
213	0x3cda0ff5	0.026618937
214	0x3d819f27	0.06329184
215	0xbd2dd08d	-0.042435218
216	0xbd430f1d	-0.047621835
217	0xbdb25144	-0.087069064
218	0x3c790927	0.015199936
219	0xbd2da276	-0.042391263
220	0x3c93d4d4	0.01804582
221	0xbd55e4ef	-0.05222028
222	0x3d4edb35	0.05050202
223	0x3d881ce3	0.06646135
224	0xbcb12e87	-0.021628631
225	0xbcaa04e1	-0.02075428
226	0xbd0087c4	-0.031379476
227	0x3bf2617a	0.007396874
228	0xbd39ba62	-0.045343764
229	0xbd439818	-0.04775247
230	0xbc8d5ddd	-0.017256672
231	0xbd90f5ce	-0.070781335
232	0xbce14970	-0.027500838
233	0xbc9aa108	-0.018875614
234	0x3c8593f4	0.016305901
235	0xbdfcba15	-0.1234018
236	0x3b870201	0.004120112
237	0xbca427ba	-0.020038474
238	0xbcb26eac	-0.021781288
239	0xbd92eb11	-0.071737416
240	0xbd35d51d	-0.044392694
241	0xbd60154e	-0.054707818
242	0x3d3c27f0	0.045936525
243	0xbc20ad30	-0.009806916
244	0xbd54fa28	-0.05199638
245	0xbd7c80ce	-0.061646275
246	0xbc8b120a	-0.016976375
247	0x3d355b89	0.044276748
248	0xbcbfa3e9	-0.023393588
249	0xbcca7239	-0.024712669
250	0xbcd0eb1f	-0.02550274
251	0xbcd9bcb7	-0.026579244
252	0x3dbb02ae	0.091313705
253	0x3ba7d575	0.0051218816
254	0x3d8978bf	0.067124836
255	0x3d123c84	0.035702243

rnn.bias_ih_l0 f4 [128]
0	0x3d8e13d4	0.06937376
1	0x3d21234d	0.039340306
2	0xbd9e7620	-0.07737374
3	0xbd0cbf33	-0.03436203
4	0xbc6287d1	-0.0138263265
5	0xbd4315e6	-0.047628306
6	0x3c244969	0.010027268
7	0x3d654c76	0.055981122
8	0x3d3ab169	0.045579348
9	0xbdd3705e	-0.10324167
10	0xbdc5df5a	-0.096617416
11	0x3d10673e	0.03525471
12	0xbc9351e7	-0.01798339
13	0xbdd565a8	-0.1041978
14	0xbdaa16b0	-0.083051085
15	0x3ce3aa3b	0.027791133
16	0xbd87eaf8	-0.066366136
17	0x3d91f283	0.071263336
18	0x3d088d6b	0.03333799
19	0x3b5115d1	0.0031903873
20	0x3ccdf979	0.025143372
21	0xbd9666f1	-0.07343853
22	0x3d36a710	0.044592917
23	0x3c778801	0.015108109
24	0xbe057e4b	-0.13036458
25	0x3d129e8e	0.03579574
26	0xbafa3492	-0.0019089154
27	0x3cd7b12c	0.0263296
28	0xbd37fe36	-0.04492017
29	0xbca140cc	-0.019684218
30	0x381896aa	3.637994e-05
31	0x3d9d9e4a	0.07696207
32	0x3bd08a98	0.006364178
33	0x3d925d58	0.0714671
34	0x3d5dc870	0.05414623
35	0x3db44d29	0.0880378
36	0xbccd4b18	-0.025060222
37	0xbd40bb93	-0.047053885
38	0x3cc620d6	0.02418558
39	0x3d542bec	0.0517997
40	0xbd1632ce	-0.036669545
41	0xbd70c282	-0.058779247
42	0xbda0a5ce	-0.07844125
43	0xbc70d5e6	-0.014699435
44	0xbdd29209	-0.1028176
45	0x3e170d08	0.14751065
46	0xbcd1ef5d	-0.025626833
47	0x3d36d943	0.04464079
48	0x3da2e996	0.07954709
49	0xbe2963cd	-0.16541977
50	0xbd994ccb	-0.0748535
51	0xbc04e6b4	-0.008111645
52	0xbdad891b	-0.084734164
53	0x3d811b06	0.063039824
54	0xbd02a93e	-0.031899683
55	0xbd9e9c2b	-0.077446304
56	0x3d8a9f67	0.06768685
57	0xbdb9a75a	-0.09065123
58	0xbd35a2d9	-0.044344757
59	0xbdd84c60	-0.105614424
60	0x3e20df42	0.15710166
61	0xbe3e3d29	-0.18578018
62	0xbd80aaaa	-0.062825516
63	0x3d2f3ed7	0.042784538
64	0x3d09edc2	0.03367401
65	0xbd2af000	-0.041732788
66	0xbd048f9f	-0.03236353
67	0xbd8f22d5	-0.069890656
68	0xbcbc909a	-0.02301817
69	0xbdb14986	-0.086566016
70	0x3caa03b9	0.020753728
71	0x3d6c1ad8	0.057642788
72	0xbcd9ae69	-0.026572423
73	0x3a952b96	0.0011380787
74	0xbdf87949	-0.12132508
75	0xbb08c7cc	-0.0020871041
76	0xbd8a28b0	-0.06746042
77	0xbda5d227	-0.08096724
78	0x3b5be445	0.0033552807
79	0x3c61d644	0.013783995
80	0x3ca5850c	0.020205043
81	0xbdcd1bc4	-0.100150615
82	0x3ca64921	0.020298542
83	0xbd28e8ff	-0.041237827
84	0xbcac34ef	-0.021021334
85	0xbd3d8b66	-0.04627552
86	0xbbab9d79	-0.005237278
87	0xbc9c2396	-0.019059937
88	0xbd7900ed	-0.0607919
89	0xbdb10e60	-0.0864532
90	0xbd859058	-0.06521672
91	0xba993457	-0.0011688572
92	0xbd04164f	-0.032247838
93	0x3d03975b	0.032126766
94	0xbda9e050	-0.08294737
95	0x3ceffc64	0.029295154
96	0xbd72dd26	-0.059292935
97	0xbc4356e4	-0.011922572
98	0x3be0253c	0.006840376
99	0xbc3c33a4	-0.011486921
100	0x3d6fb5f3	0.05852313
101	0xbd09120d	-0.03346448
102	0xbb7a5ba6	-0.00382016
103	0xbdedbe45	-0.11608557
104	0x3cad0558	0.021120712
105	0x3bdbfca3	0.0067134663
106	0x3e15e38f	0.14637588
107	0x3d66b628	0.05632606
108	0xbda98b82	-0.08278562
109	0x3b938c65	0.0045028203
110	0x3913a97f	0.00014082155
111	0xbdba34cd	-0.09092102
112	0xbda50e92	-0.0805942
113	0x3d0ee4d0	0.03488618
114	0x3d07ccdb	0.03315435
115	0xbd2dcda9	-0.04243246
116	0xbd56d2a3	-0.052446973
117	0x3db39360	0.08768344
118	0xbcaa1fff	-0.02076721
119	0xbddee05d	-0.10882638
120	0xbda332b1	-0.07968653
121	0x3afb6ac6	0.0019181601
122	0x3c2804c5	0.010255043
123	0xbd846943	-0.064653896
124	0x3c3bf7c2	0.011472644
125	0xbd3d806c	-0.04626505
126	0xbd911adf	-0.070852034
127	0xbc045c35	-0.0080786245

rnn.bias_hh_l0 f4 [128]
0	0xbce53a17	-0.027981801
1	0xbdaaf623	-0.08347728
2	0x3cd69e8e	0.026198652
3	0xbcf61191	-0.030037673
4	0xbc96f5eb	-0.01842781
5	0xbc851a83	-0.016247993
6	0xbdcb4d0b	-0.09926804
7	0x3df2f5e3	0.118633054
8	0xbdc060c8	-0.093934596
9	0x3d44cbf1	0.048046056
10	0xba8dd739	-0.0010821588
11	0xbd584a65	-0.052805323
12	0x3da0e673	0.07856455
13	0x3d174fc6	0.036941312
14	0xbd5f0dcc	-0.054456517
15	0xbc260ea6	-0.010135328
16	0xbd45e111	-0.048310343
17	0xbdc47a7d	-0.09593675
18	0xbcf533a4	-0.02993185
19	0xbd1b6fd3	-0.03794844
20	0xbd50cf04	-0.050978675
21	0xbce31356	-0.027719181
22	0xbd29f9fd	-0.041498173
23	0xbc7ae21d	-0.015312699
24	0xbc86322e	-0.01638135
25	0x3df7d0e0	0.121003866
26	0x3bf84953	0.0075771003
27	0xbad1cbd9	-0.0016006186
28	0xbda5274e	-0.080641374
29	0xbcdb6088	-0.026779428
30	0xbd19e267	-0.03756943
31	0xbd0cd1f6	-0.03437992
32	0xbd01d465	-0.031696696
33	0xbdaa36eb	-0.08311256
34	0xbcc9600e	-0.024581935
35	0x3dde4e65	0.10854796
36	0x3b73df70	0.0037212037
37	0x3d86b4de	0.065774664
38	0xbd8c3351	-0.06845725
39	0x3ceb4b58	0.02872245
40	0x3d9dccd2	0.07705082
41	0x3d335745	0.0437844
42	0x3c14aeb5	0.0090748565
43	0x3d7847be	0.060615294
44	0x3ccb85c5	0.02484406
45	0x3d27a169	0.040925417
46	0xba41c70a	-0.0007392025
47	0xbcd0a1dc	-0.025467806
48	0xbdc01976	-0.09379856
49	0xbe4df7ad	-0.20114012
50	0xbc8f5253	-0.01749531
51	0x3bec3abf	0.0072091515
52	0xbd98b6c1	-0.074567325
53	0x3d2ae9f8	0.041727036
54	0x3d672dcf	0.05644017
55	0x3c808df1	0.015692683
56	0x3c8c05a8	0.01709254
57	0x3c1ec6f7	0.009690992
58	0xb93696d5	-0.00017413062
59	0x3bcdc56f	0.0062796394
60	0x3e3488bd	0.17630287
61	0xbe9abed6	-0.3022372
62	0xbbdf5ccf	-0.0068164836
63	0x3cb414ab	0.021982512
64	0xbdc9498f	-0.09828483
65	0x3c50b94c	0.012739491
66	0x3ce890c9	0.028389351
67	0xbc8ffa0d	-0.017575288
68	0xbdd71115	-0.10501305
69	0x3cca9215	0.02472786
70	0x3d387f6a	0.045043387
71	0xbd3da29f	-0.046297666
72	0x3d91fa6f	0.071278445
73	0xbab41224	-0.0013738316
74	0xbcaadac4	-0.020856269
75	0xbd4b1a88	-0.04958585
76	0xbd20fe7e	-0.039305203
77	0xbd789aee	-0.060694627
78	0xbced52a4	-0.02897007
79	0x3d0205bc	0.03174375
80	0x3d3899f5	0.0450687
81	0xbd02ebcd	-0.03196316
82	0xbd8a2912	-0.06746115
83	0x3db1888e	0.08668624
84	0xbd5f6267	-0.054537203
85	0x3d592cea	0.05302135
86	0x3d5ac9ed	0.053415228
87	0xbbe30384	-0.0069279093
88	0xbda49ab8	-0.08037323
89	0x3cdbb27a	0.026818503
90	0xbcb8bf2d	-0.022552097
91	0xbda90648	-0.08253151
92	0xbdb31483	-0.08744147
93	0xba0b57e0	-0.00053155236
94	0x3d58ef0f	0.05296236
95	0xbd56a854	-0.052406624
96	0xbcffedaa	-0.031241257
97	0xbd958230	-0.07300222
98	0x3b18c33b	0.0023309726
99	0xbbbb06df	-0.005707606
100	0xbdc1d40f	-0.09464275
101	0xbdaae4b2	-0.083444014
102	0x3d5def1a	0.054183103
103	0xbcfe6f5f	-0.031058965
104	0xbe0efa53	-0.13962679
105	0xbca222b9	-0.019791948
106	0x3dfffa58	0.12498921
107	0xbdbb680e	-0.09150706
108	0xbbb1b322	-0.0054229656
109	0x3ce9b050	0.028526455
110	0xbd5f6ba3	-0.05454601
111	0xbd8023d4	-0.06256834
112	0xbdbe7b90	-0.093009114
113	0xbd04a372	-0.032382436
114	0xbd16b21b	-0.03679095
115	0xbd06444a	-0.03277997
116	0x3d2cf3c6	0.042224668
117	0xbbd9c419	-0.006645691
118	0xbdaee17d	-0.08539102
119	0xbdbe6da7	-0.09298258
120	0xbdaf2ede	-0.08553861
121	0xbc4a9877	-0.012365452
122	0xbdc07675	-0.09397594
123	0xbd530683	-0.051519882
124	0xbdb09e8b	-0.0862399
125	0x3cb7f643	0.022456294
126	0xbd405606	-0.04695704
127	0xbd886663	-0.06660154

out.weight f4 [1, 128]
0	0x3ec95023	0.39318952
1	0x3c56108e	0.01306547
2	0xbe3318b7	-0.17489897
3	0x3cd0728a	0.025445241
4	0xbddb9d4d	-0.10723362
5	0xbd914b54	-0.07094446
6	0x3d4952c1	0.049151186
7	0x3f29b63c	0.6629369
8	0xbe092cd6	-0.1339601
9	0xbd9f6144	-0.07782224
10	0x3ac14c0a	0.0014747393
11	0x3e0b2a21	0.1359029
12	0xbe1bd549	-0.1521808
13	0xbd454a4d	-0.048166562
14	0x3d5742fb	0.052554112
15	0x3e67b82f	0.22628854
16	0xbd28e74a	-0.0412362
17	0xbdcfee91	-0.10152925
18	0x3cfba0c4	0.030716307
19	0xbe19ff0f	-0.15038703
20	0xbc98e059	-0.018661665
21	0xbd96864c	-0.07349834
22	0x3d2e6782	0.04257918
23	0xbe1a3224	-0.1505819
24	0xbba67010	-0.005079277
25	0x3e2414d7	0.16023575
26	0xbe800d7e	-0.25010294
27	0xbe618562	-0.22023538
28	0x3af523d6	0.0018702697
29	0xbcdc617a	-0.02690195
30	0xbd2f2f88	-0.04276994
31	0xbe3bf48d	-0.18355007
32	0xbdcd1a3d	-0.1001477
33	0x3c5fcd41	0.013659776
34	0x3e589db8	0.21153915
35	0xbed34d8d	-0.41270104
36	0x3dd6e779	0.10493369
37	0xbe114e4e	-0.14190027
38	0x3c1c2138	0.009529404
39	0xbd4970ec	-0.049179956
40	0x3e829a19	0.25508192
41	0xbd4f8d40	-0.050671816
42	0xbd827b47	-0.063711695
43	0xbdcd0e75	-0.10012523
44	0xbd0392e7	-0.03212252
45	0x3e6be173	0.23035221
46	0xbd914220	-0.070926905
47	0x3dea85cb	0.114513
48	0xbe271983	-0.16318326
49	0x3dbba14f	0.091616265
50	0x3d4db3e2	0.050220378
51	0xbe1863f5	-0.1488188
52	0xbd9a2a89	-0.07527644
53	0xbe7dd713	-0.24789076
54	0xbe7d925f	-0.24762867
55	0xbc61cb33	-0.013781357
56	0xbde6d9a3	-0.1127198
57	0xbce9b87b	-0.02853035
58	0x3b461106	0.003022255
59	0xbe204659	-0.15651836
60	0xbe6ba8af	-0.23013566
61	0xbcb122b7	-0.021622999
62	0x3bff19f0	0.0077850744
63	0xbdb6c58f	-0.089244
64	0x3da24cec	0.07924828
65	0xbd40a984	-0.047036663
66	0x3cfcaba3	0.030843562
67	0x3da4014c	0.0800806
68	0x3d7ed51d	0.06221496
69	0xbcb452e2	-0.022012178
70	0xbe6db263	-0.2321258
71	0x3c2e916c	0.010654788
72	0x3e17a3a5	0.14808519
73	0x3d3e2dc7	0.046430375
74	0xbdf257b7	-0.118331365
75	0x3e979dff	0.2961273
76	0xbcc7985a	-0.02436464
77	0x3b9a58f2	0.00471031
78	0xb8be4e49	-9.074488e-05
79	0xbe0e5faf	-0.13903688
80	0xbe2ddecb	-0.1697952
81	0x3d87c912	0.06630148
82	0xbe8143b4	-0.25246966
83	0x3dd41f22	0.103575006
84	0xbd8827fd	-0.06648252
85	0x3d24a2bc	0.040194258
86	0x3d2cae4b	0.042158406
87	0x3d943fef	0.07238757
88	0x3c995c61	0.018720808
89	0x3bf0cad0	0.007348396
90	0x3d2cac9f	0.04215681
91	0xbce8a107	-0.028397096
92	0x3cd10a4a	0.025517602
93	0xbe9f6032	-0.3112808
94	0x3de55cff	0.11199378
95	0xbcca88a1	-0.024723353
96	0x3e1a72ee	0.15082905
97	0xbe03bd30	-0.12865138
98	0x3e58ec6a	0.21183935
99	0xb927e569	-0.00016011823
100	0xbe01fe2b	-0.12694614
101	0x3cec7824	0.028865881
102	0xbe4a75dc	-0.19771522
103	0x3c7d4481	0.015458227
104	0xbca384c3	-0.019960767
105	0xbe8d4524	-0.27591813
106	0x3e33b52a	0.17549577
107	0x3d466322	0.048434384
108	0x3cd77b37	0.02630387
109	0x3d920182	0.07129194
110	0xbcbb339e	-0.022851761
111	0xbcb4b405	-0.022058496
112	0xbc5973da	-0.01327225
113	0xbb5d6c68	-0.003378654
114	0x3d0306ab	0.03198878
115	0x3c8c3f33	0.01711998
116	0xbd4625ef	-0.04837602
117	0xbd9f840c	-0.07788858
118	0x3c9538f8	0.018215641
119	0xbe5e7b90	-0.21726823
120	0x3de49a09	0.111621924
121	0x3e09e3f7	0.13465868
122	0x3d83b3d6	0.06430785
123	0x3dab8739	0.08375401
124	0xbc1456c3	-0.009053889
125	0x3ec7ed86	0.39048404
126	0xbda1b14f	-0.07895147
127	0x3d612272	0.05496449
