rnn_weights/weights_128_random_g0.5_tanh_ready_set_go.pt (torch, 70530 bytes, 5 tensors)

rnn.weight_ih_l0 f4 [128, 2]
0	0x3db3193b	0.08745047
1	0xbe743695	-0.23848946
2	0x3cb189aa	0.021672089
3	0xbbd28f54	-0.0064257775
4	0xbd9d51d8	-0.07681626
5	0xbe1f1752	-0.1553624
6	0xbd15ee1e	-0.03660404
7	0x3b1f9063	0.0024347536
8	0xbddd467c	-0.108044595
9	0xbe1076e5	-0.14107855
10	0xbd77fa16	-0.060541235
11	0x3d31aa50	0.043375313
12	0x3d3861de	0.04501521
13	0xbda1b7d1	-0.07896388
14	0x3cdc4bb5	0.026891569
15	0xbdbb7d97	-0.09154814
16	0x3d65d0c4	0.056107298
17	0x3ef5c51b	0.48001942
18	0xb95c9261	-0.00021035365
19	0x3e90c140	0.28272438
20	0x3d4a1f16	0.049346052
21	0x3e7b21a2	0.24524549
22	0x3c922cc4	0.017843612
23	0xbdd30085	-0.103028335
24	0xbd62daf5	-0.055384595
25	0x3d84a94c	0.06477603
26	0x3d27cfe3	0.04096974
27	0x3df6fca2	0.12059905
28	0xbd363767	-0.04448643
29	0xbe850159	-0.2597759
30	0x3d1d485f	0.038399097
31	0x3e2cceb7	0.1687573
32	0xbcceed2d	-0.025259579
33	0xbe8bce33	-0.27305755
34	0x3da19ccd	0.078912355
35	0x3da48412	0.08033003
36	0xbd697ee4	-0.057005778
37	0x3d76ea63	0.060282122
38	0x3d90dbd3	0.07073178
39	0x3e22f762	0.15914682
40	0xbd82915e	-0.06375383
41	0xbe760134	-0.24023896
42	0x3d7b715f	0.061387416
43	0x3d0e9176	0.03480669
44	0x3c9492a1	0.018136324
45	0xbe12f293	-0.14350347
46	0xbd2532cb	-0.040331643
47	0x3df7c3e6	0.120979115
48	0xbd471744	-0.048606172
49	0x3e3f258b	0.18666665
50	0x3db9d300	0.09073448
51	0x3d5e5987	0.0542846
52	0x3db3a770	0.087721705
53	0x3e3654e1	0.17805816
54	0x3cc21f16	0.023696464
55	0x3d5be67c	0.053686604
56	0x3cb98361	0.022645654
57	0xbd42b9c0	-0.047540426
58	0x3dc1c95c	0.094622344
59	0x3d5e6435	0.054294784
60	0x3b8475e2	0.004042373
61	0xbe29b197	-0.16571651
62	0xbcb461e2	-0.02201933
63	0x3e6f0cdf	0.23344754
64	0x3c8369f9	0.016041743
65	0x3d3bf2ec	0.045885965
66	0xbda767ef	-0.08174121
67	0xbdaf6e82	-0.085659996
68	0x3c2d66ca	0.010583589
69	0xbdb328c8	-0.08748013
70	0xbd8eee04	-0.06978992
71	0xbddd4039	-0.10803265
72	0xbb821317	-0.003969561
73	0xbcd87568	-0.026423171
74	0xbd1a5ed1	-0.03768808
75	0xbead1bd2	-0.33810288
76	0x3cf774d4	0.030207075
77	0x3d65fb35	0.056147773
78	0x3c74a9c3	0.0149330525
79	0xbd737761	-0.05944002
80	0xbb2935bc	-0.0025819382
81	0x3db365a4	0.08759621
82	0xbcaef8ec	-0.02135893
83	0x3ded6cb9	0.11593003
84	0xbdb9f754	-0.09080377
85	0xbd7bdb59	-0.061488483
86	0x3d80b46c	0.06284413
87	0x3e571153	0.21002702
88	0xbace259e	-0.0015727764
89	0xbd085ea9	-0.0332934
90	0xbd1d6079	-0.03842208
91	0xbb3622b2	-0.0027791676
92	0xbd9d2285	-0.076726
93	0x3c708f61	0.014682622
94	0xbda7869e	-0.08179973
95	0x3dbfa5de	0.093578085
96	0xbd4f09ae	-0.05054634
97	0x3dcb5d4f	0.099299066
98	0x3bd5c64c	0.006523883
99	0x3c9eec27	0.019399716
100	0x3cb505b8	0.022097453
101	0x3d73b72a	0.05950085
102	0x3d6dcef3	0.05805869
103	0x3da720fa	0.08160587
104	0xbddb52e2	-0.10709168
105	0xbd6b4a19	-0.057443712
106	0x3d92bfd8	0.071654975
107	0xbe01d4a3	-0.1267877
108	0xbd91078a	-0.07081516
109	0x3d44ef5a	0.048079826
110	0xbd563e32	-0.052305408
111	0xbeab2856	-0.3342921
112	0x393b4c11	0.00017862047
113	0xbeb12aa7	-0.34602854
114	0x3d71cad9	0.05903134
115	0xbe643806	-0.22286996
116	0x3d4067a1	0.04697383
117	0xbeb1fcfb	-0.3476332
118	0x3d0112a3	0.031511914
119	0x3d3bfedd	0.045897353
120	0x3d37db65	0.044886965
121	0x3df8be19	0.12145633
122	0x3d79c6cd	0.060980607
123	0xbd3c611f	-0.04599106
124	0xbdaf0d0e	-0.08547412
125	0xbdfd17c1	-0.12358046
126	0x3d0c6037	0.034271445
127	0x3d97b518	0.07407588
128	0x3bd9855b	0.0066382117
129	0xbe0a695a	-0.13516751
130	0x3d604fe6	0.054763697
131	0x3e990395	0.29885545
132	0x3dd654c7	0.10465389
133	0x3ea8d818	0.32977366
134	0xbd83d5a8	-0.06437236
135	0xbcf8a67e	-0.030352827
136	0x3cca560c	0.024699233
137	0xbe29c175	-0.16577704
138	0x3d4060a2	0.046967156
139	0xbd3ccef9	-0.046095822
140	0xbc8d8923	-0.017277306
141	0x3dab68c3	0.08369591
142	0xbe3facf7	-0.18718325
143	0xbe01107a	-0.12603942
144	0x3cde3a0b	0.027127286
145	0x3e391898	0.18075788
146	0x39a3e804	0.00031262648
147	0xbb8508c3	-0.0040598824
148	0xbce80e00	-0.028326988
149	0xbdb80a03	-0.089862846
150	0xbd2bb801	-0.041923527
151	0x3c8da6a9	0.017291384
152	0x3ab9f0b1	0.0014186112
153	0x3da6e5ea	0.081493214
154	0x3dc03cfc	0.09386632
155	0x3d4d1559	0.050069187
156	0x3c8c9318	0.017159984
157	0xbd9fe739	-0.07807774
158	0xbc93b3e5	-0.018030116
159	0xbe17b63a	-0.14815608
160	0xbc858020	-0.016296446
161	0x3dc4196f	0.095751636
162	0xbdde6af8	-0.108602464
163	0xbda47455	-0.08030001
164	0xbcd9c12c	-0.02658137
165	0xbd1b8ec5	-0.037977953
166	0x3da15f64	0.078795224
167	0xbd5af1fa	-0.053453423
168	0xbd649efa	-0.055815674
169	0x3e6d4db6	0.23174176
170	0x3c9044ba	0.017610896
171	0xbba2d5b9	-0.0049693254
172	0xbd333f89	-0.043761764
173	0xbe870d9b	-0.26377568
174	0xbcff60c6	-0.031174075
175	0xbe721a31	-0.23642804
176	0x3d23000c	0.039794967
177	0xbd547e03	-0.051877987
178	0x3c18f66a	0.009336093
179	0x3e50dd56	0.20396933
180	0x3d634e9a	0.055494882
181	0x3e46d529	0.19417252
182	0x3cd98467	0.026552392
183	0xbd43bdd8	-0.04778847
184	0xbc2553df	-0.010090797
185	0xbde5f2d8	-0.112279594
186	0xbcb3873b	-0.021915069
187	0x3dc9bd6b	0.09850582
188	0x3c1e7531	0.009671495
189	0x3e2026de	0.15639827
190	0xbda8a319	-0.082342334
191	0x3d666b81	0.056254867
192	0x3c1fd61d	0.009755638
193	0xbda9b948	-0.08287293
194	0xbd266a3b	-0.040628653
195	0x3e121040	0.14264011
196	0xbd03aa65	-0.032144923
197	0xbd92d31d	-0.07169173
198	0xbd4fc2ea	-0.050722994
199	0x3c89540e	0.016763713
200	0x3ca9541c	0.02066999
201	0x3e0a94b4	0.13533288
202	0xbc27c0d5	-0.010238846
203	0xbda26c2b	-0.07930788
204	0xbbcb551b	-0.0062052137
205	0xbe96c0f4	-0.29444087
206	0x3cfb8abe	0.030705806
207	0x3c337b20	0.010954648
208	0xbd17b8b1	-0.03704137
209	0xbef2cf14	-0.47423613
210	0x3cffd468	0.031229213
211	0x3db614d4	0.088906914
212	0xbd2fb953	-0.04290135
213	0xbe937455	-0.28799692
214	0xbd127204	-0.035753265
215	0xbd9d236f	-0.07672774
216	0x3d162caa	0.03666369
217	0xbdc6f41c	-0.09714529
218	0x3d247d74	0.040158704
219	0x3eac392b	0.33637366
220	0xbcf5a2f8	-0.029984936
221	0xbde722a4	-0.11285904
222	0x3d622456	0.055210434
223	0x3d6142d5	0.054995377
224	0xbc7d6236	-0.01546531
225	0xbd01e5dc	-0.03171335
226	0xbd533f41	-0.051573996
227	0xbe0cfb24	-0.13767678
228	0x3aa1eb78	0.00123535
229	0xbd84d536	-0.06485979
230	0x3d0b30bc	0.033982024
231	0xbd02d30e	-0.03193956
232	0x3d22033c	0.039553866
233	0x3e569373	0.20954685
234	0x3c77584c	0.015096735
235	0xbd9a4122	-0.07531954
236	0xbd751147	-0.05983093
237	0x3d676628	0.05649391
238	0x3ca028b5	0.01955066
239	0x3dac1f11	0.08404363
240	0xbdbe5925	-0.09294347
241	0xbe6af428	-0.229447
242	0x3c66b2a9	0.014080682
243	0x3e944470	0.28958464
244	0x3d8a0f34	0.06741181
245	0xbda3b485	-0.07993416
246	0x3d6fc376	0.058536015
247	0x3cb78148	0.022400513
248	0xbd912d7c	-0.070887536
249	0x3cf70e32	0.030158136
250	0xbcc41aac	-0.0239385
251	0x3c55bcf4	0.013045538
252	0x3d8acdad	0.06777511
253	0xbd075e1d	-0.033048738
254	0xbc07d7e5	-0.008291219
255	0xbd2c6e75	-0.042097528

rnn.weight_hh_l0 f4 [128, 128]
0	0x3dbad5f3	0.09122839
1	0xbccb8ac5	-0.024846444
2	0x3d20b238	0.039232463
3	0x3db4efcd	0.08834801
4	0xbd75d587	-0.06001809
5	0x3c86e891	0.016468318
6	0xbc3681fd	-0.01113939
7	0x3cf9e409	0.030504243
8	0xbd281ad4	-0.04104121
9	0xbcd23910	-0.025661975
10	0xbbabbc06	-0.00524092
11	0x3e0d3399	0.13789214
12	0xbd8e1bf1	-0.06938923
13	0xbcddf940	-0.02709639
14	0x3bb2e27a	0.005459127
15	0xbddeea49	-0.1088453
16	0xbcd5c643	-0.026095515
17	0xba66af2b	-0.0008799906
18	0xbd907905	-0.07054333
19	0xbd09383e	-0.033500902
20	0xbc09412b	-0.008377354
21	0x3d215607	0.039388683
22	0x3e236405	0.15956123
23	0xbd3d68fa	-0.04624269
24	0xbd149b80	-0.03628111
25	0xbd9c5f15	-0.07635323
26	0x3deab161	0.114596136
27	0xbcd89783	-0.026439434
28	0xbdc9e648	-0.09858376
29	0x3d094b42	0.033519037
30	0x3e3206aa	0.17385355
31	0xbcef050d	-0.029177213
32	0x3cf0bb02	0.029386047
33	0x3c048704	0.008088831
34	0x3d207c4e	0.039181046
35	0x3d5bf0bb	0.053696375
36	0x3c2880c9	0.010284611
37	0x3da3595d	0.07976029
38	0xbcd1babd	-0.025601739
39	0x3db52ad1	0.08846057
40	0x3c17308f	0.009227886
41	0xbc54d81e	-0.0129909795
42	0xbb9110cd	-0.0044270516
43	0xbd2a6b59	-0.04160628
44	0x3c6c2f32	0.014415549
45	0xbcf5d06c	-0.03000661
46	0xbcb94cf5	-0.022619704
47	0xbdd4fae0	-0.10399413
48	0x3cab968d	0.020945812
49	0xbd1e4026	-0.038635395
50	0x3d23a6c6	0.03995397
51	0x3d3207a8	0.043464333
52	0x3c32c45d	0.0109110745
53	0x3d84e12d	0.06488261
54	0x3c645b4b	0.013937782
55	0x3cfd37e9	0.03091045
56	0x3d9836c6	0.07432322
57	0x3d3cac59	0.0460628
58	0x3cbf6663	0.023364251
59	0x3d068452	0.032841034
60	0xbc937c27	-0.018003536
61	0x3c39ca8d	0.011339796
62	0x3db48fce	0.08816491
63	0xbdaeb1ef	-0.08530032
64	0x3dd076a0	0.10178876
65	0x3bfe93d5	0.007769088
66	0xbd8258d0	-0.06364596
67	0x3ca3f6a2	0.020015065
68	0x3ca32213	0.019913709
69	0x3d2ad762	0.04170931
70	0xbd5bca42	-0.053659685
71	0xbb9ecf25	-0.004846471
72	0xbdab279e	-0.08357166
73	0x3d1215c1	0.035665277
74	0x3d37a893	0.0448385
75	0x3c14b863	0.009077164
76	0xbdd5b75b	-0.10435363
77	0xbd64a895	-0.055824835
78	0xbc2958c0	-0.010336101
79	0x3cca9255	0.02472798
80	0xbcc3be41	-0.023894431
81	0xbd1d53c1	-0.038409952
82	0xbd6b19de	-0.057397716
83	0xbc0285fd	-0.007966516
84	0xbd7a5083	-0.06111194
85	0x3d2ad37c	0.041705593
86	0x3d553ff5	0.052062947
87	0x3dccb473	0.099953555
88	0xbd3afae9	-0.045649443
89	0x3d56d76a	0.05245153
90	0xbd6c6fe9	-0.057723913
91	0xbd4fd1b2	-0.05073709
92	0x3d6fbed8	0.058531612
93	0x3c81ee78	0.015860781
94	0xbda483ea	-0.08032973
95	0xbc8d8ed9	-0.01728003
96	0xbdaaa88f	-0.08332931
97	0xbd558911	-0.05213267
98	0xbd04cad4	-0.032419994
99	0xbd4251e4	-0.04744138
100	0x3c140f82	0.0090369005
101	0x3cde5e2d	0.027144516
102	0x3dfcf8e7	0.12352162
103	0x3d346f63	0.04405154
104	0x3ddcb97b	0.10777565
105	0xbd013629	-0.03154579
106	0x3bf4de9f	0.0074728276
107	0x3dab2707	0.08357053
108	0xbbb10928	-0.005402703
109	0xbdd1c9b2	-0.102435485
110	0x3d8fa307	0.07013517
111	0xbd9f61f5	-0.07782356
112	0xbd63e314	-0.05563648
113	0x3d7f05df	0.06226146
114	0x3d63d474	0.055622533
115	0xbcf924e9	-0.030413108
116	0xbc139019	-0.0090065235
117	0x3d39e540	0.045384645
118	0xbd3f6c6e	-0.046734266
119	0xbd0d6e70	-0.03452915
120	0xb9ce9d9a	-0.00039408804
121	0x3c39611b	0.011314656
122	0xbd297457	-0.041370716
123	0xbd227b80	-0.03966856
124	0xbc9d7b39	-0.019223796
125	0xbc31bdaa	-0.010848442
126	0xbc7c3b25	-0.0153949605
127	0xbc73d038	-0.014881186
128	0xbc88baae	-0.016690578
129	0x3c837f49	0.016051905
130	0x3ceb824a	0.02874865
131	0xbce1f18d	-0.027581
132	0xba9f5ddc	-0.001215871
133	0x3d74a896	0.05973109
134	0x3d3befc3	0.04588295
135	0x3e006bdf	0.1254115
136	0x3ca529ad	0.020161474
137	0xbcc6ec64	-0.024282642
138	0xbd28ab31	-0.041178886
139	0x3d2117da	0.039329387
140	0xbdf20d49	-0.1181894
141	0x3d828b12	0.06374182
142	0xbcf92867	-0.030414773
143	0xb92c6321	-0.00016440127
144	0xbda14c09	-0.07875831
145	0x3d307f60	0.043090224
146	0xbc1bf94b	-0.009519885
147	0xbceaccc4	-0.028662093
148	0x3cad4b61	0.021154108
149	0x3cf05dc8	0.029341593
150	0xbd9c2db7	-0.07625907
151	0xbccd70f2	-0.02507827
152	0xbcedccc0	-0.029028296
153	0x3da868aa	0.08223088
154	0xbd113716	-0.035452925
155	0x3c8117aa	0.015758354
156	0xbca68824	-0.020328589
157	0x3e00a5b1	0.12563206
158	0x3d1157bb	0.035484057
159	0xbd3aaf09	-0.045577083
160	0xbd2559fe	-0.040369026
161	0xbc233d30	-0.009963319
162	0x3c313874	0.010816682
163	0xbcb16d87	-0.021658672
164	0xbdb642dd	-0.08899472
165	0x3cf7bd9c	0.03024178
166	0x3d3d8ede	0.046278827
167	0xbd02bbfa	-0.03191755
168	0x3ca2b093	0.019859588
169	0x3d878ee0	0.06619048
170	0x3ca78ada	0.020451952
171	0x3bedb25d	0.0072539286
172	0xbca628b7	-0.020283086
173	0xba7d2715	-0.0009657008
174	0x3c0dc6dc	0.008653369
175	0x3d2cdc30	0.042202175
176	0x3cbc14d3	0.022959149
177	0x3d0d024b	0.034426015
178	0xbd97728b	-0.07394894
179	0x3c0a0b1a	0.008425498
180	0xbc93562e	-0.01798543
181	0xbd0d5bfe	-0.03451156
182	0x3d08ce93	0.03340013
183	0xbcbd62e1	-0.023118438
184	0x3b86b72c	0.0041111913
185	0xbd767772	-0.060172506
186	0x3da61966	0.08110313
187	0x3df3bd5f	0.11901354
188	0x3d9e1df1	0.077205546
189	0xbd4fb29d	-0.05070745
190	0x3d43f069	0.047836695
191	0xbd80092e	-0.06251751
192	0xbdd06203	-0.10174944
193	0xbba812fd	-0.0051292167
194	0xbd3acbf6	-0.04560467
195	0xbc12122e	-0.008915467
196	0xbcdd3f7b	-0.027007809
197	0xbccbdbb5	-0.024885038
198	0xbda5c136	-0.08093493
199	0x3ce881e8	0.028382257
200	0x3d9af341	0.07565928
201	0xbd96b23d	-0.07358215
202	0x3ca05d92	0.019575868
203	0xbce553c1	-0.027994039
204	0x3e01baa1	0.1266885
205	0xbd5e3ebd	-0.05425905
206	0xbc9bb8de	-0.01900905
207	0x3ce38995	0.027775565
208	0xbd431cca	-0.047634877
209	0xbd134ea7	-0.03596368
210	0x3e065d6e	0.13121578
211	0x3c88155b	0.016611746
212	0x3ce7ca05	0.028294573
213	0xbd26a4a2	-0.04068435
214	0xbcc4e606	-0.024035465
215	0x3d862999	0.06550903
216	0xbcc5d2d1	-0.024148377
217	0xbd9716cc	-0.07377395
218	0x3d348fac	0.04408233
219	0x3ca55401	0.020181658
220	0x3c8d47b5	0.017246107
221	0x3cbc2a6b	0.022969445
222	0xbd889b91	-0.06670297
223	0x3d06741d	0.032825578
224	0x3c99a5b5	0.018755773
225	0x3de59fd3	0.11212125
226	0x3dbcde9e	0.09222148
227	0x3d65cc1a	0.05610285
228	0x3c922955	0.017841974
229	0x3c5dadba	0.013530189
230	0x3cbd7d9b	0.023131182
231	0x3de4680a	0.111526564
232	0x3c958dab	0.01825603
233	0xbcae99d2	-0.021313582
234	0xbd17c1c2	-0.037050016
235	0xbd480862	-0.04883612
236	0xbcea4744	-0.028598435
237	0xbcd98e53	-0.026557123
238	0xbbe196d5	-0.0068844357
239	0x3d32362d	0.043508697
240	0xbcdd76e9	-0.02703424
241	0xbc92083b	-0.01782619
242	0xbca24f7b	-0.01981329
243	0xbc0f7a48	-0.008757181
244	0xbcb3b535	-0.021936992
245	0xbdb4aa0a	-0.08821495
246	0xbc1f1a9d	-0.009710935
247	0xbd965e1d	-0.073421694
248	0x3cdf991a	0.027294684
249	0xbc9a8b55	-0.018865267
250	0x3d53dbde	0.051723354
251	0xbd9cf3e2	-0.076637045
252	0x3ccdd931	0.025127979
253	0x3d9f6ab6	0.07784025
254	0xbd78cab7	-0.0607402
255	0xbd00698c	-0.031350657

rnn.bias_ih_l0 f4 [128]
0	0x3c82f6dd	0.015986854
1	0x3a9232d4	0.0011154064
2	0xbd70d10b	-0.05879311
3	0xbcafad1b	-0.021444848
4	0xbd703161	-0.05864084
5	0xbcd2f2e7	-0.02575059
6	0xbd0d3e33	-0.034483146
7	0xbd6640b1	-0.05621404
8	0x3d2f362e	0.04277628
9	0xbd20885a	-0.039192535
10	0xbd470dd7	-0.048597183
11	0xbb5473ad	-0.003241758
12	0x3cbf41a1	0.023346724
13	0xbd0a2049	-0.033722196
14	0x3c9c26fe	0.019061562
15	0xbd8a0220	-0.067386866
16	0xbd9b10c8	-0.0757156
17	0x3c01ece4	0.007930014
18	0xbbddbadb	-0.0067666597
19	0xbd0a9695	-0.033835012
20	0x3d9ff16f	0.07809722
21	0xbd04f6ae	-0.032461815
22	0xbd5404ef	-0.051762518
23	0xbd18992a	-0.037255444
24	0xbbbc2335	-0.0057415017
25	0x3db0887d	0.08619783
26	0xbca3a1c5	-0.019974599
27	0xbd617b0f	-0.055049
28	0x3c32e361	0.010918469
29	0xbcfe8669	-0.031069951
30	0xbbbad6f4	-0.005701894
31	0x3d492932	0.049111553
32	0x3d7bde85	0.061491508
33	0xbcb98a33	-0.022648906
34	0x3d04a15a	0.03238044
35	0x3c803ff5	0.015655497
36	0x382e8b74	4.161471e-05
37	0xbc2f736b	-0.01070867
38	0xbd265779	-0.040610764
39	0x3d63a1de	0.05557429
40	0x3d12a884	0.03580524
41	0xbc2c1e72	-0.010505306
42	0xbd56b31a	-0.0524169
43	0x3c47fd27	0.012206352
44	0xbd5dd842	-0.054161318
45	0x3bb315ab	0.0054652295
46	0xbcdccae0	-0.026952207
47	0xbd0cb050	-0.034347832
48	0xbcd20ef8	-0.025641903
49	0xbd4395d8	-0.047750324
50	0x3d881497	0.06644552
51	0xbd87b9b7	-0.06627219
52	0xbb077110	-0.0020666756
53	0xbc806890	-0.01567486
54	0x3bd7d7e6	0.0065870164
55	0x3d87c7d0	0.06629908
56	0x3c32cb10	0.010912672
57	0xbd1a8918	-0.0377284
58	0xbd49fa41	-0.049310926
59	0x3d6d20fc	0.057892784
60	0xbd9eb58b	-0.0774947
61	0xbc913f01	-0.017730238
62	0x3d5b901e	0.053604238
63	0xbbcbab8e	-0.0062155193
64	0x3cd83b74	0.026395537
65	0xbc0f999c	-0.008764651
66	0x3d0c00a1	0.034180287
67	0xbd29d9a5	-0.041467328
68	0xbc68221a	-0.014168287
69	0x3c90257c	0.017595999
70	0xbce29076	-0.027656775
71	0x3da2f7bc	0.07957408
72	0xbd831359	-0.06400175
73	0xbc9b2fc1	-0.01894367
74	0xbc8c006a	-0.017090041
75	0xbd087c65	-0.033321757
76	0xbd6a5c4e	-0.057216935
77	0xbd0fc8aa	-0.035103478
78	0xbb988245	-0.004654201
79	0x3d5ac1f0	0.05340761
80	0x3d07612f	0.033051666
81	0x3d3217f1	0.043479864
82	0x3ca3bdb2	0.019987915
83	0xbd23482f	-0.03986376
84	0xbcb11f89	-0.021621482
85	0xbd17c9d5	-0.037057716
86	0x3c91d8af	0.017803518
87	0xbcab5f10	-0.020919353
88	0xbc483aef	-0.012221082
89	0xbd97fba3	-0.07421043
90	0xbd7a38bf	-0.061089274
91	0xbd76053d	-0.06006359
92	0xbbd314fd	-0.006441711
93	0xbd178840	-0.036995173
94	0x3d08a0d8	0.033356518
95	0x3d997101	0.07492257
96	0xbcb73783	-0.022365337
97	0xbba5e97c	-0.005063234
98	0x3d87091f	0.065935366
99	0x3d728699	0.059210394
100	0xbd49751d	-0.049183954
101	0xbd7995d7	-0.060933914
102	0xbd94acf0	-0.07259548
103	0x3d213f6c	0.039367124
104	0xbc2d4e03	-0.0105776815
105	0x3cd41f8c	0.025893949
106	0xbcd82f81	-0.02638984
107	0xbcd31f84	-0.025771864
108	0x3d10983c	0.035301432
109	0xbd86cf39	-0.06582493
110	0x3d043d83	0.032285225
111	0x3b9dd641	0.004816801
112	0x3ce08cea	0.027410943
113	0x3d13ab9c	0.03605233
114	0x3cdfb2c6	0.027306926
115	0x3ca1403c	0.01968395
116	0x3bdd6642	0.006756575
117	0x3cfb35fb	0.030665388
118	0x3c917eb1	0.017760606
119	0x3d095b2d	0.033534218
120	0x3d8712e3	0.06595399
121	0xbd647657	-0.05577692
122	0x3d70253e	0.058629267
123	0x3caaf442	0.020868424
124	0x3d7efb67	0.062251475
125	0xbd6871a1	-0.05674899
126	0xbd7a7b77	-0.0611529
127	0xbbd482cb	-0.0064853183

rnn.bias_hh_l0 f4 [128]
0	0xbd3578d8	-0.0443047
1	0x3af7d4b7	0.0018907998
2	0x3d92c84b	0.07167109
3	0x3d39e672	0.045385785
4	0xbd0fcec7	-0.035109308
5	0xbd7403e9	-0.05957404
6	0x3d60c617	0.054876413
7	0x3da38f0e	0.0798627
8	0xbcbfcf3a	-0.023414243
9	0xbccdd3ce	-0.02512541
10	0xbd11383c	-0.03545402
11	0x3cdc6f61	0.026908578
12	0x3c7e71c1	0.015530051
13	0xbc2319e3	-0.009954902
14	0xbd399980	-0.045312405
15	0x3d7b3e8d	0.06133895
16	0xbd3eddc9	-0.04659823
17	0xbb0f70d0	-0.002188731
18	0xbb1f46ef	-0.0024303754
19	0x3b2edebf	0.002668306
20	0x3a8c93fe	0.0010725257
21	0x3d477c65	0.048702616
22	0x3d1c4be6	0.03815832
23	0x3d9b3c60	0.07579875
24	0xbd678c68	-0.056530386
25	0xbdaaa99b	-0.08333131
26	0x3d794703	0.060858738
27	0xbce11e24	-0.027480192
28	0x3c03c578	0.008042686
29	0xbc2efbaa	-0.010680119
30	0x3c38de08	0.011283405
31	0x3cee8516	0.029116195
32	0xbd93030d	-0.07178316
33	0xbd0d21b6	-0.034455977
34	0x3d47c071	0.04876751
35	0x3c59421e	0.0132603925
36	0xbd318deb	-0.043348234
37	0xbd38b3dc	-0.045093402
38	0xbca4cadb	-0.02011626
39	0x3d4cd84a	0.050010957
40	0xbcfa9af2	-0.030591462
41	0x3c04ab76	0.00809752
42	0xbb37416d	-0.002796258
43	0x3d36fc0e	0.04467397
44	0x3d6a23bc	0.057162985
45	0xbb14091d	-0.002258844
46	0x3ca59a8d	0.020215297
47	0xbc818a74	-0.01581309
48	0xbca7bb97	-0.020475192
49	0xbd823c44	-0.06359151
50	0xbd4090ef	-0.04701322
51	0xbb05cafc	-0.0020415178
52	0x3b1c1191	0.0023814181
53	0x3d8e505b	0.0694892
54	0x3d049b60	0.03237474
55	0xbd85917a	-0.06521888
56	0xbcb028aa	-0.021503765
57	0x3c450958	0.0120261535
58	0xbd41f5e2	-0.047353633
59	0xbc014099	-0.007888936
60	0x3d3b1a24	0.045679227
61	0xbb8a70c8	-0.0042248704
62	0xbd656d6f	-0.056012567
63	0x3d52d405	0.05147173
64	0xbd14ed07	-0.03635886
65	0x3da23054	0.07919374
66	0x3c92e617	0.017931981
67	0xbccd1953	-0.02503649
68	0xbcefd3ed	-0.029275859
69	0xbcf2bd2e	-0.029631224
70	0x3cc16158	0.023605987
71	0xbd1d0937	-0.038338866
72	0x3d4430f7	0.04789826
73	0x3d8e4ee1	0.06948639
74	0x3d48fbb5	0.04906817
75	0x3d849d84	0.06475356
76	0xbba5edb6	-0.0050637377
77	0x3c24bea0	0.010055214
78	0xbc756f59	-0.014980161
79	0xbc59f061	-0.01330194
80	0x3d034e1d	0.032056917
81	0x3cf0f2d7	0.02941267
82	0xbd66b770	-0.056327283
83	0xbc74e11c	-0.014946248
84	0xbd5aaf28	-0.0533897
85	0xbccf21ab	-0.025284609
86	0x3cc763e7	0.02433963
87	0x3d91e07d	0.07122896
88	0xbd0ca210	-0.034334242
89	0x3d7f463e	0.062322848
90	0xbc754423	-0.014969858
91	0xbd616d51	-0.055035893
92	0x3b23d64d	0.002499956
93	0xbd3276d5	-0.04357036
94	0x3d837f68	0.06420785
95	0xbdadffe8	-0.08496076
96	0xbc49a58b	-0.012307535
97	0xbc692074	-0.014228929
98	0xbd3130d8	-0.04325947
99	0x3c99d6bd	0.018779153
100	0x3d87f268	0.06638032
101	0xbbc92d7a	-0.0061394544
102	0x3da6a49b	0.08136865
103	0xbd737fa6	-0.059447907
104	0x3d46e33c	0.04855655
105	0xbd7672e1	-0.06016815
106	0xbd7248b5	-0.05915137
107	0x3d716aea	0.05893985
108	0x3d64adae	0.055829696
109	0x3d2aafb7	0.04167148
110	0xbd698dbf	-0.057019945
111	0x3ca39e54	0.019972958
112	0xbd7e3832	-0.06206531
113	0xbd8b94ad	-0.06815467
114	0xbc82f393	-0.015985286
115	0xbd34a594	-0.04410322
116	0x3d97271c	0.073805064
117	0x3d1f50c8	0.0388954
118	0xbd55ba28	-0.052179486
119	0x3d4f7558	0.050649017
120	0xbd51cf6a	-0.051223196
121	0x3cae24ba	0.021257747
122	0xbd2fee84	-0.042952076
123	0x3d1a0eb9	0.037611697
124	0xbd9c6362	-0.07636143
125	0x3d5ac0cc	0.05340652
126	0xbc2aedbc	-0.010432657
127	0xbd6001a6	-0.054689072

out.weight f4 [1, 128]
0	0xbbbfac41	-0.0058493917
1	0xbc8484d2	-0.016176615
2	0x3d032658	0.03201899
3	0xbd986b71	-0.07442368
4	0xbe0f29a3	-0.13980727
5	0xbd72dede	-0.059294574
6	0x3d60d5f3	0.054891538
7	0xbda3442c	-0.07971987
8	0x3defe059	0.11712713
9	0xbdf14a3a	-0.11781736
10	0x3c3ec294	0.011643071
11	0x3b9050bb	0.004404155
12	0x3d8568d7	0.06514137
13	0x3d22487f	0.03961992
14	0xbc81ef67	-0.015861226
15	0x3d5f0268	0.054445654
16	0x3e98f338	0.2987306
17	0xbd53b80f	-0.051689204
18	0xbd56b97e	-0.052422993
19	0xbcc17447	-0.023615016
20	0x3d7f2a02	0.06229592
21	0xbdbcaf34	-0.09213105
22	0x3da4125a	0.08011313
23	0x3d3f1481	0.046650413
24	0xbc2ee8a6	-0.010675585
25	0xbb995a64	-0.004679965
26	0x3ddf8fe5	0.109161176
27	0x3cc768d6	0.024341982
28	0x3d9468da	0.07246561
29	0xbdd5279a	-0.10407944
30	0xbdcfd434	-0.101478964
31	0x3c606175	0.013695111
32	0xbd2df851	-0.04247314
33	0xbc58570b	-0.013204346
34	0xbc4a49a0	-0.012346655
35	0x3d6c6f15	0.057723124
36	0x3da6f62a	0.08152421
37	0xbd8d25e6	-0.06891994
38	0x3ca949d3	0.020665085
39	0x3cf8703d	0.030326957
40	0xbd653ea5	-0.055967946
41	0x3de3c030	0.11120641
42	0x3c41fbc5	0.011839812
43	0xbdcdde27	-0.10052138
44	0x3d5b453c	0.053532824
45	0xbda4a58e	-0.080393896
46	0xbcaa0d0a	-0.02075817
47	0x3da5540e	0.08072673
48	0x3c86a5a8	0.016436413
49	0xbdc35619	-0.09537906
50	0xba943323	-0.0011306744
51	0x3e2356e4	0.15951115
52	0x3cfc764e	0.03081813
53	0x3d183606	0.037160896
54	0x3d924af1	0.071432
55	0x3ca99b31	0.020703884
56	0x3bb70d2a	0.005586286
57	0xbcf93c99	-0.030424403
58	0x3e0a2c07	0.13493358
59	0x3b8aa178	0.0042306744
60	0x3d76fff2	0.060302682
61	0xbd076f4a	-0.033065118
62	0x3d08ffb6	0.03344699
63	0x3d269086	0.040665172
64	0x3c96e861	0.018421354
65	0x3d80d72c	0.06291041
66	0xbd180b0c	-0.03711991
67	0xbde91aab	-0.1138204
68	0xbd59d6cf	-0.053183373
69	0xbd61c304	-0.055117622
70	0xbe15efc5	-0.14642246
71	0x3d4edd2b	0.05050389
72	0x3c878463	0.01654262
73	0x3da7ba42	0.08189823
74	0x3d8b92f9	0.06815142
75	0x3c8e4c00	0.017370224
76	0xbce26852	-0.027637634
77	0xbc6a8484	-0.014313821
78	0xbb9c24b1	-0.004765116
79	0xbd1a3966	-0.037652396
80	0x3855c142	5.0963143e-05
81	0xbb88cad5	-0.00417457
82	0x3d872edd	0.06600735
83	0x3e09b0d5	0.13446362
84	0x3d7424cd	0.05960541
85	0xbdda5a2a	-0.10661729
86	0xbdb76abc	-0.08955905
87	0x3dab73c7	0.08371692
88	0x3ced4494	0.028963365
89	0x3c98e100	0.018661976
90	0xbe2ac516	-0.16676745
91	0xbda294cf	-0.07938539
92	0x3d93d9f3	0.07219305
93	0x3e0c3fcd	0.13696213
94	0xbdd077fc	-0.10179135
95	0xbcfb1271	-0.030648442
96	0x3e249a75	0.16074546
97	0x3c6a4dfa	0.014300818
98	0x3cc2408a	0.023712415
99	0x3c6def75	0.014522423
100	0xb9f2bf08	-0.00046300166
101	0xbd8ae3cc	-0.0678173
102	0xbc47c7f4	-0.012193669
103	0x3dbd5056	0.092438385
104	0x3ab3f0d7	0.0013728392
105	0xbc5ed9ef	-0.013601764
106	0xbe4265c8	-0.18984139
107	0x3d4d2272	0.050081678
108	0xbc94ddae	-0.018172111
109	0x3c7865b3	0.015160966
110	0xbc7ee28c	-0.015556943
111	0xbc301428	-0.010746993
112	0xbda306a2	-0.079602495
113	0x3d0d5e0d	0.034513522
114	0x3c7486ce	0.014924718
115	0x3dded94a	0.10881288
116	0xbb2cafae	-0.002634983
117	0x3cc6303f	0.024192927
118	0xbe01250b	-0.12611787
119	0xbd135aaa	-0.035975136
120	0xbdad293b	-0.0845513
121	0xbdaca5ef	-0.08430087
122	0xbd8bc4ac	-0.068246216
123	0xbd26467f	-0.040594574
124	0x3c6f144e	0.014592243
125	0x3cdf867e	0.02728581
126	0xbd8f72af	-0.07004296
127	0xbdd94c9c	-0.10610315
