rnn_weights/weights_64_random_g0.9_relu_delay_discrimination.pt (torch, 20147 bytes, 5 tensors)

rnn.weight_ih_l0 f4 [64, 2]
00000000: 65e5 4d3d f3bd abbf 7373 17bc 9401 babd
00000010: 88e3 7ebd 2f96 8e3e c482 b6bd a1f7 043e
00000020: ddfe 3dbe af2e 063e 9f97 39be 3391 22be
00000030: de73 0d3e fb2a a0be bc71 3c3b f5f2 5dbd
00000040: 75f5 54bd fc8b 77be a69a c2ba 3234 293e
00000050: 6c5c 913d 0172 8b3e e90d 7bbe 3644 36bf
00000060: 1329 e93d 6940 d03d e38a 98be 02e7 303e
00000070: 6d09 32bb 61d0 e13c fce2 1d3d bef7 b2be
00000080: 01b5 76be 0fea d7be b71a 0c3e c9dc 3f3e
00000090: ecc7 253e 5d37 0f3e ca96 debd 012a 0d3d
000000a0: 51df 103d f2a9 08be a5bb 65bd 6935 1cbf
000000b0: cb25 32bd fc15 903e 602c 4ebe ed49 373e
000000c0: 1185 f8bd 9c94 16be 6cc1 2d3e ae99 873e
000000d0: 5186 6dbe bc29 89be f9bf 113e c1a3 253d
000000e0: 6270 dabd c831 7a3d 5a6b e0bd 0996 363e
000000f0: f7b7 3f3c 3459 e5bd 059a 81be c286 1abf
00000100: 4381 5dbe ac4d 54bd aedc f03d d997 8a3d
00000110: 108e 083e 2f83 413e 5f4e 9d3d 90bf 553e
00000120: 289a dabd 504a b73d bfbf 38be d82a b63d
00000130: 64bf 2ebe 0078 283e 6a6a 97bd 04d3 ed3d
00000140: da59 cd3d 1e0c 03bf a9d4 95be 949c 97bd
00000150: b00b 1dbe b8fe ddbd bbb5 c83c dd35 0cbe
00000160: fa06 4abe 51f0 0abe 6cfb 4b3d 18bb 5cbd
00000170: 0d2f 183e 6341 693e c3be 93be 9728 73be
00000180: f00f eebd 2bb3 92be 0544 ddbd 391b 13be
00000190: d27d dd3d 88ce 4c3e 5c9b 88bd 1658 673d
000001a0: 9c9b 04bd d7c2 333d b6b2 43be 98a7 433c
000001b0: 95fa a2bd 9838 693e 0bc2 04be 0f2f f03d
000001c0: ea86 79bd 3144 f1be 654b 72be 5151 afbe
000001d0: c4ad 953d 6cdc f33c 0417 3dbd 404b fdbc
000001e0: 4f08 77be b125 dd3d 0e34 38be a7e1 a03e
000001f0: 46d2 5e3d 660f 5d3c e2f2 a03d 2b28 94bd
0.050267596 -1.3417343 -0.009243834 -0.09082332 -0.06222871 0.27848956 -0.0891166 0.12985088
-0.18554254 0.13103746 -0.18124245 -0.15875702 0.13813731 -0.31282791 0.0028754314 -0.05418678
-0.0519919 -0.24174494 -0.0014847114 0.16523817 0.07097706 0.27235416 -0.24517025 -0.7119783
0.113847874 0.10168535 -0.29793462 0.17275622 -0.0027166263 0.027565183 0.038546547 -0.34954637
-0.24092485 -0.4217076 0.13682066 0.18736567 0.16189545 0.13985963 -0.108686045 0.034463886
0.03536922 -0.13346079 -0.056087155 -0.61019 -0.043493073 0.28141773 -0.20134115 0.17899294
-0.121347554 -0.14705127 0.16968316 0.26484436 -0.23195769 -0.26789653 0.14233388 0.04043937
-0.106659666 0.06108263 -0.10957976 0.17830671 0.0117015755 -0.11198655 -0.2531282 -0.60361874
-0.2163134 -0.051831886 0.11760841 0.06767244 0.13335443 0.18897699 0.07680964 0.20873857
-0.10673934 0.08949721 -0.18041895 0.088948905 -0.17065197 0.16452026 -0.07393344 0.11612514
0.100269035 -0.51190364 -0.2926381 -0.07402912 -0.1533649 -0.10839599 0.024500718 -0.13692422
-0.19729224 -0.13568236 0.04980032 -0.053889364 0.14861698 0.2277885 -0.28856477 -0.23745953
-0.116241336 -0.2865232 -0.10803989 -0.14365853 0.10815014 0.2000066 -0.066702574 0.05648049
-0.032374963 0.043886986 -0.19111142 0.011941813 -0.07957951 0.22775495 -0.12964647 0.11727726
-0.06091968 -0.47122338 -0.23661573 -0.34241727 0.07308534 0.029768191 -0.046164528 -0.030919671
-0.24124263 0.10798205 -0.17988607 0.3142216 0.05439975 0.013492441 0.07858826 -0.07234224

rnn.weight_hh_l0 f4 [64, 64]
00000000: 7dc4 f03c c6ce 183d 2f8f 81bd be1e 883d
00000010: ce80 7bbd 2a67 113d bdc4 cb3d 41c4 84bc
00000020: 68fb e03c 20d1 25bd 1cfe 04bc b12a 5f3d
00000030: 90fc c03d 836a bfbd bb62 a83e 28fa f2bc
00000040: 97ed df3d 3fc5 8fbe 34d1 7d3d 67d8 453d
00000050: 6122 c23d fc13 f53c c5cd 363d 7f0f a73d
00000060: a795 b03d ecc8 0bbd 7946 283e f236 263c
00000070: 134b 733e 3d46 10be 05d0 063d 3bd7 783e
00000080: 245a 023e 1318 563e ba84 ea3d 0036 323e
00000090: 2edf 17be 16a3 86bc 771a 83bd e2ae 3e3d
000000a0: 646b 0b3e 4e21 03bd 4bcd a73b 8f7c afbc
000000b0: 5bac 583e 7c92 303e 96a8 1bbe 1a16 e0bd
000000c0: 1b63 eb3d 2dd1 a8bd dac1 57be ae4a 1fbe
000000d0: 8d75 c7bd 52a4 113b 0884 86be 6d4f a3bc
000000e0: 5fd1 9dbd f120 babd d625 e33d 8dfb 3d3e
000000f0: 07b4 88bd f091 11be 0523 27be 1e7e c8bd
00000100: 759e 7b3e a471 90be 840c 57be 92c2 b6bd
00000110: f88d 20bd 2f73 f63d 707c 24bd 662e 393d
00000120: 1101 eb3d f1f7 88bd 5da6 9bbe 4206 3bbd
00000130: fbbb 10bc e901 ffbe 8fe2 20be 5107 d9bd
00000140: f661 5fbe 4e00 bd3d 1a88 27bc 223e fc3b
00000150: 20c1 71bb 13c0 3fbe dd87 4abe 336c 253e
00000160: 4784 a23d 5791 a4be 831a a9bc ca5d e3bd
00000170: 6a85 f9bd 2ac1 b8bd 524f 50bd 95da d1bd
00000180: d469 203d a867 a6bc de8b 6fbe 1065 93bd
00000190: 5e67 27ba 9894 29bd fadc 0f3d e19b aabd
000001a0: cb1f 12bd 8716 513d 3bea 3abe ea50 af3d
000001b0: 83aa b4bd 1002 27bd bf5e 31be d4dd 143e
000001c0: c974 e5bd 9cc8 5f3e 4830 44be f918 5bbe
000001d0: 4f2f c83d 3a5f a83d 4e87 983d bf13 debd
000001e0: 6027 f1bd 5a9b 773e 473a 40bd 6040 9cbc
000001f0: d404 66be aa79 063e 3ef4 423d 19bd eb3d
00000200: 359c 97be 7dea 263e 43d6 26be 61a6 c6bd
00000210: ef54 d6bd 34b2 05bc 36f3 2f3e 7512 1fbd
00000220: 6781 16be 51d0 dc3d dea7 06bc d1da 1f3e
00000230: 384f 923c adec 6f3e fecd 2d3e cba5 f33b
00000240: 599c d1bc e7fd 69bc 1270 c0bb c3f2 363d
00000250: 6e2a 22bd 18d2 6d3e 93dd 383e d567 333e
00000260: e386 d43d dcf5 08bf ed39 eebc 8318 15be
00000270: ae88 963d 1ec0 823d 00b8 98bd 2a7c 0abe
00000280: b85e ce3d 05b7 d4bd 8026 de3c 9187 6a3e
00000290: d9d6 4dbd 2e10 543e f2a1 3f3d 77fd 033e
000002a0: 68b3 e3bd 34a9 ca3c 4826 e9bd 6807 01be
000002b0: 3c4f aebc 0862 00be 0286 133e e4fa 993d
000002c0: e6ec 233c b024 2ebd 90d7 c7bd 5d38 683d
000002d0: 4394 19bc c682 273e a499 89bd 912b b03d
000002e0: c8e0 853d a279 413d 5462 1ebe 7325 6e3e
000002f0: 9337 30bd bfe6 0f3e 1174 513c 4c6e 3cbc
00000300: b3f2 ab3d 7864 87bd e23e f7bd f66f 6dbe
00000310: a969 b0bd 1487 fb3b 5f17 603d a447 8bbe
00000320: 54ac 353d 7e99 32bd dd5a 9ebb dcb2 62bd
00000330: a658 1a3d 5646 f23d 51cb 953d c9dc 063e
00000340: c27c 7d3d b13a ba3d bc0d ffbd 3bd2 893b
00000350: 78bd e7bd d8ba 3c3e 4e41 29be 8079 37be
00000360: eb90 f6bd dd68 80be f103 86be de3b 3fbe
00000370: 0eb7 5abe 9320 fdbd 957a d4bd 9586 8dbd
00000380: 8d03 4e3b 668e 123c fdb1 863d f474 83be
00000390: aef5 22bd 59b3 ebbd 1515 2cbe 8139 b8bc
000003a0: 82c1 483b 25c3 62be 4892 edbd c348 233e
000003b0: 9b2a 38bd 1933 db3d a19a 65be 7e7a f03d
000003c0: 55a2 16bc 08f0 18be b855 413d bf09 9c3d
000003d0: 287c ddbd 04dc 04be 91c2 aebc 30d3 bd3d
000003e0: 3d3b 37bc d054 0b3e 56db 193e 3abd 5b3d
000003f0: 2930 98be 6811 66bd 1691 1d3d cd3f 053d
0.029390568 0.03730657 -0.06326138 0.066464886 -0.061402135 0.035498776 0.09949634 -0.016206862
0.02746363 -0.04048264 -0.008117225 0.054484073 0.094231725 -0.093464874 0.32887825 -0.0296603
0.109339885 -0.28080174 0.06196709 0.04830208 0.094792135 0.029916756 0.04462983 0.081572525
0.08622294 -0.03412716 0.16433133 0.010144936 0.23759107 -0.14089294 0.032913227 0.24300854
0.12729698 0.20907621 0.11451097 0.17403412 -0.1483123 -0.016435187 -0.06401532 0.0465535
0.13615185 -0.032014184 0.0051209084 -0.021421699 0.21159498 0.1724338 -0.15201029 -0.109417155
0.11493512 -0.08243022 -0.21070042 -0.15555832 -0.09739218 0.0022223187 -0.26272607 -0.019935334
-0.0770595 -0.09088314 0.11091201 0.1855299 -0.066749625 -0.14215827 -0.16321953 -0.0978968
0.24572165 -0.282117 -0.21000868 -0.0892383 -0.039197892 0.12033688 -0.040157735 0.045210265
0.11474813 -0.06687916 -0.30400363 -0.045660265 -0.008833881 -0.49806145 -0.15711425 -0.105970986
-0.21814713 0.09228574 -0.01022532 0.0076978365 -0.0036888793 -0.18725614 -0.1977839 0.16154556
0.07935386 -0.32142136 -0.020642525 -0.11101873 -0.1218365 -0.09021218 -0.050856896 -0.10246769
0.039163426 -0.020313099 -0.23393199 -0.071970105 -0.00063859473 -0.041401476 0.03512285 -0.08330513
-0.03567485 0.051046874 -0.18253414 0.08560355 -0.08821585 -0.04077345 -0.17321299 0.14537746
-0.112039156 0.2185387 -0.19159043 -0.21396245 0.097746484 0.08221288 0.07447682 -0.1084361
-0.11775088 0.24180356 -0.046930578 -0.019073665 -0.2246278 0.13132349 0.04759621 0.11510677
-0.29611364 0.16300388 -0.16292672 -0.09699703 -0.104654185 -0.008160163 0.17182621 -0.03883596
-0.146978 0.10781921 -0.008218734 0.15610816 0.01786004 0.23430128 0.16973111 0.0074355355
-0.025587248 -0.014281726 -0.005872735 0.04466511 -0.039591245 0.23224676 0.18053274 0.17520078
0.1037729 -0.5350015 -0.029080356 -0.14560132 0.07350288 0.063843 -0.0745697 -0.13523927
0.1007666 -0.10386471 0.027117968 0.22903277 -0.050253723 0.20709297 0.046785302 0.12889658
-0.111182034 0.024738885 -0.11384255 -0.12600482 -0.021278016 -0.12537396 0.14406589 0.07518557
0.010005211 -0.042515457 -0.09757912 0.056694377 -0.009373727 0.1635848 -0.06718758 0.0860206
0.06537014 0.04723514 -0.15467197 0.23256473 -0.04302175 0.14052866 0.01278402 -0.011500906
0.083959006 -0.0661096 -0.12072541 -0.23187241 -0.08613903 0.0076760147 0.05470979 -0.27203095
0.044353798 -0.043603413 -0.004832609 -0.055346355 0.037682198 0.11829822 0.0731417 0.1317016
0.061886556 0.09093226 -0.124537915 0.0042059696 -0.11315435 0.1843065 -0.16528818 -0.17917442
-0.1203936 -0.25080004 -0.26174882 -0.18675181 -0.21358892 -0.12359729 -0.10374943 -0.06910435
0.0031435222 0.008945083 0.06576917 -0.25675166 -0.03978508 -0.11508817 -0.16804917 -0.022488357
0.0030632918 -0.22144754 -0.116001666 0.15945725 -0.044962507 0.107031055 -0.22422267 0.117421135
-0.009193976 -0.14935315 0.04720089 0.076190464 -0.108146966 -0.12974554 -0.02133301 0.092687964
-0.011183557 0.13606572 0.15025076 0.053647257 -0.29724243 -0.056168944 0.038468443 0.03253155

rnn.bias_ih_l0 f4 [64]
00000000: aa06 323d bf9b a33d 7367 073d dc15 eebd
00000010: 61e5 543d 5cee bd3d 68c3 b8bd 4794 b93b
00000020: 5f87 9a3d 8b15 cc3d bfcb 4abe bba4 f53c
00000030: b48e 383d f2e4 48bd e4c2 2dbc 5047 3cbd
00000040: a5ce 96bd 866d fdbd a210 8fbd aeb0 15be
00000050: 3e9d ef3d 5781 6f3d 0175 833d ba15 91bc
00000060: 51b4 943d 60da dcbd ac4d 053e 6f32 bf3d
00000070: e12f 7dbc ebd1 4dbc 26ae 01be 6bb0 b63c
00000080: eab7 9d3d a108 793c 9905 f93d eeae da3c
00000090: 3048 8abc 78b7 21bd d6d6 e7bd 98c4 c2bd
000000a0: 8797 9dbd 5a0a 483d 1dad d73d 6d1c ed3d
000000b0: f04a 51bd 0bb3 56bd af42 db3d 67e0 943c
000000c0: 41e1 37bd 7df5 893d 9735 913d a5c0 343d
000000d0: 9e8a 9f39 ea13 e73d 5402 213c 884b 96bd
000000e0: a11d a03c 6506 ab3d 8e3b c13c 3ac3 9d3d
000000f0: 0f2e 7fbd 57ae e63d a4db a3bd e73f 91bc
0.043463387 0.079886906 0.03305764 -0.11625263 0.051976565 0.09273979 -0.09021646 0.005663428
0.07545351 0.099650465 -0.19804285 0.029985776 0.045057967 -0.049046464 -0.010605548 -0.045966446
-0.07363633 -0.123744056 -0.06985594 -0.14618179 0.116999134 0.058472957 0.06418801 -0.017710555
0.07260955 -0.10783839 0.1301791 0.09335791 -0.01545331 -0.012562255 -0.12664089 0.02230092
0.077010944 0.015199811 0.12159271 0.026694741 -0.016880125 -0.03948161 -0.113202736 -0.095101535
-0.07694917 0.048837997 0.105310656 0.115776874 -0.051096857 -0.052416842 0.10706078 0.01817341
-0.044892553 0.06736276 0.070902996 0.044129033 0.0003043012 0.11283095 0.009827215 -0.07338625
0.019545378 0.08350829 0.023587968 0.07703252 -0.062299784 0.112637214 -0.080008775 -0.017730666

rnn.bias_hh_l0 f4 [64]
00000000: 1e6d 693d e3a0 d23d a6f9 34bc 8a98 ffbd
00000010: 3ca0 9f3d 2895 c7bd 6207 a7bd 473c 30be
00000020: db6b 053e 7e99 90bb 1bf8 f1bd ac7d 4ebd
00000030: e539 973c 2661 f63d 4e2d 87bd 1a72 9a3d
00000040: 91a8 90bd 2890 b43b 5d35 95bc 5a1c 4fbd
00000050: 3e32 44bd eec5 01be b2e0 363d 4244 c53d
00000060: e8ca e8bb 5382 0dbe ce06 53bd c8b3 25bd
00000070: 0747 b1bd e9e0 3c3d 8ec3 943d 6282 773d
00000080: d22e 1abd a3be e3bb 2ce3 c8bb 72b6 673d
00000090: bc74 62bd 1fe2 31bd 1419 cd3d fa44 b13d
000000a0: 6791 ddbd 5a7e 92bd 77ae dd3d 1f38 bebb
000000b0: fb38 85bd 1f63 47bd 80ea 303d 35d1 853d
000000c0: 27d6 573d ffa7 bb3d ec0d 883b fd25 2bbe
000000d0: 558e cdbc cc7c d13b da67 263d 8a96 cb3d
000000e0: 47d8 a7b9 8592 d1bc e4c9 9dbd 70ef cbbd
000000f0: 732a 2c3c 7a79 e0b7 0108 75be 7cc5 ac3d
0.056988828 0.10284593 -0.011045849 -0.124802664 0.07794234 -0.09745246 -0.08155705 -0.17210494
0.13029425 -0.004412829 -0.118149005 -0.05041282 0.018460223 0.12030248 -0.06600438 0.075412944
-0.070634015 0.005510349 -0.018213922 -0.050564148 -0.047899477 -0.1267316 0.04464788 0.0963216
-0.0071042664 -0.13819246 -0.05152016 -0.040454656 -0.086561255 0.04611293 0.072638616 0.060427077
-0.037642308 -0.006950216 -0.0061305966 0.056570478 -0.055287108 -0.043428537 0.10014549 0.08655734
-0.10818749 -0.07153006 0.10824292 -0.00580503 -0.06505009 -0.048678514 0.043192387 0.06534044
0.052694466 0.09162902 0.0041520502 -0.1671371 -0.025092283 0.006393051 0.040626384 0.099408224
-0.0003201386 -0.025582561 -0.07704523 -0.099577785 0.010508168 -2.6759448e-05 -0.23928834 0.08436105

out.weight f4 [1, 64]
00000000: 01ba 943d c6d1 5d3e 7a01 0cbe 7fdc f8bc
00000010: bab3 41bd 3f6d abbd f9b7 b3bd 51dd 003e
00000020: c882 19be de45 2f3d 1d8b 073b 3625 f4bd
00000030: 95f6 f6bd 58c5 29bf c14f c6bd 1973 e73d
00000040: ecd2 0b3e d9a4 653e 9e88 f9bc 24d3 cfbc
00000050: 7b70 62bd a742 94bb 3c1e 14bd afdb d73e
00000060: 7aab a7bb fab5 2abe f05a c2bb f4eb be3d
00000070: d687 24be 1dc2 683d ae31 b0bc 6756 9bbc
00000080: c800 01bd 56d0 263d c9b5 383e 212a 7a3a
00000090: b07f 083d 94f2 cbbe 974b 613d dc45 203d
000000a0: 2aef 583e 4bb4 343d 3724 0c3e 6d11 a6bc
000000b0: 6dc9 df3c a7c2 603c e5d7 493d a7f7 18bf
000000c0: cfb2 9d3c d06e 063e dbdb e6bd c8cc 7b3d
000000d0: bbf0 c0bd e2f2 84bd 093b 503e 2b0a cb3d
000000e0: 89f7 3abd 58f5 c9bd 58ba 223e b567 2ebd
000000f0: d486 09be b1a3 073e 6081 063e 5568 243f
0.0726204 0.21662053 -0.13672438 -0.030378578 -0.04729054 -0.083704464 -0.087753244 0.12584426
-0.14991295 0.04279124 0.0020682283 -0.1192116 -0.120587505 -0.6631675 -0.096831806 0.1130125
0.13654679 0.22426166 -0.030460652 -0.025369234 -0.05528305 -0.004524547 -0.036161646 0.42159793
-0.005116877 -0.16670981 -0.0059312508 0.09322348 -0.16067442 0.056825746 -0.021508064 -0.018962098
-0.031494886 0.04072603 0.18038096 0.0009543021 0.033324897 -0.3983351 0.05500373 0.039129123
0.21184984 0.044117253 0.1368569 -0.020271981 0.027317727 0.013718284 0.04927816 -0.5975289
0.019250302 0.13128209 -0.11272403 0.06147459 -0.09420916 -0.06491639 0.2033502 0.09914049
-0.045646224 -0.09861249 0.15891397 -0.04257937 -0.13430339 0.13246037 0.1313529 0.642217
