rnn_weights/weights_256_random_g0.1_tanh_flip_flop.pt (torch, 270701 bytes, 6 tensors)

rnn.weight_ih_l0 f4 [256, 2]
0.26476884 0.16912617 -0.16854222 0.16962677 0.024363594 -0.18224825 -0.2972834 -0.0041973414
0.09475277 0.112575814 0.114662595 0.15852076 0.4461917 0.1429453 0.0414818 -0.07398939
0.08725215 -1.1153692 -0.113540605 0.079291545 0.33589453 0.01323328 -0.105728045 -0.43594083
0.21201745 0.2753561 -0.06273358 -0.43864954 0.09097286 0.023365067 -0.24434967 0.27230653
0.053068813 0.19928323 -0.39290577 0.04255994 -0.38642448 -0.070989616 -0.019368073 -0.15188453
0.04370977 0.010055695 -0.09890893 -0.04651154 0.5143999 0.04115731 0.3736245 0.16149627
0.1642758 0.061796494 0.019311897 -0.17501248 -0.08790935 0.048439696 -0.2963167 0.13752872
-0.10849355 0.37337792 -0.38570592 0.28157258 -0.014865358 -1.6751359 -0.28570256 0.38425726
0.49962798 -0.03411448 0.22977163 0.02161816 -0.15520582 -0.008940266 0.61247647 0.010394006
-0.09127718 0.33002764 -0.045333713 -0.17225778 -0.009840242 -0.35086745 0.112663776 -0.33434677
0.088375464 0.46230343 -0.15339574 -0.23902327 -1.2348466 0.048967265 -0.07227586 0.25730023
-0.6965169 0.050587006 -0.19878219 0.022518756 0.22335176 0.0024670633 -0.24403287 0.04530565
0.20138536 -0.1446155 -0.2491982 -0.25847587 0.22384667 -0.05179141 0.01343298 0.3455912
0.3833178 0.28287035 -0.099785246 -0.16455935 -0.07257682 -0.25541744 0.20826907 -0.08769043
0.040459245 0.20280294 -0.24048209 0.15415384 -0.078485645 0.1847929 -0.2567736 0.24942674
-0.15627289 0.23102859 0.05978977 0.16361447 0.31356773 -0.12742355 0.020909019 -0.18526089
0.45776638 0.13434693 -0.39969614 0.117307 -0.061110053 0.11743867 -0.16294578 0.04546709
-0.021210462 -1.189162 0.019731056 1.0869344 0.46639055 -0.23965585 0.93049765 0.042731598
0.30447632 0.00642022 -0.20393942 0.20843011 -5.273195e-05 0.14820611 -0.014998873 -0.19529176
-0.0043863105 0.12662113 0.5176349 -0.1569483 0.049885564 -0.15249126 0.021752438 0.21464555
-0.03488636 -0.16633116 0.13696885 -0.12033646 -0.60662293 0.03226285 0.0063822074 -0.15705188
-0.33153698 -0.04956273 -0.23907553 -0.1474478 0.07095108 -0.14491583 -1.1444429 -0.0145380935
0.039730683 0.3425478 0.042564042 0.40963072 -0.015101323 -0.29550725 0.9157561 -0.08659943
-0.07351878 0.488268 -0.36392993 0.20761117 -0.06530631 -0.078094095 0.026126549 -0.040379994
-0.20670116 -0.16820979 -1.2233367 0.054793566 -0.17352615 -0.13959838 -0.27388284 -0.048186254
-0.24336784 0.2851131 -0.0022106671 -0.25637248 0.75955427 -0.02148304 0.0059166756 -0.35524446
-0.4898499 0.1245168 0.27079862 -0.020794867 -0.08574225 0.08357595 -0.046887014 0.042520754
-0.035651855 0.30429363 -0.094578296 -0.10443512 -0.21225852 0.0039003708 -0.22113618 0.033142462
-1.2970176 -0.0025934237 0.303746 0.17392865 0.06476172 0.31164202 -0.08586797 0.32550156
0.002369842 0.31155494 0.1396878 -0.101814635 -0.11542265 0.101134814 0.16087295 -0.08553312
0.59234047 0.0047913026 0.11054407 0.28433585 -0.13728927 -0.09005168 -0.025302961 -0.22296315
-0.10429484 -0.75819266 0.17841862 -0.27070767 -0.12571375 -0.33663055 0.32058987 -0.061478604
00000000: c88f 873e 692f 2d3e 5596 2cbe a4b2 2d3e
00000010: 2996 c73c 499f 3abe 8835 98be da89 89bb
00000020: be0d c23d 268e e63d 39d4 ea3d 4453 223e
00000030: 3d73 e43e 4160 123e d2e8 293d c087 97bd
00000040: 41b1 b23d 6bc4 8ebf fa87 e8bd 9b63 a23d
00000050: 5efa ab3e 66d0 583c f287 d8bd a333 dfbe
00000060: 1a1b 593e 7afb 8c3e 777a 80bd ac96 e0be
00000070: fb4f ba3d 1968 bf3c cd36 7abe c36b 8b3e
00000080: af5e 593d e710 4c3e f22a c9be 5553 2e3d
00000090: 6ed9 c5be 0163 91bd cba9 9ebc 9e87 1bbe
000000a0: 0409 333d a4c0 243c c490 cabd e282 3ebd
000000b0: b6af 033f 9194 283d b64b bf3e 475f 253e
000000c0: ea37 283e 521e 7d3d fc33 9e3c 7936 33be
000000d0: d109 b4bd b468 463d d3b6 97be 54d4 0c3e
000000e0: de31 debd 642b bf3e 3f7b c5be 482a 903e
000000f0: d58d 73bc da6a d6bf 9b47 92be 5ebd c43e
00000100: 3dcf ff3e a0bb 0bbd 4149 6b3e 9118 b13c
00000110: 46ee 1ebe 327a 12bc 42cb 1c3f 9f4b 2a3c
00000120: 88ef babd 62f9 a83e d8af 39bd 5864 30be
00000130: f738 21bc e6a4 b3be 44bc e63d 802f abbe
00000140: 32fe b43d 09b3 ec3e c613 1dbe 84c2 74be
00000150: 740f 9ebf e691 483d 5e05 94bd dbbc 833e
00000160: ee4e 32bf 5234 4f3d 8f8d 4bbe 4179 b83c
00000170: 53b6 643e 74ae 213b c1e3 79be 6b92 393d
00000180: f737 4e3e 1616 14be d02d 7fbe f356 84be
00000190: 1038 653e 3b23 54bd 0016 5c3c 54f1 b03e
000001a0: 3b42 c43e 62d4 903e 355c ccbd 3f82 28be
000001b0: 28a3 94bd 13c6 82be 7d44 553e 0a97 b3bd
000001c0: 98b8 253d 93ab 4f3e f040 76be 81da 1d3e
000001d0: 15bd a0bd 5a3a 3d3e d477 83be b969 7f3e
000001e0: 0006 20be c292 6c3e 1ee6 743d 8d8a 273e
000001f0: f38b a03e 527b 02be 6449 ab3c 08b5 3dbe
00000200: 5b60 ea3e 3e92 093e f9a4 ccbe a73e f03d
00000210: 894e 7abd af83 f03d 42db 26be b33b 3a3d
00000220: 90c1 adbc 7636 98bf 06a3 a13c ab20 8b3f
00000230: beca ee3e 5868 75be 1835 6e3f 5407 2f3d
00000240: 52e4 9b3e b560 d23b 7fd5 50be b46e 553e
00000250: 802c 5db8 58c3 173e d5bd 75bc 90fa 47be
00000260: 0abb 8fbb f8a8 013e b983 043f 0eb7 20be
00000270: ce54 4c3d ab26 1cbe 2b32 b23c 0bcc 5b3e
00000280: 00e5 0ebd b752 2abe 9041 0c3e f672 f6bd
00000290: a44b 1bbf 0d26 043d d621 d13b 35d2 20be
000002a0: 37bf a9be 4a02 4bbd 37d0 74be 8efc 16be
000002b0: cd4e 913d d164 14be 1b7d 92bf 2f31 6ebc
000002c0: a4bc 223d 6d62 af3e a257 2e3d 1ebb d13e
000002d0: 8a6b 77bc ba4c 97be fe6e 6a3f 0b5b b1bd
000002e0: 0491 96bd 43fe f93e 0655 babe 0698 543e
000002f0: 51bf 85bd ccef 9fbd 5807 d63c 7e65 25bd
00000300: 78a9 53be 303f 2cbe 4c96 9cbf 386f 603d
00000310: d7b0 31be e1f2 0ebe 5f3a 8cbe f35e 45bd
00000320: 6b35 79be 58fa 913e d7e0 10bb 4143 83be
00000330: 2672 423f 33fd afbc ace0 c13b 9ae2 b5be
00000340: 9bcd fabe aa02 ff3d 1ea6 8a3e ff59 aabc
00000350: a299 afbd de29 ab3d 990c 40bd 3e2a 2e3d
00000360: ae07 12bd 60cc 9b3e 44b2 c1bd 15e2 d5bd
00000370: 4c5a 59be 5d9d 7f3b 8671 62be 64c0 073d
00000380: ac04 a6bf 6ef6 29bb 9984 9b3e 5a1a 323e
00000390: cba1 843d 8b8f 9f3e 8cdb afbd 24a8 a63e
000003a0: 5a4f 1b3b 2184 9f3e 520a 0f3e 3184 d0bd
000003b0: b662 ecbd c51f cf3d e1bb 243e fd2b afbd
000003c0: a0a3 173f 5c00 9d3b ee64 e23d 7894 913e
000003d0: 8f95 0cbe 046d b8bd 2848 cfbc 7450 64be
000003e0: 8898 d5bd ea18 42bf 5fb3 363e 329a 8abe
000003f0: 1bbb 00be d75a acbe 5b24 a43e fdd0 7bbd

rnn.weight_hh_l0 f4 [256, 256]
0.019535312 0.0069614216 -0.0046978663 -0.039353006 -0.05060708 0.06147701 -0.029104624 -0.038094737
-0.03315635 0.028169492 -0.019394439 0.028635874 0.022988591 -0.029287193 -0.015197127 -0.03911801
-0.057696644 -0.03310863 0.0123830605 0.026364233 -0.00630484 0.025199505 -0.02839853 -0.0058157453
-0.050470185 -0.024443388 0.02951034 0.005539178 -0.019561527 -0.025885083 -0.021113504 -0.025294362
0.024033723 -0.026457123 0.0010054051 -0.02564315 -0.024027161 0.053898446 -0.012288258 0.025883654
0.040004123 0.009778456 -0.002221819 0.061952513 0.02689602 0.028841522 -0.02985868 0.00023682417
-0.022836346 -0.013589106 -0.016853688 0.009164953 0.00030528125 0.00048400514 0.05537817 0.0031607677
-0.010165072 -0.026380824 -0.0024354167 0.0024774221 0.020232078 0.05092454 -0.015071684 0.03518466
0.01564939 0.036343083 -0.013180801 -0.013423654 -0.008483332 0.016289175 0.0076476457 -0.013357012
0.031211486 -0.024495073 0.020491619 -0.0065602795 0.006701532 0.03993004 -0.033235613 -0.0016849663
-0.011535007 -0.03935268 0.03605906 0.0036630835 -0.0023243343 0.01957785 -0.015053407 -0.0009109949
-0.0011428392 0.028519677 0.03139392 -0.024614971 0.021255672 0.003704879 0.00942176 -0.013196424
-0.02702703 -0.0031179958 0.018187575 -0.0003750736 0.0010211408 -0.009885926 -0.021454211 0.0052350345
0.01729402 -0.020147717 0.016573109 0.011048778 0.020566896 0.012321582 0.04332298 0.022060957
0.0031019363 -0.005711617 0.0029390038 0.00678895 0.021831052 -0.015267541 -0.016023975 0.00012709337
-0.019706855 -0.042173788 0.0033364056 -0.039004937 -0.02501741 -0.03267028 -0.03259374 -0.014222834
0.05188369 0.052029036 -0.028317725 -0.068289064 -0.0062815757 -0.020436574 -0.05378668 -0.023101876
-0.009681359 -0.025640156 0.013634074 -0.056649324 0.01939652 0.025582254 -0.016346904 -0.0024472647
-0.018190593 0.015561842 0.021288767 0.038551126 -0.007940701 -0.0272616 0.005690509 -0.00023338388
-0.032037552 0.00796345 0.018347727 0.003926672 0.0014706994 0.016220221 0.02316046 -0.018672595
-0.012844414 0.041469567 -0.03589483 0.017688924 -0.024526572 0.0115468595 -0.001495497 0.014865116
-0.033481825 0.03896815 0.010586325 0.021059958 -0.014241977 -0.021936983 0.020309798 0.02768482
0.014655505 0.011689944 0.028283762 -0.009648924 -0.0042018704 -0.001184662 -0.016678182 -0.0069017024
-0.023082111 -0.014482819 0.012463391 0.03604287 -0.00602479 0.008085266 0.036082845 0.025262691
-0.007714322 0.012399116 0.018305996 0.031791333 0.040620606 0.030949913 0.019463455 0.043232325
-0.036255542 -0.048486512 0.00039800897 -0.023144618 0.02790543 0.004721185 0.046279937 -0.005419847
-0.008168882 -0.010000731 -0.0049385596 -0.007884512 -0.036074437 -0.0430145 -0.024615986 -0.021483477
0.0019380894 -0.009522522 0.010583521 -0.03071523 -0.0128693385 -0.005463948 0.018359343 -0.0043642507
0.0016433921 -0.0071071987 -0.02241674 -0.023595372 0.020737624 0.0337404 -0.011694263 -0.023168063
-0.0060476842 -0.022135299 0.0024294767 -0.055939686 0.037941694 -0.044565737 0.013249148 -0.0035891868
0.018346809 0.028545856 -0.0042416365 -0.0028946046 0.023663731 -0.010531107 -0.01750187 0.019634912
0.032529064 0.037193283 0.0121447 0.029994901 0.006566348 0.021632858 -0.026359593 -0.021189537
00000000: 8508 a03c a31c e43b 8ff0 99bb 9e30 21bd
00000010: 5f49 4fbd 51cf 7b3d d26c eebc 3a09 1cbd
00000020: f4ce 07bd b5c3 e63c 16e1 9ebc c895 ea3c
00000030: 9252 bc3c b2eb efbc 5ffd 78bc 353a 20bd
00000040: 5153 6cbd ea9c 07bd 52e2 4a3c cef9 d73c
00000050: d598 cebb 316f ce3c 09a4 e8bc 0292 bebb
00000060: d3b9 4ebd 803d c8bc abbf f13c fe81 b53b
00000070: 7f3f a0bc f40c d4bc 3af6 acbc 1f36 cfbc
00000080: 5fe2 c43c 9cbc d8bc ccc7 833a 9511 d2bc
00000090: 9cd4 c4bc 9ec4 5c3d b154 49bc f509 d43c
000000a0: 5ddb 233d d135 203c f09b 11bb ebc1 7d3d
000000b0: 0b55 dc3c 0e45 ec3c 319a f4bc 0154 7839
000000c0: 4a13 bbbc d7a4 5ebc bf10 8abc 9928 163c
000000d0: 280e a039 12c2 fd39 38d4 623d e224 4f3b
000000e0: 678b 26bc 991c d8bc 839b 1fbb 3f5c 223b
000000f0: bebd a53c 4096 503d 39ef 76bc ca1d 103d
00000100: 2633 803c 7cdc 143d 49f4 57bc e3ee 5bbc
00000110: acfd 0abc e070 853c 1a99 fa3b 5ed7 5abc
00000120: 3baf ff3c e4a9 c8bc 0ade a73c 9df7 d6bb
00000130: 8698 db3b ae8d 233d 1122 08bd 16da dcba
00000140: 53fd 3cbc 4730 21bd aab2 133d 5810 703b
00000150: dc53 18bb ba61 a03c 91a2 76bc d5cf 6eba
00000160: 52cb 95ba 19a2 e93c e996 003d 56a5 c9bc
00000170: 6020 ae3c 8ecd 723b ba5d 1a3c d035 58bc
00000180: ca67 ddbc 4a57 4cbb 1cfe 943c 87a5 c4b9
00000190: cdd7 853a 94f8 21bc bec0 afbc a78a ab3b
000001a0: 30ac 8d3c d30c a5bc 54c4 873c ef05 353c
000001b0: e87b a83c 76e0 493c 7073 313d 2eb9 b43c
000001c0: db49 4b3b 8428 bbbb 4d9c 403b d775 de3b
000001d0: 09d7 b23c b524 7abc b644 83bc 5e44 0539
000001e0: 4570 a1bc 6cbe 2cbd 99a7 5a3b a4c3 1fbd
000001f0: 50f1 ccbc 46d1 05bd 0381 05bd e406 69bc
00000200: fe83 543d 661c 553d 93fa e7bc 23db 8bbd
00000210: add5 cdbb 9a6a a7bc 6c4f 5cbd 2540 bdbc
00000220: 909e 1ebc 4e0b d2bc 7361 5f3c 1f09 68bd
00000230: 73e5 9e3c e091 d13c f1e9 85bc 4a62 20bb
00000240: 7004 95bc 19f7 7e3c c865 ae3c c9e7 1d3d
00000250: b719 02bc b853 dfbc 7377 ba3b 82b8 74b9
00000260: cf39 03bd 2179 023c f94d 963c 50ab 803b
00000270: 7cc4 c03a 45e0 843c 01bb bd3c 45f7 98bc
00000280: 6171 52bc fedb 293d 7506 13bd 5de8 903c
00000290: f3eb c8bc 0a2f 3d3c 8d04 c4ba d18c 733c
000002a0: 3d24 09bd 119d 1f3d 4472 2d3c ef85 ac3c
000002b0: 2e57 69bc 30b5 b3bc bc60 a63c 47cb e23c
000002c0: a51d 703c 2e87 3f3c 59b3 e73c 8516 1ebc
000002d0: d8af 89bb a946 9bba afa0 88bc ad27 e2bb
000002e0: b216 bdbc 5849 6dbc 4033 4c3c b0a1 133d
000002f0: 9a6b c5bb 1078 043c 9bcb 133d b4f3 ce3c
00000300: 6cc8 fcbb a925 4b3c 75f6 953c a137 023d
00000310: cb61 263d ac8a fd3c d371 9f3c 6114 313d
00000320: b180 14bd cb99 46bd dcab d039 c899 bdbc
00000330: ee99 e43c 2cb4 9a3b 0890 3d3d f998 b1bb
00000340: c6d6 05bc 1bda 23bc a4d3 a1bb 0a2e 01bc
00000350: cac2 13bd f92f 30bd 77a7 c9bc 1efe afbc
00000360: 7d07 fe3a 5a04 1cbc 8166 2d3c 829e fbbc
00000370: ebd9 52bc eb0a b3bb 5566 963c fd01 8fbb
00000380: 1767 d73a 81e3 e8bb 50a3 b7bc 154b c1bc
00000390: f3e1 a93c 6033 0a3d 4b99 3fbc f3ca bdbc
000003a0: a72b c6bb 1655 b5bc db37 1f3b 0321 65bd
000003b0: c068 1b3d 908a 36bd f412 593c 9038 6bbb
000003c0: 0c4c 963c 00d9 e93c 6dfd 8abb 68b3 3dbb
000003d0: 71da c13c aa8a 2cbc 1560 8fbc 65d9 a03c
000003e0: 323d 053d fc57 183d 90fa 463c deb7 f53c
000003f0: 852a d73b 6437 b13c 13f0 d7bc ae95 adbc

rnn.bias_ih_l0 f4 [256]
-0.016213974 0.05894411 -0.057760756 -0.00053732237 0.012355063 -0.037174463 0.03649448 -0.011872422
0.0030715694 0.008785551 -0.058549765 0.0022292163 0.026728982 -0.014147459 0.0045682006 -0.004586457
-0.01485475 0.010849168 0.029323226 0.008204197 -0.027258448 0.022712002 -0.087522835 -0.031233821
-0.0057355105 0.026117204 -0.023712512 0.029278431 0.0054554944 0.03808439 -0.046405975 0.03403009
0.032825116 -0.015495514 -0.04883356 -0.07982207 -0.033793256 -0.009984353 0.005553729 -0.025226025
-0.0048992345 -0.020450745 -0.010523448 -0.052812584 0.018456 0.049426753 0.017225385 0.09014879
-0.07395594 0.054125767 0.006563214 0.027304446 -0.06672033 0.002482809 -0.0026916824 -0.006666185
-0.036719665 0.032621533 -0.009636706 0.03864004 -0.008965579 -0.05080857 -0.004909063 0.022246417
-0.03479414 0.04603936 0.016999744 -0.010499189 -0.0070607592 0.06629216 0.00037275517 -0.024131512
0.009516709 -0.036919933 0.045850772 0.043368407 -0.05612479 0.06927219 -0.04438911 -0.038083225
0.0021239184 -0.017507002 0.053391915 0.021686366 0.006663732 0.024395483 0.036931224 0.06942769
0.0019104291 -0.0030508342 0.02333361 -0.033040345 -0.041896082 -0.016329885 0.060698938 0.004176402
-0.020974107 -0.020540386 0.04484808 0.04341151 0.015552236 -0.059626963 -0.005862708 -0.010187899
0.060016982 0.033560514 0.038575783 0.012283817 -0.00400996 0.013071412 -0.014828509 0.0331189
0.0246338 -0.016787099 -0.066122465 0.028536413 0.0711852 0.036104288 -0.02256629 0.021665758
-0.094212174 -0.047265496 -0.04018744 0.021806663 -0.04579808 0.045249622 0.041021287 0.043132607
0.04194186 0.066419095 -0.010408557 0.016722709 0.04487457 -0.0052820984 -0.020397063 -0.04502616
0.05853981 -0.06400916 0.07352612 -0.039246555 0.091194086 0.00868597 0.096299164 0.053670514
-0.03975509 0.030899974 0.025069956 -0.013164678 0.0064912853 -0.032316394 0.012047334 0.09097016
-0.0064867917 0.03268066 0.07267786 0.01199002 -0.036390383 0.008344167 -0.018753322 0.002320143
-0.010140438 0.07068081 -0.03549374 0.0059336843 -0.065022096 -0.021955842 -0.0034051538 0.035345092
-0.05676477 -0.017841876 0.022225233 0.06345823 -0.030160842 -0.051716127 -0.027815191 0.04393633
-0.06841857 0.033210024 0.020302966 -0.017666388 -0.029988056 0.006177449 -0.026390133 0.053744785
0.0057478123 -0.015583944 0.01851149 -0.029178789 -0.060983937 0.049064208 -0.043337278 -0.009024567
0.0111185545 0.040827747 0.01414903 0.079058535 -0.015064099 0.02533134 0.028001955 -0.060603157
-0.00491404 -0.030475345 0.038676545 0.009573403 0.04487767 -0.07048128 0.07884595 0.010823391
-0.02358416 -0.09534319 0.02383131 0.017377062 0.11111636 0.05011061 -0.041853685 0.034812905
0.005571664 0.048211124 0.0042702104 -0.00017003127 0.032308053 -0.019726254 -0.017698592 -0.030687777
-0.02959878 -0.028850148 -0.015127678 -0.02870896 0.03575031 0.022124685 -0.025492584 -0.030847238
-0.008898949 0.06308489 -0.034186624 -0.02744824 -0.008963735 -0.030027399 0.0061335936 0.023015013
-0.013256319 -0.06792597 0.0007949207 -0.007864563 0.049149692 -0.0600784 -0.028961914 0.00712124
0.00041807586 0.0748238 0.007418961 -0.014341835 -0.02462633 0.059988704 0.0055957874 0.028795296
00000000: 2bd3 84bc 616f 713d 8b96 6cbd 18db 0cba
00000010: e46c 4a3c 4044 18bd 3c7b 153d 8c84 42bc
00000020: 624c 493b 46f1 0f3c e1d1 6fbd 0b18 123b
00000030: bdf6 da3c beca 67bc d8b0 953b fd49 96bb
00000040: 5661 73bc b5c0 313c 4337 f03c e56a 063c
00000050: 1c4d dfbc 850e ba3c 2c3f b3bd 12de ffbc
00000060: f3f0 bbbb bff3 d53c be40 c2bc 52d9 ef3c
00000070: 01c4 b23b 61fe 1b3d 3114 3ebd 2363 0b3d
00000080: a173 063d e5e0 7dbc b305 48bd c179 a3bd
00000090: cc6a 0abd 6995 23bc 0efc b53b cfa6 cebc
000000a0: c289 a0bb 5288 a7bc 8a6a 2cbc 0252 58bd
000000b0: 0a31 973c b573 4a3d 401c 8d3c ee9f b83d
000000c0: 3676 97bd fbb2 5d3d 3b10 d73b 93ad df3c
000000d0: aba4 88bd 9fb6 223b f066 30bb 0370 dabb
000000e0: 5c67 16bd 289e 053d 46e3 1dbc 0545 1e3d
000000f0: 5de4 12bc a61c 50bd 35dc a0bb 1e3e b63c
00000100: 4d84 0ebd c593 3c3d 0c43 8b3c ca04 2cbc
00000110: f15d e7bb 2fc4 873d 5a6e c339 73af c5bc
00000120: f8eb 1b3c 5b39 17bd 05ce 3b3d 12a3 313d
00000130: 1ce3 65bd 94de 8d3d 5bd1 35bd 28fd 1bbd
00000140: 7031 0b3b d86a 8fbc 7bb1 5a3d 9ba7 b13c
00000150: 705b da3b 09d9 c73c 3245 173d 1b30 8e3d
00000160: 5d67 fa3a 81f0 47bb 2026 bf3c 5055 07bd
00000170: 3a9b 2bbd 40c6 85bc 739f 783d 33da 883b
00000180: e4d1 abbc 5044 a8bc 9fb2 373d 44d0 313d
00000190: cece 7e3c 673b 74bd f61b c0bb 25eb 26bc
000001a0: 5ed4 753d c076 093d a401 1e3d 1042 493c
000001b0: fc65 83bb 7a29 563c 46f3 72bc afa7 073d
000001c0: d3cc c93c 1985 89bc 376b 87bd 32c5 e93c
000001d0: 8cc9 913d 17e2 133d f1dc b8bc 637c b13c
000001e0: 50f2 c0bd 7799 41bd 969b 24bd e3a3 b23c
000001f0: c496 3bbd ab57 393d f005 283d d1ab 303d
00000200: 3acb 2b3d bc06 883d a788 2abc 10fe 883c
00000210: 66ce 373d 7415 adbb be17 a7bc 5a6d 38bd
00000220: 71c7 6f3d 3c17 83bd dd94 963d ffc0 20bd
00000230: f7c3 ba3d 994f 0e3c 7f38 c53d 9dd5 5b3d
00000240: 3cd6 22bd f121 fd3c 825f cd3c a9b0 57bc
00000250: d9b4 d43b 325e 04bd 2e62 453c 904e ba3d
00000260: 278f d4bb 28dc 053d 21d8 943d ca71 443c
00000270: 150e 15bd f9b5 083c 91a0 99bc 8a0d 183b
00000280: 1424 26bc 1ac1 903d e261 11bd 5a6f c23b
00000290: 4e2a 85bd bddc b3bc 0029 5fbb 04c6 103d
000002a0: 2d82 68bd 2029 92bc b111 b63c 63f6 813d
000002b0: df13 f7bc 4ad4 53bd afdc e3bc 95f6 333d
000002c0: 091f 8cbd 3c07 083d 6852 a63c 1ab9 90bc
000002d0: 83a9 f5bc 336c ca3b 1f30 d8bc 7e23 5c3d
000002e0: 2558 bc3b cc53 7fbc 69a5 973c 5b08 efbc
000002f0: 4bca 79bd 8df7 483d 6e82 31bd c7db 13bc
00000300: 992a 363c ff3a 273d 55d1 673c 71e9 a13d
00000310: 69cf 76bc ac83 cf3c 5b64 e53c 043b 78bd
00000320: f505 a1bb 6ea7 f9bc 4c6b 1e3d c3d9 1c3c
00000330: a6d1 373d 7d58 90bd fc79 a13d 9854 313c
00000340: 9133 c1bc 4a43 c3bd e139 c33c 575a 8e3c
00000350: f990 e33d c840 4d3d c56e 2bbd fa97 0e3d
00000360: 8192 b63b 0779 453d 1fed 8b3b 6c4a 32b9
00000370: 7355 043d f498 a1bc a3fc 90bc ef64 fbbc
00000380: 2479 f2bc 2557 ecbc 15da 77bc 0e2f ebbc
00000390: eb6e 123d d43e b53c d3d5 d0bc 59b3 fcbc
000003a0: e6cc 11bc a732 813d 4607 0cbd 22db e0bc
000003b0: a1dc 12bc 05fc f5bc 50fc c83b fb89 bc3c
000003c0: 0831 59bc c51c 8bbd 3a62 503a 5eda 00bc
000003d0: 3051 493d c514 76bd 8941 edbc 4a59 e93b
000003e0: 3131 db39 383d 993d c11a f33b 04fa 6abc
000003f0: 28bd c9bc b7b6 753d de5c b73b 1de4 eb3c

rnn.bias_hh_l0 f4 [256]
0.016102633 0.04956805 -0.0142414635 0.0607791 0.02754599 -0.06427234 -0.07226883 0.0003673005
0.01747162 -0.011587716 -0.012937674 -0.023052575 0.026580052 -0.05172142 -0.008539405 -0.045074385
0.019806802 -0.08496288 0.037164398 -0.019067576 0.027402041 -0.033354364 -0.05126703 -0.014367209
-0.02706805 0.02037493 0.03739285 0.01855321 0.010270673 0.052583773 -0.038374662 0.03960466
0.013815321 -0.06760904 -0.027070632 -0.08797122 0.008583148 0.029935058 0.021166604 -0.028705817
0.046660136 0.065889604 0.048331562 0.00042613607 0.038804412 -0.008304029 -0.06244212 -0.0048745414
0.0024649452 0.046131458 -0.02799758 0.015598299 -0.06052655 0.01858799 0.082887776 -0.031504385
-0.0039401227 -0.0079827 -0.031043239 -0.0053925966 -0.023607625 -0.01459559 -0.055867564 -0.030304099
-0.0032764447 0.06977426 -0.024842372 0.045271937 0.027388446 0.00085093203 0.03561788 -0.0068816883
-0.025382355 0.013123255 0.01607253 -0.02012215 0.02761186 -0.023432583 0.030632526 0.01118529
0.10359851 -0.020385288 0.068121895 0.00047992394 0.07586469 -0.00056878687 -0.007673517 -0.031327967
0.008143091 0.073336445 0.009977154 0.004409017 -0.07193251 0.068126656 0.057442635 0.06300227
0.05974963 0.06834406 -0.007568667 0.021824995 0.05192027 -0.046347335 -0.056428503 0.056978714
0.09617427 -0.030273706 0.0077993977 -0.026130278 -0.004953995 -0.0013732369 0.08756489 -0.04478675
0.0022270787 -0.058626756 0.005264268 0.059719242 0.006116568 0.019189443 0.017927906 0.036594376
0.0018578293 -0.010376492 -0.028063461 -0.028983356 -0.001854837 -0.016439285 0.04859815 0.0017069564
0.011790757 0.058602408 0.046901073 0.0020513528 -0.025761472 0.012213276 0.051869918 -0.009923525
0.023897955 -0.01449229 -0.017556084 -0.022923004 0.042730186 -0.009746722 0.015411137 0.05461623
0.04302389 0.0060676127 0.020363785 0.047556072 0.012980038 -0.009307893 0.07901784 0.06129452
-0.035024017 0.028273523 0.046119325 -0.014497605 0.031695884 -0.03226616 0.05376983 -0.051782675
-0.096475534 -0.016717296 0.047627795 0.02577628 0.015696893 0.0034723599 0.008949733 0.07760857
-0.07039026 0.037605405 -0.04337852 -0.0069183256 -0.020596728 -0.018711487 -0.005059381 0.015074838
-0.035660073 0.026515195 0.00068184664 -0.024831261 -0.011446304 -0.05638164 -0.02148132 0.009381255
0.010549951 0.024450306 -0.07146259 -0.03119215 0.011171067 0.006396253 0.040622246 0.0010127093
-0.017336786 0.010064079 -0.034201894 0.028041705 0.052167896 0.023337396 -0.051083438 -0.015035649
0.040402394 -0.0026751077 0.035651445 -0.063008316 0.05822366 -0.020794999 0.060323603 -0.0016354773
-0.0042048814 -0.028496858 0.005534475 0.013311293 0.036352772 0.07834936 0.004956304 0.03417624
-0.021730319 0.024112368 -0.044299595 0.0033266724 0.023247644 -0.016253557 0.07900355 0.08826511
0.052756265 0.0033560155 -0.014388558 -0.003415091 0.01037165 0.062214874 -0.052307956 -0.043607183
-0.028728727 0.031044807 -0.044091206 -0.077187255 0.07265091 -0.0728845 0.041849483 0.02875662
0.090119354 -0.12595722 0.048426654 -0.044692922 0.012206772 -0.0012992542 -0.0041277963 -0.06629937
0.04818249 0.0021911105 -0.10335357 0.015707012 -0.092557736 0.00571746 0.026848063 0.0040334957
00000000: abe9 833c de07 4b3d 0755 69bc 81f3 783d
00000010: 21a8 e13c 37a1 83bd ae01 94bd 3d92 c039
00000020: a520 8f3c 67da 3dbc 8af8 53bc c1d8 bcbc
00000030: 69be d93c d7d9 53bd dce8 0bbc eb9f 38bd
00000040: e041 a23c 0501 aebd b239 183d 9b33 9cbc
00000050: 3f7a e03c 969e 08bd 61fd 51bd 7164 6bbc
00000060: d1bd ddbc 53e9 a63c 3f29 193d e7fc 973c
00000070: 5346 283c 1562 573d c02e 1dbd 7f38 223d
00000080: a859 623c 9c76 8abd 3bc3 ddbc 412a b4bd
00000090: 55a0 0c3c 5e3a f53c 9665 ad3c 7628 ebbc
000000a0: b31e 3f3d 21f1 863d 51f7 453d 046b df39
000000b0: 60f1 1e3d 9f0d 08bc 4fc3 7fbd 9eba 9fbb
000000c0: eb8a 213b 57f4 3c3d 2e5b e5bc 0290 7f3c
000000d0: b0ea 77bd d745 983c 11c1 a93d be0a 01bd
000000e0: 251c 81bb dfc9 02bc 644e febc 61b4 b0bb
000000f0: c764 c1bc 5722 6fbc 63d5 64bd 4d40 f8bc
00000100: 9fb9 56bb cfe5 8e3d 3b82 cbbc 116f 393d
00000110: bc5d e03c 1511 5f3a 0ee4 113d c97f e1bb
00000120: a8ee cfbc ec02 573c 8aaa 833c 35d7 a4bc
00000130: 4432 e23c b0f5 bfbc 10f1 fa3c 8242 373c
00000140: 752b d43d 0cff a6bc 7e83 8b3d 4d9e fb39
00000150: f25e 9b3d a41a 15ba 2072 fbbb c151 00bd
00000160: 996a 053c 6b31 963d 3877 233c 8479 903b
00000170: 5a51 93bd fd85 8b3d f848 6b3d 5607 813d
00000180: 07bc 743d f8f7 8b3d 9502 f8bb 55ca b23c
00000190: 59aa 543d b4d6 3dbd 9321 67bd 8362 693d
000001a0: 04f7 c43d 9000 f8bc 1792 ff3b 2a0f d6bc
000001b0: 1f55 a2bb 2ffe b3ba 3955 b33d 5072 37bd
000001c0: 2ef4 113b 9c22 70bd e17f ac3b 2a9c 743d
000001d0: 7e6d c83b 2e33 9d3c 8bdd 923c fce3 153d
000001e0: 6882 f33a 2902 2abc 58e5 e5bc 816e edbc
000001f0: 011e f3ba aeab 86bc db0e 473d f4bb df3a
00000200: 052e 413c 1409 703d 571b 403d fd6f 063b
00000210: b909 d3bc 311a 483c 8d75 543d 4896 22bc
00000220: a5c5 c33c 1271 6dbc c7d1 8fbc 06c9 bbbc
00000230: d905 2f3d b7b0 1fbc fe7e 7c3c 45b5 5f3d
00000240: d239 303d d3d2 c63b f4d1 a63c 28ca 423d
00000250: 3aaa 543c 2280 18bc 1bd4 a13d f60f 7b3d
00000260: 5875 0fbd e09d e73c 9ee7 3c3d 5d87 6dbc
00000270: 8bd3 013d 8529 04bd c13d 5c3d 121a 54bd
00000280: f794 c5bd b6f2 88bc 5d15 433d c728 d33c
00000290: c596 803c 8890 633b e7a1 123c 3ef1 9e3d
000002a0: c528 90bd 2008 1a3d adad 31bd 1fb3 e2bb
000002b0: 78ba a8bc d548 99bc 2ac9 a5bb 74fc 763c
000002c0: 4c10 12bd 6536 d93c f4bd 323a ee6a cbbc
000002d0: 4789 3bbc 6ff0 66bd 98f9 afbc d6b3 193c
000002e0: b4d9 2c3c 024c c83c fa5a 92bd ae86 ffbc
000002f0: da06 373c a997 d13b 8363 263d e3bc 843a
00000300: e005 8ebc cfe3 243c 4917 0cbd b8b7 e53c
00000310: 01ae 553d 112e bf3c de3c 51bd 1558 76bc
00000320: fb7c 253d dc50 2fbb 4007 123d 810a 81bd
00000330: ef7b 6e3d 465a aabc e215 773d 835d d6ba
00000340: 1ac9 89bb 3e72 e9bc 8b5a b53b 9c17 5a3c
00000350: a5e6 143d a175 a03d 7e68 a23b 63fc 0b3d
00000360: c803 b2bc 4d87 c53c 7e73 35bd 4d04 5a3b
00000370: d871 be3c 2e26 85bc 9dcc a13d 57c4 b43d
00000380: f416 583d 99f0 5b3b fdbd 6bbc b8cf 5fbb
00000390: daed 293c 06d5 7e3d de40 56bd 729d 32bd
000003a0: 8258 ebbc ae51 fe3c fb98 34bd 5a14 9ebd
000003b0: 00ca 943d 7844 95bd 5d6a 2b3d 0193 eb3c
000003c0: 7f90 b83d eefa 00be 075b 463d ed0f 37bd
000003d0: eafe 473c bd4b aaba 7742 87bb f7c7 87bd
000003e0: 015b 453d bc98 0f3b 09ab d3bd feab 803c
000003f0: e98e bdbd 8859 bb3b 78f0 db3c 6a2b 843b

out.weight f4 [2, 256]
-0.019383438 -0.004947329 -0.05879142 0.014451819 -0.021058634 -0.0019204068 -0.0048901546 -0.035776712
-0.012898041 -0.007797315 -0.023872498 -0.0029092636 0.0033733333 0.025181191 -0.0012260347 -0.0034711235
-0.03683624 0.030669319 0.030628135 0.030618085 0.024902077 0.041466262 -0.031209067 -0.008008966
0.004267747 0.042504396 0.03529126 0.010254367 0.01427555 -0.010560218 0.026659148 0.010533015
-0.083884954 -0.05231483 -0.002806485 -0.05716715 -0.0052135303 0.09931556 -0.037622567 0.016423376
0.0018670787 -0.012633025 -0.28927404 -0.008252055 -0.05508074 0.11347981 -0.007350135 0.0063952804
-0.031251904 0.022010937 -0.020951256 0.0448412 0.057150967 0.11629097 0.017584855 -0.05130186
0.049698435 0.016147848 0.03267859 0.032090478 -0.012710989 0.01239888 -0.020252936 0.007569797
-0.1092991 0.017171873 -0.001736044 -0.003965556 0.004898859 -0.012798204 -0.048577335 0.14756584
0.03309672 -0.0068477374 0.057420347 -0.013181459 0.040612955 -0.13983378 -0.054176908 0.021934828
-0.029815184 -0.031797186 -0.015085471 0.024411492 -0.0036576376 0.01194304 0.058489252 -0.2611519
0.027288891 -0.032817636 0.0953567 0.15699887 -0.013673594 0.01649199 -0.082666256 -0.03302647
0.044762988 -0.33389163 -0.018813347 0.028272342 0.0131768035 0.0012979065 0.07116164 -0.023464303
-0.016030978 -0.01880732 -0.014111841 -0.00045572966 0.011611969 -0.0439667 0.06434405 0.013673549
-0.34852138 -0.0064357384 0.041969437 -0.012552356 0.060177144 0.03679545 -0.037353944 -0.03807242
0.029292202 -0.10052178 -0.005731076 -0.027758734 -0.036860153 -0.10370527 0.047238942 -0.004172922
0.023902126 -0.05659351 -0.034048837 -0.08849221 -0.04177019 0.015689539 0.039081123 0.06055566
-0.06591775 0.006617745 0.017818557 -0.07511577 -0.015731638 0.07047926 -0.02208275 0.011054017
-0.05360629 0.030647818 0.0035713252 -0.012045444 0.018429503 -0.059776686 0.007677444 -0.014889528
0.027495604 -0.028862331 -0.009321206 0.042836033 0.046752177 0.02631592 0.0680432 -0.0527215
0.0023725042 0.015547332 0.028764674 0.028794216 0.02206285 -0.017992305 -0.0912885 -0.0028960437
0.009272364 0.013602187 -0.0005377972 -0.13968019 -0.015827427 0.013703462 -0.0008206783 -0.001449251
0.03784235 0.03075672 -0.047862507 -0.02713409 -0.03183715 -0.0023052925 -0.010568595 -0.06658829
0.03023072 -0.023579836 -0.023461623 -0.055944905 -0.021241808 -0.0314673 -0.046731785 0.0040537813
-0.008905544 0.019586712 0.02961792 -0.02258334 -0.0022501303 0.0716601 -0.027313808 -0.0043834858
-0.029327145 0.042587064 0.016805278 -0.020094838 -0.29669875 0.035574917 0.0016593385 -0.050660387
-0.04371293 -0.008181929 0.009946861 -0.0080750715 -0.0005409129 -0.026054753 -0.008343123 0.018541127
0.030668503 0.02613006 -0.0049905553 -0.2823657 -0.0043401546 0.298548 -0.004506213 0.010491622
-0.18391138 -0.08150719 -0.020723905 0.055848986 -0.006478971 -0.010683594 0.23840843 -0.008879098
-0.03075981 -0.02580708 -0.00012076546 0.042472444 -0.010432166 0.028870838 0.026546322 0.011984081
0.024076456 0.022982217 -0.034056142 -0.026769027 0.022360293 0.030273471 -0.035153113 0.032166447
0.15518089 -0.011999162 -0.0031158847 0.006650845 0.010900451 -0.07285031 -0.053454 -0.004710225
00000000: 04ca 9ebc 341d a2bb 46cf 70bd 52c7 6c3c
00000010: 2883 acbc 29b6 fbba 973d a0bb 9a8a 12bd
00000020: 4e52 53bc 9e80 ffbb 4290 c3bc 58a9 3ebb
00000030: 2413 5d3b c948 ce3c e6b2 a0ba ca7b 63bb
00000040: 99e1 16bd 393e fb3c dbe7 fa3c c7d2 fa3c
00000050: 71ff cb3c 87d8 293d 28aa ffbc 0a38 03bc
00000060: 75d8 8b3b 1719 2e3d 918d 103d ef01 283c
00000070: ffe3 693c c404 2dbc 4964 da3c ab92 2c3c
00000080: e0cb abbd 1348 56bd 01ed 37bb 1a28 6abd
00000090: 43d6 aabb f565 cb3d 1f1a 1abd 518a 863c
000000a0: c4b8 f43a bffa 4ebc ba1b 94be a133 07bc
000000b0: 589c 61bd 1a68 e83d 67d9 f0bb 808f d13b
000000c0: ff01 00bd 4850 b43c f8a1 abbc 68ab 373d
000000d0: 2217 6a3d f629 ee3d 1d0e 903c e621 52bd
000000e0: 9690 4b3d 7e48 843c fcd9 053d 4e71 033d
000000f0: c141 50bc ac24 4b3c 7ce9 a5bc 0f0c f83b
00000100: 35d8 dfbd 07ac 8c3c f88b e3ba 7ff1 81bb
00000110: 9c86 a03b 8faf 51bc 07f9 46bd 801b 173e
00000120: 6d90 073d fc62 e0bb 9931 6b3d 0cf7 57bc
00000130: c559 263d 9630 0fbe 9be8 5dbd abb0 b33c
00000140: f93e f4bc c43d 02bd 0d29 77bc 9cfa c73c
00000150: fab4 6fbb beac 433c 6d92 6f3d b4b5 85be
00000160: f48c df3c c96b 06bd 604a c33d 50c4 203e
00000170: 3607 60bc 361a 873c ed4c a9bd c446 07bd
00000180: 6559 373d d8f3 aabe 731e 9abc 669b e73c
00000190: 85e3 573c 841e aa3a 32bd 913d 3638 c0bc
000001a0: 6653 83bc cf11 9abc 5a35 67bc 00ef eeb9
000001b0: 2140 3e3c 6d16 34bd d0c6 833d 0507 603c
000001c0: 6571 b2be e3e2 d2bb 25e8 2b3d 66a8 4dbc
000001d0: 4f7c 763d d3b6 163d 7300 19bd d3f1 1bbd
000001e0: 33f6 ef3c 5dde cdbd c0cb bbbb 4966 e3bc
000001f0: acfa 16bd 6e63 d4bd 9f7d 413d 02bd 88bb
00000200: 64ce c33c 99ce 67bd cb76 0bbd 673b b5bd
00000210: 3817 2bbd 5987 803c 8713 203d 3609 783d
00000220: e3ff 86bd abd9 d83b 39f8 913c 4cd6 99bd
00000230: a3df 80bc 6e57 903d e2e6 b4bc e81b 353c
00000240: 4592 5bbd 2211 fb3c e50c 6a3b 415a 45bc
00000250: 78f9 963c 66d8 74bd 1193 fb3b 35f3 73bc
00000260: 763e e13c b270 ecbc f9b7 18bc d674 2f3d
00000270: 367f 3f3d 7c94 d73c 3c5a 8b3d 80f2 57bd
00000280: 047c 1b3b 3dba 7e3c e5a3 eb3c d9e1 eb3c
00000290: 26bd b43c 9964 93bc 77f5 babd 8dcb 3dbb
000002a0: 1deb 173c b5db 5e3c f6fa 0cba 5308 0fbe
000002b0: 85a8 81bc 7c84 603c ca22 57ba cbf4 bdba
000002c0: 9400 1b3d 84f5 fb3c 7a0b 44bd 5048 debc
000002d0: ac67 02bd 6414 17bb e627 2dbc 715f 88bd
000002e0: 6aa6 f73c 802a c1bc 9732 c0bc 7c26 65bd
000002f0: 4d03 aebc dbe3 00bd d469 3fbd 95d5 843b
00000300: 8fe8 11bc 5074 a03c 48a1 f23c b200 b9bc
00000310: ec76 13bb 88c2 923d 35c1 dfbc 58a3 8fbb
00000320: 7b3f f0bc c66f 2e3d 39ab 893c ee9d a4bc
00000330: e6e8 97be 01b7 113d 297e d93a 4481 4fbd
00000340: 540c 33bd 7f0d 06bc 29f8 223c 4e4d 04bc
00000350: 0dcc 0dba c770 d5bc 98b1 08bc 90e3 973c
00000360: 833c fb3c b50e d63c d087 a3bb 3d92 90be
00000370: db37 8ebb 49db 983e dba8 93bb 0de5 2b3c
00000380: 4453 3cbe 3eed a6bd 2ec5 a9bc e8c1 643d
00000390: 8c4d d4bb 3e0a 2fbc 5721 743e a379 11bc
000003a0: fffb fbbc 5f69 d3bc 7643 fdb8 96f7 2d3d
000003b0: adeb 2abc 8982 ec3c ac77 d93c e158 443c
000003c0: fd3b c53c 3445 bc3c 747e 0bbd b84a dbbc
000003d0: ef2c b73c 1200 f83c b6fc 0fbd f7c0 033d
000003e0: bde7 1e3e 2298 44bc df33 4cbb 55ef d93b
000003f0: ce97 323c 8b32 95bd 95f2 5abd 3b58 9abb

out.bias f4 [2]
0.031968784 -0.01751642
00000000: b3f1 023d 987e 8fbc
