rnn_weights/weights_64_random_g0.9_relu_delay_discrimination.pt (torch, 20147 bytes, 5 tensors)

rnn.weight_ih_l0 f4 [64, 2]
-0.07009278 0.050040986 -0.074955985 -0.25074565 0.08267415 0.15895797 -0.108521156 -0.061761156
-0.011672125 -0.06255609 -0.49580622 -0.072766304 -0.07600622 0.030287212 -0.037165985 -0.035484437
-0.0046716533 -0.14689277 -0.07950009 -0.078893445 0.017044732 0.11632849 -0.07579015 -0.090658285
-0.030885838 -0.065258436 0.08179544 -0.13241681 -0.0760158 -0.09586424 0.18196966 0.20010136
0.044944625 -0.07781242 -0.10730084 0.13316263 -0.123340994 0.046387378 -0.10730002 -0.018212745
0.15131094 -0.1046946 0.03737966 0.0027903598 0.055304 -0.36526987 -0.11295445 0.41143745
0.087349616 -0.085801266 -0.049867123 -0.23424603 -0.13594434 -0.21364164 0.038136072 -0.085187845
0.10896263 -0.77645415 -0.09943043 0.13589323 -0.12083947 0.26252246 0.050326485 0.15756717
0.25168642 0.30014127 -0.1961796 0.16036049 0.026204862 -0.48336798 -0.006310294 0.0030034392
0.08561602 0.042600174 -0.0429561 0.027332189 -0.058754742 0.12146486 0.15821728 0.12462405
-0.19223061 0.17558743 -0.010281235 0.27752876 0.03892995 0.17908376 -0.1155629 0.0624434
-0.012171145 -0.13084377 0.14964104 0.1171831 -0.21854444 -0.34408727 0.046759218 0.14817235
-0.058203638 -0.031238547 0.11150614 0.10243091 -0.0952709 -0.1779144 -0.12657823 -0.17496522
-0.02768727 -0.25619757 0.032387007 -0.049821988 0.08170627 -0.80998254 -0.079209775 0.17756727
-0.01779341 -0.498965 -0.061140936 0.046508204 0.07072693 -0.4062708 0.093434095 0.013312824
0.09055457 -0.21637993 -0.0680944 0.009791226 -0.03677535 0.085697785 -0.1612542 0.13231257
00000000: ce8c 8fbd c7f7 4c3d 8682 99bd bc61 80be
00000010: 1151 a93d e1c5 223e 5740 debd 44f9 7cbd
00000020: 713c 3fbc 681d 80bd 50da fdbe 8006 95bd
00000030: 26a9 9bbd e31c f83c 5c3b 18bd 2158 11bd
00000040: ab14 99bb 0f6b 16be f1d0 a2bd e392 a1bd
00000050: 65a1 8b3c a23d ee3d de37 9bbd 0dab b9bd
00000060: 4c04 fdbc 37a6 85bd 5e84 a73d 4698 07be
00000070: 2cae 9bbd 7854 c4bd 4156 3a3e 5fe7 4c3e
00000080: db17 383d 1e5c 9fbd 8bc0 dbbd c95b 083e
00000090: 349a fcbd b100 3e3d 1dc0 dbbd e532 95bc
000000a0: 41f1 1a3e 1f6a d6bd 6a1b 193d 78de 363b
000000b0: 7286 623d a704 bbbe aa54 e7bd eea7 d23e
000000c0: 5be4 b23d 93b8 afbd 7841 4cbd 31de 6fbe
000000d0: fe34 0bbe e0c4 5abe 9234 1c3d f776 aebd
000000e0: cd27 df3d b3c5 46bf 2ea2 cbbd 9827 0b3e
000000f0: af7a f7bd 5869 863e 2523 4e3d 4a59 213e
00000100: 0bdd 803e 1eac 993e 4ee3 48be 8a35 243e
00000110: 94ab d63c 027c f7be 95c6 cebb 59d5 443b
00000120: 7457 af3d 857d 2e3d bcf2 2fbd c1e7 df3c
00000130: d0a8 70bd 92c2 f83d b603 223e e53a ff3d
00000140: 1ad8 44be 31cd 333e a072 28bc 4018 8e3e
00000150: 0375 1f3d bc61 373e 3eac ecbd a7c4 7f3d
00000160: 7b69 47bc e9fb 05be 803b 193e b1fd ef3d
00000170: 1dca 5fbe 352c b0be 9886 3f3d 7eba 173e
00000180: f066 6ebd fbe7 ffbc 555d e43d 4cc7 d13d
00000190: 641d c3bd 312f 36be b99d 01be 152a 33be
000001a0: 6ad0 e2bc 542c 83be 3da8 043d 2412 4cbd
000001b0: 9e55 a73d 045b 4fbf bc38 a2bd 32d4 353e
000001c0: 7cc3 91bc 5778 ffbe eb6e 7abd 637f 3e3d
000001d0: 48d9 903d ba02 d0be 605a bf3d 081e 5a3c
000001e0: ad74 b93d b392 5dbe 1475 8bbd 616b 203c
000001f0: c0a1 16bd 5282 af3d d21f 25be f27c 073e

rnn.weight_hh_l0 f4 [64, 64]
0.037672937 -0.33108887 0.19487299 -0.16924588 -0.09894192 -0.16802466 0.02988515 -0.011111866
-0.13008314 0.009249768 -0.038569868 0.11463248 -0.02003799 -0.24425657 0.0048768697 -0.033781257
-0.1275657 0.14970358 -0.14002597 0.0837892 0.0275414 0.16224776 0.0778906 -0.28360847
-0.00081338594 -0.0384174 -0.021954276 0.09998708 -0.17662142 0.25109586 0.17377223 0.043279745
-0.07391192 0.22745135 -0.10641444 0.0002977899 -0.058259275 -0.08711087 0.2320195 0.09577541
-0.12254738 -0.3596819 0.27124768 -0.006391276 0.11663684 -0.031799637 0.07322169 0.008994762
-0.059021905 0.14752561 -0.059048757 -0.27489036 -0.06583297 -0.22579075 0.17546734 -0.4821764
-0.13861488 -0.13236731 -0.08744288 -0.03458126 0.022495572 0.13173515 0.16022295 -0.24656339
-0.13760927 -0.1259066 0.087273225 0.09487982 0.055907004 -0.040401913 0.10231019 -0.14719859
-0.31007195 -0.019707112 -0.23936722 0.03221797 0.1586972 -0.15527672 0.03714468 0.036841266
-0.24222225 -0.061206304 -0.054731235 0.21428503 0.06764473 -0.033722263 0.056448873 -0.7238784
0.06445898 0.33823153 0.046130437 -0.0027509222 0.21437483 -0.12566149 0.065278366 -0.04779406
0.0068638204 -0.018978458 0.0692678 0.029925132 0.067066446 -0.030912532 0.08628725 -0.22240604
-0.075587414 -0.30711153 -0.24374901 -0.1188702 -0.16450606 -0.20596108 0.28428328 -0.11360769
-0.091449454 -0.06963664 -0.12828995 0.16935588 -0.22805087 -0.07067865 -0.015043893 -0.067510284
0.08055333 0.22544847 0.09643537 -0.033031885 -0.0091309035 0.1215904 -0.18950373 -0.14869975
-0.09932694 0.06991322 0.14833364 0.03478974 0.028248953 0.05628488 -0.041049935 0.01733305
-0.08938262 0.005092334 0.14181721 -0.19918893 0.058819126 -0.18523623 0.047819916 0.12472579
-0.27446422 -0.015634652 -0.031785905 0.100537784 -0.12847859 0.09664886 0.102214105 -0.07939357
-0.022214672 -0.0067154802 -0.14758947 -0.14111203 0.23505804 0.19863766 -0.12092381 0.15301271
0.12886557 0.13545829 0.0200147 -0.09465242 -0.2574538 -0.0028585559 0.106371984 0.031064998
-0.008654705 -0.07170073 0.11462501 0.00026979757 -0.21283501 0.17464562 -0.16377702 0.13497752
-0.105497286 0.027173255 -0.11731816 -0.0015163431 0.059448082 -0.079975665 0.06582937 -0.056507308
0.14331308 0.13057975 -0.027809914 0.10019618 -0.08639449 -0.09396208 0.17729735 0.019238513
-0.014549502 -0.09129643 -0.089088164 0.1751471 0.07730252 0.1230904 -0.07237504 -0.08100876
-0.37521988 0.30125362 -0.053095117 -0.11799747 -0.006577489 0.038689144 -0.063867584 -0.12935176
0.01864006 -0.13155146 0.11611313 -0.058180753 -0.023183871 -0.05092356 0.0259027 -0.26480612
-0.05742616 -0.32690844 -0.21045639 0.057574093 0.0732716 0.09881112 -0.2246412 -0.054986075
0.081498325 -0.0029113684 0.042141408 0.046730626 -0.12684809 -0.055710807 0.076045506 -0.09619255
-0.004572723 -0.120167606 -0.0451942 -0.11655688 0.126135 -0.09167939 0.08011455 -0.25713596
0.11394271 0.044472903 0.185635 -0.13403466 0.12781054 -0.15267825 0.022284407 -0.10626389
-0.24456422 -0.021659572 -0.18371937 -0.10130859 0.3212516 0.0673015 0.14014849 -0.026932936
00000000: f04e 1a3d 7b84 a9be c98c 473e cb4e 2dbe
00000010: 10a2 cabd a80e 2cbe b4d1 f43c 8b0e 36bc
00000020: 8434 05be 578c 173c 70fb 1dbd 6fc4 ea3d
00000030: b626 a4bc 651e 7abe 26ce 9f3b 375e 0abd
00000040: 95a0 02be e54b 193e f862 0fbe ac99 ab3d
00000050: 819e e13c 4724 263e 1b85 9f3d 2135 91be
00000060: 6839 55ba 905b 1dbd 74d9 b3bc 07c6 cc3d
00000070: 3fdc 34be a38f 803e 59f1 313e 1a46 313d
00000080: 225f 97bd 02e9 683e d0ef d9bd af20 9c39
00000090: 47a1 6ebd 2f67 b2bd 8596 6d3e e625 c43d
000000a0: 1ffa fabd 3a28 b8be fae0 8a3e e96d d1bb
000000b0: 4cdf ee3d 5640 02bd 41f5 953d c45e 133c
000000c0: f4c0 71bd f410 173e 1cdd 71bd 6ebe 8cbe
000000d0: 70d3 86bd b135 67be b6ad 333e d3df f6be
000000e0: 0ff1 0dbe 4c8b 07be 4115 b3bd 14a5 0dbd
000000f0: a248 b83c 94e5 063e 7c11 243e 1d7b 7cbe
00000100: 72e9 0cbe a9ed 00be 4ebc b23d 5a50 c23d
00000110: befe 643d 7a7c 25bd 0188 d13d 3abb 16be
00000120: c0c1 9ebe cf70 a1bc ae1c 75be fdf6 033d
00000130: 8581 223e dc00 1fbe 0525 183d dee6 163d
00000140: 1c09 78be 76b3 7abd dc2d 60bd 896d 5b3e
00000150: 5289 8a3d 5b20 0abd ef36 673d 1850 39bf
00000160: 1203 843d af2c ad3e 45f3 3c3d d148 34bb
00000170: 1385 5b3e 68ad 00be aab0 853d b4c3 43bd
00000180: e6e9 e03b b678 9bbc 47dc 8d3d 8d25 f53c
00000190: 225a 893d 473c fdbc 5fb7 b03d 69be 63be
000001a0: 93cd 9abd b93d 9dbe 5799 79be 3872 f3bd
000001b0: 4774 28be 76e7 52be 948d 913e 26ab e8bd
000001c0: da49 bbbd a89d 8ebd 715e 03be a16b 2d3e
000001d0: 2b86 69be f8bf 90bd a97a 76bc d542 8abd
000001e0: 25f9 a43d f7db 663e e87f c53d 714c 07bd
000001f0: c999 15bc 6304 f93d 440d 42be bf44 18be
00000200: ec6b cbbd aa2e 8f3d c6e4 173e b07f 0e3d
00000210: 596a e73c f98a 663d fa23 28bd 0afe 8d3c
00000220: 3c0e b7bd 98dd a63b 8838 113e 2ff8 4bbe
00000230: 53ec 703d 91ae 3dbe d1de 433d 3c70 ff3d
00000240: 9386 8cbe 3e14 80bc f031 02bd c1e6 cd3d
00000250: e48f 03be d6ef c53d a155 d13d 1999 a2bd
00000260: 8bfb b5bc 880d dcbb b221 17be ac7f 10be
00000270: 0eb3 703e ac67 4b3e e7a6 f7bd 5daf 1c3e
00000280: 56f5 033e 94b5 0a3e def5 a33c 21d9 c1bd
00000290: fcd0 83be 9c56 3bbb 8ed9 d93d 067c fe3c
000002a0: 77cc 0dbc d5d7 92bd 84c0 ea3d 9e73 8d39
000002b0: 6cf1 59be 4dd6 323e 2ab5 27be 8c37 0a3e
000002c0: f60e d8bd 729a de3c 8144 f0bd 08c0 c6ba
000002d0: d57f 733d 48ca a3bd 8cd1 863d 3574 67bd
000002e0: aac0 123e b3b6 053e 9ed1 e3bc a833 cd3d
000002f0: 98ef b0bd 316f c0bd 708d 353e 169a 9d3c
00000300: 0961 6ebc 9ff9 babd db73 b6bd c359 333e
00000310: c950 9e3d d216 fc3d 5d39 94bd ece7 a5bd
00000320: d21c c0be ea3d 9a3e 447a 59bd a8a8 f1bd
00000330: fa87 d7bb 8278 1e3d 02cd 82bd ca74 04be
00000340: 0ab3 983c 6db5 06be b8cc ed3d f14e 6ebd
00000350: 1aec bdbc 3995 50bd e631 d43c ab94 87be
00000360: b137 6bbd 8b60 a7be e181 57be d0d2 6b3d
00000370: 6c0f 963d 7c5d ca3d 5808 66be 1439 61bd
00000380: 98e8 a63d a8cc 3ebb 789c 2c3d 9d68 3f3d
00000390: 77e4 01be 0431 64bd bfbd 9b3d 9a00 c5bd
000003a0: c8d6 95bb 6f1a f6bd 8e1d 39bd 60b5 eebd
000003b0: 8929 013e 67c2 bbbd 1913 a43d 53a7 83be
000003c0: cc5a e93d 3829 363d 1a17 3e3e 6240 09be
000003d0: c4e0 023e b057 1cbe ca8d b63c e2a0 d9bd
000003e0: 0b6f 7abe 6a6f b1bc ee20 3cbe e17a cfbd
000003f0: 177b a43e 5ed5 893d 1683 0f3e 76a2 dcbc

rnn.bias_ih_l0 f4 [64]
-0.06761553 -0.040106364 0.08668664 0.08727812 0.05292222 0.068337515 0.080223836 0.11843188
-0.08256996 -0.04895299 -0.09226548 0.07058172 -0.00929921 0.03137766 -0.072048314 0.07996177
-0.09557593 0.042999424 -0.10564051 0.12814774 0.08234969 -0.117911436 0.058138967 -0.2538995
-0.12891604 0.091813274 -0.020652728 0.036571093 0.044679902 0.11153045 0.06216737 0.016403435
-0.014232414 0.06649984 0.11606497 0.115571134 0.06660883 -0.017358426 0.020791315 -0.102846175
0.105822206 -0.14924859 0.09807423 -0.03360217 -0.030093249 0.05169123 -0.018948637 -0.11305437
-0.0112864 -0.039240554 -0.036983225 0.035556965 -0.018551176 -0.09931441 0.122401 -0.22197004
0.012841498 0.05147807 -0.06883295 0.073218405 0.12375071 0.09246889 -0.09446514 0.06634125
00000000: 037a 8abd 9246 24bd c488 b13d dfbe b23d
00000010: f8c4 583d 8af4 8b3d 654c a43d 6a8c f23d
00000020: 701a a9bd ee82 48bd aff5 bcbd 268d 903d
00000030: b75b 18bc dc85 003d 118e 93bd ffc2 a33d
00000040: 50bd c3bd 2a20 303d 0d5a d8bd 2939 033e
00000050: f4a6 a83d 8d7b f1bd 2023 6e3d 1eff 81be
00000060: 9102 04be 9908 bc3d e92f a9bc 92cb 153d
00000070: 4602 373d 146a e43d 36a3 7e3d 7f60 863c
00000080: 122f 69bc 1131 883d 79b3 ed3d 8fb0 ec3d
00000090: 366a 883d 4233 8ebc 8c52 aa3c 04a1 d2bd
000000a0: 50b9 d83d 9fd4 18be 24db c83d 6ea2 09bd
000000b0: 1e86 f6bc 2fba 533d 2c3a 9bbc 0d89 e7bd
000000c0: 98ea 38bc b4ba 20bd b97b 17bd 2ea4 113d
000000d0: a3f8 97bc 5a65 cbbd 60ad fa3d 1d4c 63be
000000e0: 2565 523c abda 523d 4af8 8cbd 88f3 953d
000000f0: 0371 fd3d 5460 bd3d f076 c1bd ecdd 873d

rnn.bias_hh_l0 f4 [64]
0.05282981 0.107729234 -0.03538065 0.08061416 -0.13269088 -0.009070435 0.113074996 -0.07837951
-0.054064874 -0.016677842 0.0006444761 0.007356938 0.07907539 -0.08911822 -0.14496127 0.041202184
-0.03373668 -0.13431743 -0.052039295 0.06749075 0.029892052 -0.16713138 -0.047652483 -0.1911951
0.09030057 -0.112070784 -0.04459386 -0.00204592 -0.030065108 -0.0024226548 -0.11445437 -0.04011948
-0.052662723 0.004152676 -0.064445905 0.032014802 -0.083075866 -0.11416152 -0.08253108 0.032687753
-0.084484175 0.0076708808 -0.005566514 -0.104892164 0.05435268 0.05607377 0.12247567 -0.03189494
0.09877118 -0.09317847 -0.05919288 0.035815574 0.02931457 0.09353924 -0.019753795 -0.22939685
0.008583709 -0.095012374 -0.045979373 0.00808281 -0.018221734 0.074699625 -0.1561826 -0.014775113
00000000: 1264 583d 25a1 dc3d 4deb 10bd 0919 a53d
00000010: 1ee0 07be 299c 14bc dd93 e73d 7085 a0bd
00000020: 2173 5dbd f89f 88bc 0ff2 283a 7812 f13b
00000030: 47f2 a13d 9d83 b6bd ba70 14be 9fc3 283d
00000040: 792f 0abd 828a 09be 2827 55bd 9738 8a3d
00000050: 2de0 f43c 7d24 2bbe 402f 43bd a6c8 43be
00000060: 81ef b83d 5e85 e5bd 0da8 36bd d714 06bb
00000070: 1a4b f6bc 67c5 1ebb 0e67 eabd 5354 24bd
00000080: deb4 57bd 2c13 883b 37fc 83bd f421 033d
00000090: ae23 aabd 84cd e9bd 0e06 a9bd 98e3 053d
000000a0: 0a06 adbd 035c fb3b 4e67 b6bb b4d1 d6bd
000000b0: eaa0 5e3d 9cad 653d 86d4 fa3d 45a4 02bd
000000c0: 8b48 ca3d 5bd4 bebd 3c74 72bd 5ab3 123d
000000d0: 1c25 f03c 8091 bf3d b6d2 a1bc 02e7 6abe
000000e0: afa2 0c3c d995 c2bd de54 3cbd c36d 043c
000000f0: bf45 95bc 1efc 983d 55ee 1fbe 5113 72bc

out.weight f4 [1, 64]
-0.1652752 -0.12663661 0.048315313 0.13589266 -0.13450699 -0.11422966 -0.10792432 0.03663438
0.102565944 0.12266077 -0.29664138 -0.11081491 -0.14685185 0.103513636 -0.14788707 0.037083432
-0.06899608 -0.0032892148 0.06313551 0.040699013 0.1306332 0.14794746 0.14567788 -0.14338394
-0.15931387 -0.33506837 -0.39246053 -0.14774989 0.15677345 0.51209694 0.17809418 -0.32170835
-0.007949513 0.011392066 0.13561463 0.13057432 0.14711197 0.18317106 0.17176583 0.050327867
-0.3785288 0.067112684 -0.12483906 -0.0069340453 0.16784284 -0.038852423 -0.49425215 0.0363195
-0.16712643 -0.10091837 0.077190086 0.03313104 -0.046001747 -0.28330284 0.0015534402 -0.004538554
-0.39332676 0.085724086 0.098000705 0.13153432 -0.003642882 0.06943978 -0.32918233 0.24684262
00000000: e73d 29be 07ad 01be 47e6 453d 7227 0b3e
00000010: 33bc 09be 3df1 e9bd 6d07 ddbd ef0d 163d
00000020: 180e d23d 9235 fb3d 61e1 97be edf2 e2bd
00000030: 5560 16be f5fe d33d b56f 17be cce4 173d
00000040: d14d 8dbd de8f 57bb 314d 813d 02b4 263d
00000050: b6c4 053e 8a7f 173e 952c 153e 3dd3 12be
00000060: 2d23 23be 158e abbe 96f0 c8be bf4b 17be
00000070: 3889 203e c918 033f 525e 363e f5b6 a4be
00000080: ad3e 02bc caa5 3a3c 90de 0a3e 46b5 053e
00000090: 85a4 163e 3291 3b3e 62e3 2f3e 9824 4e3d
000000a0: 87ce c1be 6072 893d 9fab ffbd fd36 e3bb
000000b0: fede 2b3e b823 1fbd 9e0e fdbe c2c3 143d
000000c0: 3123 2bbe 4aae cebd d615 9e3d 6ab4 073d
000000d0: 546c 3cbd 120d 91be ce9c cb3a 27b8 94bb
000000e0: 2062 c9be 1c90 af3d 98b4 c83d efb0 063e
000000f0: 6bbd 6ebb 7236 8e3d 968a a8be 50c4 7c3e
