rnn_weights/weights_32_random_g0.9_relu_integrator.pt (torch, 7021 bytes, 5 tensors)

rnn.weight_ih_l0 f4 [32, 1]
00000000: ec8a 4f3e d592 323c 0908 be3d a188 503e
00000010: 037e 75bd 86e7 bbbd 2f9e 4f3e 4302 c0bd
00000020: 5d30 dabc 0dbc 84bd 3d30 1c3c fe9f f63b
00000030: d12c e03d 97bd 76bd 211c 05be ac04 5dbd
00000040: a853 063d f348 fb3d 3f76 733d 33a3 c3bd
00000050: 9f0b a43c 287f f33c 7399 1f3e 393e 023e
00000060: ff39 5a3e 4bda 0a3e 3d66 84be 40a1 c63d
00000070: e06e 0abe 3e97 5abe f141 593d b8e7 1abe
0.20267838 0.010899265 0.09278876 0.2036462 -0.059934627 -0.09175019 0.20275186 -0.093754314
-0.02663439 -0.0648118 0.009532985 0.007526397 0.10946048 -0.0602394 -0.12999012 -0.053959534
0.032794625 0.12269773 0.05943894 -0.09552612 0.020025073 0.029723719 0.1558588 0.12719049
0.21311186 0.13559835 -0.25859252 0.09698725 -0.13518858 -0.21346757 0.053041402 -0.15127456

rnn.weight_hh_l0 f4 [32, 32]
00000000: 3636 653e 6480 2e3e bde3 86bc a805 6e3e
00000010: ee7e 8d3b 117d c6ba 0d8e 373e 7fad 24bb
00000020: e8df b7bc 1809 053e 2ee6 7c3d e3c9 44bc
00000030: 6eb2 0bbe 3eae 1b3c 1973 0abe 144d a8bd
00000040: 6692 10be d3ff 2d3e fe7f 253e 5b46 1f3e
00000050: 9d44 153e a7ed 74bd 4880 43be f3b3 c33d
00000060: bf11 473e 7d0e 4bbe e400 853c 4127 8b3e
00000070: 88aa c03d 543c a0bd dd68 c5bd 2130 24be
00000080: 8bad 593d 9f49 6b3e 5e2f 393e d8ca 383e
00000090: e12b f6bd 7f91 6d3d 6d5f 8e3d 35cb 463d
000000a0: 3812 a73c cf22 033f 1d2a 593b 8d82 89bc
000000b0: 7f1d 0a3d 6d77 55be 090e 233d fad3 6cbb
000000c0: 2ed3 15bd e630 21be 1f86 c1bd 9098 a5be
000000d0: fe51 7b3c 338c 423d 6225 c9bd d104 d4bd
000000e0: 0408 59be c192 87bc 7af3 13bd 93ea c2bd
000000f0: 24e6 c2bc b796 a23e 794b 043e 2901 89be
00000100: 7752 753e 2bb8 66bd 243e 073e 0234 8fbd
00000110: 4f09 483e 04c8 c43e bf3c 813e 55ec febd
00000120: 5809 263e 20a9 13be 01d8 213e 9c65 183d
00000130: 68bc 8c3e 572b 26be 6a3d d5bd 67e2 e8bd
00000140: eda9 93be e0f7 0dbc e8bc af3e 28d5 9d3d
00000150: 2c9d bbbd 6c6f 3b3e 8c83 87be 665f d6bd
00000160: 2ea0 683e 83af 62bd c380 a2bd 8a83 ad3e
00000170: f629 723e 728c 39bd c0d2 52be 4e91 553d
00000180: 47d5 5b3d c7da 6ebd 0678 053e 1d87 9bbe
00000190: 7802 073e 6f04 36be e4aa 093e ce4c 07be
000001a0: 93bd 8b3b 8383 19bd 5307 103e beaf 17be
000001b0: b1ff a83d dba4 a4be 0aed 10bf c27d 97be
000001c0: 52d2 4dbe a712 4f3e 1710 dd3d 9e44 a63b
000001d0: 9224 943e 8586 103c 1baf 153e b64c 483e
000001e0: 5f3f 68be 13ff 1bbe a0f8 b2bd 384c 693e
000001f0: 8a7f 88bd 6e40 8ebe a2eb b73c f248 d13c
00000200: 8731 e23c a1fc 22be 64e9 1fbe c873 23bc
00000210: d60a e0bd 2784 7c3e 6fb2 dfb9 e8e7 0c3e
00000220: f882 ae3d 3d4e 85bd 3f40 1b3e 2c85 0a3e
00000230: d366 99bc 26f0 59be d2be 9f3e a853 363d
00000240: 7524 d5bc 6991 cd3d 55fd e6bd 21b1 ee3d
00000250: 398e 60be 9a09 b6bd 343a 9dbe 2f17 41bc
00000260: efd1 80be 565f 35be 1984 e4bd b328 95be
00000270: 79dd 65be c56c 003e 03ee e13d 3a22 a6be
00000280: 3468 0ebe e97b 35be c78a 55bc 49b1 bf3d
00000290: c37f f43d f588 9bbe 3a63 843d e308 8abc
000002a0: da6f f43d 0588 6cbe a787 92be 6c99 32bd
000002b0: 726d f6bd 429b b2bd 9363 003d 0e8c ff3d
000002c0: 2fc2 39bc 1fe0 30bd e72a 45bd 883e c7bd
000002d0: 743c 9ebe 5aef 0dbe 1e99 c3bc cfb8 143e
000002e0: 3c28 d1bd 51b5 553d 108f 4d3d 46fa 253e
000002f0: 38f9 53be ad2d da3c e6e6 843e ec34 8bbe
00000300: f9a7 2e3e 6b00 dabc 23bb 1e3e 8706 d5bd
00000310: 7c28 31be 824d bb3e f2ef fbbd 1b0d 3cbc
00000320: 14d2 59be aec3 d03d 5361 ae3d cce0 44be
00000330: 3108 71bd e3f9 763e 57e6 51bc 3d00 7b3d
00000340: 50c2 113d a05b 533e 1ce1 7e3d 5248 03be
00000350: 399d 93be 5d0f 0fbc ce4b a9bd 812a 373d
00000360: 83d0 e63d c499 4cbe 9a4c d5bd e04c d53d
00000370: fde6 80be 75df 79be edb2 3a3d 8470 f0bd
00000380: eefa debd e78a 8cbe 3e25 dcbb 1cc9 31bc
00000390: c740 023c 59a5 c8bd 6f59 8f3d 5e67 7fbd
000003a0: 98db b1be ef1a 5fbd aec5 4c3e 6857 c53d
000003b0: 9e41 753e 2153 eb3d 15b4 84be d0d3 32be
000003c0: 7f95 81bd 53f2 853d dbdd 483e 5712 cbbd
000003d0: a4f3 bf3d 3ff2 263e 237e af3d 9f47 aa3d
000003e0: 6fa4 79bd 6480 083e a075 ca3d 64c3 3d3e
000003f0: 58a8 5f3e 401f cd3d 1576 f13d a57d 073e
0.22383961 0.17041165 -0.016466016 0.23244345 0.0043181097 -0.0015143474 0.17925282 -0.0025127826
-0.022445634 0.1299175 0.061742954 -0.012011024 -0.13642284 0.009501992 -0.13520469 -0.082178265
-0.14118347 0.1699212 0.16162106 0.15554182 0.14576955 -0.059796955 -0.19091904 0.09555807
0.19440363 -0.19829746 0.016235776 0.27178386 0.09407526 -0.07824007 -0.09639142 -0.16033985
0.05314402 0.22977303 0.18084475 0.18046129 -0.12020088 0.058000084 0.06951795 0.048533637
0.02039443 0.5122499 0.0033136674 -0.016785884 0.033719536 -0.20846339 0.039808307 -0.003613709
-0.03657835 -0.1574131 -0.0944941 -0.32342958 0.015339373 0.047496986 -0.09821583 -0.10352481
-0.21194464 -0.01654947 -0.03612087 -0.09517398 -0.02379138 0.3175561 0.12919416 -0.26758698
0.23957239 -0.05632798 0.13207299 -0.069923416 0.19534801 0.3843385 0.25241658 -0.124474205
0.16214502 -0.14419985 0.15805055 0.037206277 0.27487493 -0.1622747 -0.104121044 -0.11371308
-0.2884058 -0.008665055 0.34323812 0.07706672 -0.091608375 0.18304223 -0.2646755 -0.104674146
0.22717354 -0.055343162 -0.079347156 0.3388942 0.2364882 -0.045299955 -0.20588207 0.052140526
0.053670194 -0.05831411 0.13034067 -0.3037652 0.13184536 -0.17775129 0.13444096 -0.13212892
0.0042645424 -0.037478935 0.14065294 -0.14813134 0.08251894 -0.32157025 -0.5661169 -0.29588133
-0.20099762 0.20221959 0.107940845 0.005074098 0.2893415 0.008821134 0.14617579 0.19560513
-0.22680424 -0.15234022 -0.08738828 0.22782981 -0.06664951 -0.2778353 0.022451226 0.025547478
0.027611507 -0.15916683 -0.15616375 -0.009976335 -0.10939567 0.24659787 -0.00042666818 0.1376034
0.08521074 -0.065090634 0.15161227 0.13527364 -0.018725788 -0.21283016 0.31200272 0.044513375
-0.02601836 0.100375004 -0.11278788 0.116548784 -0.21929254 -0.0888855 -0.30708468 -0.011785313
-0.25160167 -0.17712149 -0.11158008 -0.29132614 -0.22447766 0.12541492 0.11031725 -0.32447988
-0.13906938 -0.17723049 -0.013033575 0.09359986 0.11938431 -0.30377927 0.064642385 -0.01684994
0.119353965 -0.23098762 -0.2861912 -0.043603346 -0.12032594 -0.08721019 0.03134496 0.12477885
-0.011337801 -0.04318249 -0.048136618 -0.09728724 -0.30905497 -0.13860837 -0.023876723 0.14523624
-0.10212752 0.05217487 0.050185263 0.16208753 -0.20700538 0.026633108 0.25957412 -0.27188814
0.17056264 -0.026611527 0.15501074 -0.104016356 -0.173006 0.3658257 -0.12301625 -0.011477734
-0.21271545 0.10193573 0.08514657 -0.19226378 -0.058845703 0.24118762 -0.012811265 0.061279524
0.0355857 0.20640421 0.0622264 -0.12820557 -0.2883089 -0.00873169 -0.08266412 0.04471827
0.11270239 -0.19980532 -0.10415001 0.10415053 -0.2517623 -0.24401648 0.045580793 -0.11740211
-0.10887705 -0.27449724 -0.006718307 -0.010851171 0.007950014 -0.097971626 0.0699948 -0.062354438
-0.3473785 -0.054469045 0.19997284 0.09635812 0.23950812 0.11490465 -0.25918642 -0.17463613
-0.06327342 0.0654036 0.19615881 -0.099156074 0.09372643 0.16303347 0.085689805 0.08314442
-0.06094783 0.13330227 0.098857164 0.18531567 0.21841562 0.10015726 0.117901005 0.13231523

rnn.bias_ih_l0 f4 [32]
00000000: c010 dc3d c84a 8cbd c4da 02be 4b9f 27be
00000010: 8164 c73d 8a74 413e 9590 28bd 9dcc 213e
00000020: 26ea c33d d613 13be 8ba5 23be d1a4 21bd
00000030: dabd 1a3e a6ee 9b3d 3721 83bd 071d 14be
00000040: ea90 c23d 027c 493e 59ee db3d 5081 f1bd
00000050: da45 24bd 992e 383d 3c29 72bd 51ad d43d
00000060: 2dee 5dbc 4662 6cbc c216 d03d c3cb 9abd
00000070: b76e cbbd 651f 003e b6b9 43be 4348 d8bc
0.10745382 -0.06850201 -0.12778765 -0.16369359 0.097359665 0.18892112 -0.04115351 0.1580071
0.09566145 -0.14363036 -0.15981118 -0.03946382 0.15111485 0.07613878 -0.064028196 -0.14464198
0.095002964 0.19676211 0.107388206 -0.117922425 -0.04010568 0.044966314 -0.059121355 0.1038462
-0.013545555 -0.014427727 0.10160591 -0.07558396 -0.099332266 0.12511976 -0.19113812 -0.026401645

rnn.bias_hh_l0 f4 [32]
00000000: 22d8 94bd a81a 2ebe d061 113d 834d 8dbc
00000010: 5a7a 5b3c 2599 073d c0af 81bd 9f9e bf3d
00000020: d755 923d a002 12bd 1c01 b8bd df07 c0bd
00000030: 7260 4a3d 21dc b63d 5812 01be 5912 f73c
00000040: 75f8 09be b66d 9dbd 96ab a8bd 39e2 d33d
00000050: a893 833d e957 5abe 9c49 0fbe 8f83 a0bd
00000060: a658 b73d d38a 3dbe 28f7 babd ed74 a23d
00000070: 4120 f23c 1907 1b3e 188a 31be c113 313e
-0.072677866 -0.17002356 0.035493672 -0.017248875 0.01339587 0.033105034 -0.0633235 0.093564264
0.07145279 -0.035647035 -0.089845866 -0.09376501 0.049408384 0.08928705 -0.12604654 0.030160116
-0.13473685 -0.07686941 -0.082358524 0.10345883 0.064246476 -0.21322598 -0.13992923 -0.07837593
0.08952455 -0.18509988 -0.091291726 0.07932458 0.029556395 0.15139426 -0.17337835 0.17292692

out.weight f4 [1, 32]
00000000: c24b 263e f167 90bc 8071 363e 97d4 3f3c
00000010: 60af ffbd 85cc e23c cd3b 013e 6757 eabd
00000020: b118 4d3e 9551 013e 2064 13be 81e6 603d
00000030: b841 86bd b411 a4bd a862 10be 37bf bc3c
00000040: 4bec 9b3d d578 03be ae38 183e 20ea 263d
00000050: 99f9 c7bd 7396 ebbd 1319 303d a2af 563d
00000060: 39c5 b0bd 5f89 f7bc 4f55 c7bd f806 0e3e
00000070: 9d9b 79bd 2a4a c0bd f0f5 73bd 4580 6ebd
0.16239837 -0.017627688 0.17816734 0.0117084 -0.12484622 0.027685413 0.12620468 -0.11442452
0.2002895 0.12628777 -0.14393663 0.054907326 -0.065555036 -0.08011189 -0.14100134 0.023040397
0.07613429 -0.12839063 0.14865372 0.040750623 -0.09764404 -0.11503305 0.042992663 0.05241359
-0.08631367 -0.03021687 -0.09733068 0.13869846 -0.06093942 -0.09389146 -0.059560716 -0.058227796
